ML and AI/Hummingbirds/ml-agents/results/hb_01/Hummingbird/Hummingbird-4999896.onnx (onnx, 318358 bytes, 7 tensors)

network_body._body_endoder.seq_layers.0.weight f4 [256, 46]
00000000: 007d a63d 5a6c 363d 8bf3 553e a3b3 79be
00000010: 50d0 ad3d 0633 7d3d cf7d 57bd dd22 7a3d
00000020: 361a d23d 5a32 3f3e b9a8 8a3d df84 b03d
00000030: 91ed e13a caab 6cbd b889 71be dc79 4abc
00000040: a201 123c aa7c 60bd f586 0a3e e3e4 75be
00000050: d4f2 80be 3bb3 153d c390 94bd b485 f4bc
00000060: 947c 093e 3c27 5bbe 93da 82be 65f4 2abe
00000070: 0844 783d 715a bf3e 4703 cf3c e740 8d3d
00000080: 2604 62bd d221 4c3d 4bdf 7ebd 4011 b73d
00000090: afc2 26be db1c 3b3e 9b63 e03c b374 373d
000000a0: 9130 4ebe 5729 323e 18f8 b4bc abd7 373e
000000b0: 4c53 323c 708f 5cbe d1d1 39be e8eb 84bd
000000c0: b78d e7bc a387 213c 929d 833e fe96 313e
000000d0: 8402 883e af80 41bb 5cc0 b43d 32c4 253d
000000e0: 214e c53d 0fab f63b ba49 05be bd92 833e
000000f0: 41a7 2fbd 3c3e 64bd 6bec a03d 9fac 833d
00000100: 0535 0bbd 9f6e 913e 0656 24be 15e4 c0ba
00000110: 9c4d ba3d 326f 88be 7149 49bd 9846 5cbe
00000120: be11 a9be 34b4 883d a7da 063e da20 083e
00000130: 3fa0 8cbe 3849 a83b 68fc 32be 6e5b 803d
00000140: 48e1 753e f7e8 72bd 92ef 073d 1ad6 08bd
00000150: f64d 60be 1bee 9d3d 5dbb 663d 09fd 89bb
00000160: a1d0 50be 02b7 913e 24e4 f03d 45bb 963e
00000170: 4bc7 0a3e c726 10be 707a 2ebe 6204 ca3c
00000180: fe99 03be 44a1 54bd 4a92 853b a341 e7bd
00000190: 4a4a 833e 940f d93c 3a43 823d 1c10 713a
000001a0: 3090 9bbb 848d 36bd 4e1e 8abd 0aad 6bbd
000001b0: d5de 113e b2ef 0fbe 85f7 10be 3618 033e
000001c0: 67fb be3d 4f13 b13d 1c4b 653e dfd9 163c
000001d0: f476 843d 5d7f 09bc 4189 84bc 4b52 60bd
000001e0: 5c7d 2cbe b25a af3d 2b87 edbd 0801 f1bd
000001f0: ad4c 0c3e 924f 4f3e 81bb a2bd 9c45 6c3e
00000200: 9137 033e 0f7e e6bd 5bd6 4ebe 3de4 b43c
00000210: 1d4b 06be 4a76 5fbe f176 f2be 7b79 d43d
00000220: a2ca bfbd 134c b43d 8069 85bb 07f4 12be
00000230: fe20 a8bd 822a 243c 307e f1bc d51d bbbd
00000240: bfb8 34be 0ff1 973e c6f3 2b3e 7f63 7bbe
00000250: e99e 243d ab0b 59bd 6334 6dbe 573d 13be
00000260: 084e a43d 5d08 02bc 571e d6bb a5ed 1c3d
00000270: 307f 86bd 1ee6 8e3e cb0b 563d 5d5a 54bd
00000280: e47f b1bd 3478 f43b a6d5 873e e9ce 2bbe
00000290: 1230 233d dc76 11bd 8fc6 003d b980 2c3e
000002a0: ec73 51bb dad1 5c3e a85f dd3d 744f 523e
000002b0: 6581 c23e fbbc 893d 54c7 403c aa78 25bd
000002c0: 64e3 76be f536 153e 666f 80be 8602 e3bd
000002d0: 9621 3c3e e1e5 e4bc 27c2 483e 3f7d 16be
000002e0: cd62 5fbe e923 5c3d 5eaf b2be 6538 a83d
000002f0: e975 86bd 2008 393d d59d c73c 6bc8 0f3e
00000300: aea9 b33c c83a 6f3e 3707 ce3d 2710 31bd
00000310: 495b 47ba b989 a03d 5af0 e9bd 3325 83bd
00000320: 06d7 b6bc 9df9 91bd 9fcb 77bc c71e 85be
00000330: a351 fa3d fd7e 193c fc2f 81be ae47 523d
00000340: 6d6f 21be 627f 193e 65a5 d73b 3ac8 2ebe
00000350: 7573 a23d 3721 13be 9854 973e 4f24 b73e
00000360: 7c02 5d3e aad9 53bd eefc 813d ca92 9abd
00000370: 577d 0d3e 0d86 5fbd 4bb7 b2bd 062b 863d
00000380: 3328 0e3c 5d72 0dbd 7fc9 e53d 8415 c1bd
00000390: 9270 833e cd1f f03d 5d9b 053e 6369 403d
000003a0: 33ef b8bd 5245 773e 4d71 763e ca7c 273c
000003b0: 7ec2 6ebd 8f3a 893d dcb7 1fbe 12bc 06bb
000003c0: 0a2d e7bd 027f 96be 7969 303e ed1a ff3d
000003d0: 773d 9f3e 5ae3 5d3e 9759 69be 74bd 303d
000003e0: 5338 fb3c 3386 31be 4e98 5f3e f053 ae3d
000003f0: 14d8 3b3d 64d2 283e 438b 393e 98f4 3c3d
0.081293106 0.044536926 0.20893686 -0.24384932 0.08486998 0.061816238 -0.052610215 0.061068404
0.102589056 0.18671551 0.067704625 0.08619093 0.0017236938 -0.05778102 -0.23587692 -0.012358155
0.008911522 -0.05480639 0.13528045 -0.24013095 -0.25185263 0.03654788 -0.072541736 -0.02984891
0.13426429 -0.21401685 -0.25557384 -0.16694792 0.060611755 0.3737369 0.025270117 0.06897145
-0.055179738 0.04983694 -0.062224668 0.08938837 -0.16285203 0.18272726 0.027391246 0.044789027
-0.20135714 0.17398582 -0.022090957 0.17953365 0.010884117 -0.21539092 -0.18146445 -0.06490308
-0.028265817 0.0098589985 0.25706154 0.17342755 0.2656442 -0.0029526164 0.08825752 0.04047031
0.096340425 0.007527716 -0.13016406 0.2569789 -0.042884115 -0.055723414 0.07857593 0.06429409
-0.03398611 0.2840471 -0.1604844 -0.0014716411 0.09096834 -0.26647335 -0.049142305 -0.21511304
-0.3302135 0.06674996 0.13169347 0.13293782 -0.27466008 0.0051356815 -0.17479098 0.06267439
0.24011719 -0.059304204 0.033187456 -0.03340731 -0.2190474 0.07711431 0.056331027 -0.0042110723
-0.20392086 0.28459936 0.11762264 0.2943975 0.13552587 -0.14077292 -0.17038894 0.024660293
-0.12851712 -0.051911607 0.004076277 -0.11291816 0.25642616 0.026496686 0.06360479 0.0009195821
-0.004747413 -0.044568554 -0.067440614 -0.05753807 0.1424516 -0.1405628 -0.14156921 0.12802204
0.09325295 0.08646261 0.22391933 0.009207218 0.06468001 -0.008392182 -0.016178729 -0.05476598
-0.16844696 0.08562221 -0.11598047 -0.11767775 0.13701124 0.20245197 -0.0794592 0.23073429
0.12814166 -0.112545125 -0.20198958 0.022081489 -0.13114591 -0.21822467 -0.4735637 0.10374733
-0.09364821 0.088035725 -0.0040714145 -0.14350902 -0.08209418 0.0100199 -0.029479116 -0.091365494
-0.176486 0.296761 0.16792211 -0.24549673 0.04019061 -0.052989643 -0.23164515 -0.14378868
0.08022696 -0.007936564 -0.0065343785 0.038312573 -0.06567228 0.2790994 0.05225734 -0.05184399
-0.08666971 0.0074606184 0.26530188 -0.16778149 0.039840765 -0.035513744 0.03143936 0.16845979
-0.0031959964 0.21564427 0.108092606 0.20538121 0.37989345 0.06725498 0.0117662735 -0.040398277
-0.2411018 0.14571746 -0.2508499 -0.11084466 0.18372187 -0.027941646 0.19605313 -0.14696215
-0.21815033 0.053745184 -0.3489942 0.082138814 -0.06565458 0.045173764 0.024367252 0.14041297
0.021931496 0.23362267 0.1005997 -0.043228295 -0.000760485 0.078387685 -0.114227965 -0.064035796
-0.022319328 -0.07127688 -0.015124231 -0.26000044 0.12222602 0.009368655 -0.25231922 0.05133789
-0.15765162 0.14989999 0.006580996 -0.17068568 0.07932178 -0.14368139 0.29556727 0.3576989
0.21582979 -0.051721253 0.06347071 -0.07547529 0.13817345 -0.0545712 -0.087263666 0.06551175
0.008676576 -0.034532893 0.11220073 -0.09427932 0.25671822 0.117248155 0.13047548 0.046975505
-0.09029999 0.24147537 0.24066658 0.010222623 -0.05829095 0.06700622 -0.1559748 -0.0020558876
-0.112878874 -0.29393774 0.17227735 0.124563076 0.3110158 0.21668759 -0.22788082 0.043149427
0.030666506 -0.17336349 0.21835443 0.085121036 0.045860365 0.16486508 0.1811953 0.0461317

network_body._body_endoder.seq_layers.0.bias f4 [256]
00000000: 0abf 933b acae 11bc c131 c63b fc7f 1cba
00000010: 53f8 c23c bb53 a33b 17f6 a83d ea97 803a
00000020: b922 e43c d787 8b3b 801d 493d 0039 5a3c
00000030: 9094 febb ce73 df3b eee2 863d 774f d43c
00000040: 0b55 823c dd62 503d 1921 163d 7c1d b33c
00000050: 1ce4 843c e4b6 823c b0a8 dd3c ab90 af3c
00000060: 6825 9fbc 212f 453c 1a98 7c3c 718d a0bc
00000070: 1452 88bc dc28 4e3b c521 6b3c 89af dfbb
00000080: 36a7 913c 27c5 95bc 621d 53bb f8e1 2abc
00000090: 725d 6bbb b3e2 9bbb 17c2 323c 94f3 94bc
000000a0: 8b1f 42bc 7331 003b dd4d 5ebb e74b f93c
000000b0: 9f2d 653c fd5d 2d3c a206 e6bb c24d b23c
000000c0: 7d94 c83b 17ab 713c b47a 903c 46eb 98bc
000000d0: 8ffe e43c 8495 c3bb 48f7 7d3c 6b10 633c
000000e0: 1eac 113b fd90 0b3d db1e 123d aadb c63c
000000f0: ce83 333d fa3b f23c de98 0d3b a917 103c
00000100: c9ee adba ff58 f53c 9347 3d3d 7dbc 873c
00000110: 8de6 453d c82e 973c b133 063d b6b3 a53c
00000120: 10ee f83c b473 f33c fc54 d63c efa0 bb3c
00000130: aeca 873d 0795 8d3c fb52 0abb ea80 063d
00000140: 827b b23b 3e0e 373b 8ecb 2f3c 6f49 c03c
00000150: a4eb 3f3c 124e 043d df27 2a3d 4328 d33b
00000160: a45a 203c ff4f f73c 679b 8d3d 8a56 8e3d
00000170: 6fd8 673d f8d3 8b3c 19dd 2a3d bfc1 19bc
00000180: 2f9b aa3c 8214 8a3b 78bb 3cbb 8822 eebc
00000190: c8ec 2cba 1857 aa3c 15d3 a23b bd21 b43a
000001a0: 5f33 b03c e606 623c 0a6b 4e3c b95c 483d
000001b0: 8837 563b 2894 b3bb 2847 753c 1c81 df3c
000001c0: 4b54 3a3c d9af dbbb df54 413c d806 043d
000001d0: df94 27bc 06b8 193a 8860 3d3c b3b6 4a3d
000001e0: 10cb 82bc 8142 483a 5442 803c a0c3 ea3b
000001f0: 82db 89bc 3621 f23b 7eb8 703c 326b 9e3b
00000200: 8bbb ed3c 8a40 ae3c e3fd 173d 59a2 ba3a
00000210: 8afa 4c3c 1e2a f93b c322 943c 3071 24bc
00000220: 99c3 a43c d7e5 303c 85bb fe3c 20df 47bd
00000230: 24c0 313c 1ba9 b73b 68a6 7c3c 40c4 2b3d
00000240: d31e 013c 1fc8 5bbb b00b 033c 5eaf 263c
00000250: 5c51 d13c b32d 023c c32e c13c 41c2 d93c
00000260: 0adc efbb fc04 9c3c fd71 603d 69f9 b83b
00000270: c3fb 583d 94cb 313c e6cf af3c 381c e6bb
00000280: 1e9f 01bc c63c 1e3c 7bb8 bd3b d182 fbbb
00000290: fc81 643c e891 0f3d 277e 053d 42dd 3c3c
000002a0: 39f7 2c3c 97ae 6e3c 7154 dd3c 9180 543c
000002b0: b827 00bc fbb9 8fba 64d1 cfbb 9714 f4bb
000002c0: b864 853c 513c 243c 2615 9f3c dbaf 0e3c
000002d0: cbef 243d 602f 463c cca8 5b3c e55f 4cbb
000002e0: b357 8e3b cfbf 653c 2ae5 a13c c384 2a3d
000002f0: 0cdc b13c 0181 3f3d a0a3 483d d8bf 863c
00000300: 8519 ff3b 497d 003d 03ae ca3c 582f b8bc
00000310: b4a3 c53c fe7b 6d3c f154 813d 4a6b 3a3b
00000320: 4b92 43bc 76d3 133d 8079 843c a3d2 2c3c
00000330: ac53 293c 4dc2 8a3c 618c 693c cbd7 043d
00000340: 8768 b8bb 535d 423c 20ab ad3c c12d 203d
00000350: 948e 81bb 018d 0d3c d311 173d f379 933c
00000360: b239 56bc fb06 82bb d2c7 543d 8071 4f3c
00000370: 800a 4b3d 81fe ffbb 6254 7eba c624 c43c
00000380: 102e dd3c 673d 403c 34ab 853d 686a f7bb
00000390: 2b48 4a3c 5779 173b cb7c 8dbc 7318 b339
000003a0: 78dc fd3c 0a8a 883c 67fb 7d3d f17a c03c
000003b0: 76e8 3f3c 6d75 013d a7d1 823c 4559 23bc
000003c0: 7c7a 8f3c 0070 083d a62f 11bb b627 823c
000003d0: a6f7 babc cde1 8c3c efa0 ae3c 25a6 b73c
000003e0: 04df 53bd fc57 db3c 2e06 15bb a551 613c
000003f0: dfc6 6a3c e8ab 783b 07a9 923b d920 2fbc
0.0045088576 -0.008891743 0.0060484116 -0.0005969999 0.02380005 0.0049843467 0.08250063 0.0009810899
0.027848588 0.0042581367 0.0491004 0.013319254 -0.007769175 0.006819225 0.06586252 0.025916798
0.015909692 0.050875533 0.036652658 0.021864645 0.016222052 0.01595635 0.027057976 0.021431288
-0.019427016 0.012035162 0.015417123 -0.019598695 -0.0166407 0.003145746 0.014351313 -0.0068263453
0.017779928 -0.018282486 -0.0032213558 -0.010429852 -0.0035913852 -0.0047572493 0.010910532 -0.018182553
-0.011848341 0.0019560724 -0.0033920922 0.0304317 0.013987928 0.010581491 -0.0070198337 0.021765593
0.006121217 0.014750264 0.017636634 -0.018666875 0.027953414 -0.0059687514 0.015500851 0.013858895
0.0022227834 0.03407382 0.035673957 0.024274666 0.04382687 0.029569615 0.0021606009 0.0087947035
-0.0013270016 0.029949663 0.046210837 0.01656937 0.048315573 0.018454924 0.03276414 0.020227294
0.030386955 0.029718257 0.02616357 0.022903888 0.06630455 0.017282976 -0.002110659 0.032837786
0.005446852 0.0027932073 0.010729684 0.023472516 0.011713896 0.032301016 0.04154193 0.0064440086
0.009787235 0.030189512 0.06914406 0.069501 0.05660289 0.017068848 0.04171476 -0.009384572
0.02082595 0.0042138705 -0.0028798264 -0.0290692 -0.00065965625 0.020793483 0.0049690106 0.0013742965
0.02150887 0.01379559 0.012598762 0.048916552 0.0032686908 -0.005480308 0.014970578 0.027283244
0.011372636 -0.0067043123 0.01180002 0.03223309 -0.010228365 0.00058639084 0.011558659 0.04949064
-0.015965968 0.00076393044 0.015656628 0.0071644336 -0.016828302 0.007389213 0.014692424 0.004834556
0.029020092 0.021271009 0.03710736 0.0014239057 0.012510905 0.0076038977 0.018082982 -0.010036752
0.0201128 0.010796986 0.031095276 -0.048796773 0.010849033 0.0056048757 0.015420534 0.041935205
0.007880884 -0.003353603 0.007998392 0.010173647 0.02555149 0.007945466 0.023581868 0.026581885
-0.007319932 0.019045345 0.054796208 0.0056449664 0.052974474 0.010851759 0.021461438 -0.007022407
-0.007911472 0.009658044 0.005789814 -0.0076755066 0.013947006 0.035051256 0.03259101 0.011527361
0.010556989 0.014567993 0.027017804 0.012970106 -0.00782197 -0.0010965461 -0.0063421 -0.0074487436
0.016283378 0.010024146 0.019419264 0.008708919 0.040267747 0.012096256 0.0134069435 -0.0031185087
0.0043439507 0.0140227815 0.019762594 0.041630518 0.021711372 0.046753887 0.04898417 0.0164489
0.0077850246 0.03136948 0.024741178 -0.022483513 0.024125911 0.014494894 0.063150294 0.0028445297
-0.011936734 0.036090337 0.016171217 0.010548267 0.01033489 0.016938353 0.01425466 0.03243236
-0.005627695 0.011863071 0.021199763 0.039106134 -0.003953764 0.008639575 0.036882233 0.018002486
-0.013075279 -0.0039681173 0.051948376 0.012661338 0.04957056 -0.0078123217 -0.0009701905 0.023943316
0.026999503 0.011733389 0.06526795 -0.0075505264 0.012346308 0.0023113096 -0.01727142 0.00034159757
0.030988917 0.016667385 0.062007334 0.023496123 0.011713138 0.031606127 0.01596911 -0.009970014
0.01751446 0.033309937 -0.0022153645 0.015888076 -0.022823166 0.017197514 0.021316973 0.022418091
-0.051726356 0.026775353 -0.002273928 0.013752376 0.014329641 0.003794426 0.004475716 -0.010688984

network_body._body_endoder.seq_layers.2.weight f4 [256, 256]
00000000: 8580 48bd dc2b d7bd 1750 4abd 6695 843d
00000010: d9bb 273d 89f6 993d a9b9 19bd 6b6d 503d
00000020: aa4d 743d 541a 4bbd 14dc 19bd b92d ccbd
00000030: 1428 25bd e25e f93d 7dfa 4f3e 61a3 d0bd
00000040: 6eee a33d 5e8b 053e 76bf 863d 4749 453d
00000050: 15b1 253d 597e c8bb aff7 c3bd 1e16 143d
00000060: d210 8ebb 3606 c9bb 6a15 ac3d c22e c0bd
00000070: 8385 b6bd b0f4 18bd 85ce 9c3d b6ad a33d
00000080: bd57 663d 23ef ebbc 1ef1 87bb 8ff7 703c
00000090: bb82 72bd 670f 21bd f521 c9bd c1ea 653d
000000a0: 4fdd 993c cdef b33d 4420 1b3c 21f2 04bd
000000b0: a4cb d3bd 614a 80bd 1b7e 91bd 6fe7 893c
000000c0: d4a3 84bd 2ca4 a03c 0a9d 903d fda5 cabd
000000d0: f9f1 983d 466f cb3d b2c3 1b3d dcd1 83bd
000000e0: 8d5d a13c 23a8 a83b c231 773a b9d2 923d
000000f0: 3a1a 863c 3dce 07bd fa7a b6bc 9abe 843d
00000100: 4c46 5e3b e32f 423c 8f52 e0bd d491 ecbd
00000110: 7daf ca3d 71ef 783c b7f7 8abc 8228 10bd
00000120: 8545 a83c ec1e 463d 0dd1 81bb cddb 6cbb
00000130: 2c2b 613d 25ca e53c 1d59 9e3d cde9 79b9
00000140: 2385 783d f1ef f2bc 5881 a23d f770 5dbd
00000150: 8b84 fa3c 697b babc de31 083e fe04 18bc
00000160: 1a78 fd3d e5a3 653d bb14 183d 844a 263e
00000170: 976b 8cbd 4a93 563b 4387 1f3e dfc1 e33d
00000180: d934 803b f80c 8f3d 7c6f 163d 6d97 0e3d
00000190: 9ddd 51bd 93e4 ed3d 976e ab3d 7148 8abd
000001a0: c219 6b3a db43 0bbe d108 12be 5ff5 3d3e
000001b0: 4cbe 603d 2a9f b2bd 6912 8d3d 2a74 d23c
000001c0: 84fd 56bd 4a75 50bd eecf 92bd 6ded bf3d
000001d0: c710 dc3d 2320 73bd 03b0 6e3d 7fbe 74bb
000001e0: fafe ecbd 4112 233d be01 b23d bf1d d83d
000001f0: c7d0 803b a2f8 593d 7f8c 12bd b790 033d
00000200: 58f9 a0bd 48df 8abc fe52 873d 4e07 013c
00000210: 5092 9c3d d666 83bd ac51 9cbd 0f6a f6bc
00000220: 6039 a2bc 5fc1 79bd aabe 5d3d e3ea 9cbd
00000230: 45d0 4b3e f847 c13c fd98 03bd 105b 183c
00000240: 806e 01bd 3e5c f43d 044d aeba 338e 68bd
00000250: a0ca 87bc e941 b23c 739e 60bd b706 8bbd
00000260: 7ad0 0ebc 7117 4ebd 7aa3 eb3d 50e7 0dbd
00000270: aa78 7dbd dfef 073c 432c 033e 4da2 69bd
00000280: 3505 52bd ead4 c2bc 35c0 c83b a148 c2bb
00000290: f0c5 0bbe b21c 85bd d864 093d c2c7 f83c
000002a0: 6363 b4bd 12cf a2bd 0035 a23d 959a 91bd
000002b0: bdd8 debc 954b 07bd 90a2 bd3c cc8f 08bc
000002c0: b940 2bbe cdc3 19bd 0b0c 9cbd b6b1 513d
000002d0: 5008 68bd 4110 a23d c8fa 7fbc a20f 2a3d
000002e0: 65c6 4abc c544 0fbd 9bb9 92bc f351 073d
000002f0: da62 e83d 5095 32bd 8297 b53d 780b f63d
00000300: ff79 053d 728e 81bc ee5f 9bbc c228 d13d
00000310: ce18 683d f90f b53d 28f6 0e3d df25 1a3c
00000320: 81fb ce3b c97a fb3d 8d34 9d3b d1f4 2e3d
00000330: 7cd5 ee3b c40a 633d 0e14 b0bc ad70 863d
00000340: cd97 66bc b26b ba3d ba02 0a3e 6247 963b
00000350: 0a45 31bd ff08 1abd f83b 463d 0258 85bd
00000360: 767f 993d f3dc c8bb ef18 cbbd ac33 33bc
00000370: 7a3c e03c 3d05 813a b2eb 18ba e430 abbc
00000380: ace9 553d e88f 54bd f410 84bc b5a9 133e
00000390: acc6 aa3d 792d 43bd 8b6e 72bd a613 633d
000003a0: 500f c5bd 810e ee3c 456d 003d 20e9 cdbc
000003b0: efe0 633d 5ff6 a4bd 4366 0ebd 4006 20bd
000003c0: fce8 3dbd e8da bc3c 95f4 493e 853a 9ebd
000003d0: eb96 03be 5f11 883d d316 d3bd d4e0 1c3e
000003e0: 2480 e1bd c973 e73b c202 8a3d 32ba b4bd
000003f0: 0712 e93d e89f 293d 6e21 6bbd a8dc 033c
-0.04895069 -0.105064124 -0.049392786 0.06473808 0.04095063 0.07517726 -0.037530575 0.0508856
0.05964438 -0.049585655 -0.0375634 -0.099696584 -0.040321425 0.121763006 0.20310397 -0.10187412
0.08004461 0.13041446 0.06579487 0.048165586 0.04045208 -0.0061185774 -0.09568726 0.036153905
-0.004335501 -0.0061347736 0.08402522 -0.09383918 -0.08912184 -0.037342727 0.07656578 0.07992117
0.056236017 -0.028800553 -0.0041486165 0.01470746 -0.059206706 -0.03932133 -0.0982093 0.056132082
0.018782286 0.08785973 0.009468142 -0.032457475 -0.10341576 -0.06264187 -0.07104131 0.016833989
-0.0647656 0.019609533 0.07061203 -0.09894941 0.074680276 0.09933333 0.038028426 -0.06436512
0.019697929 0.0051469966 0.0009429717 0.071690984 0.016369928 -0.03315567 -0.022275437 0.06481667
0.0033916412 0.011852237 -0.10953247 -0.11551252 0.09896753 0.015193806 -0.016963823 -0.03519488
0.020540962 0.048369333 -0.0039616884 -0.0036141754 0.054972813 0.028050492 0.07731841 -0.00023833588
0.060673844 -0.029655429 0.079348266 -0.05406281 0.03058078 -0.022763925 0.13300273 -0.009278534
0.12376423 0.056064505 0.037129145 0.16239363 -0.06856459 0.00327416 0.15578942 0.11120962
0.00391255 0.069848955 0.036727414 0.03481238 -0.051236738 0.11615863 0.08370703 -0.06752098
0.0008968377 -0.13600104 -0.14261176 0.18550633 0.05486898 -0.087217644 0.06888277 0.025690157
-0.052487865 -0.050893106 -0.07168566 0.09371457 0.107453875 -0.05935682 0.058273327 -0.003734499
-0.115720704 0.03981233 0.086917385 0.105525486 0.003931138 0.05321563 -0.03577852 0.032120433
-0.078600585 -0.016952172 0.066076264 0.007875277 0.076450944 -0.06416099 -0.07632765 -0.03007987
-0.01980275 -0.06097543 0.05413691 -0.076619886 0.19903667 0.023593888 -0.032128323 0.009299055
-0.03159952 0.11931656 -0.0013298099 -0.056776237 -0.016576111 0.021759944 -0.05483861 -0.0678839
-0.008716697 -0.050315324 0.1150579 -0.034644425 -0.061882652 0.008296936 0.12809853 -0.057039548
-0.051274497 -0.023783166 0.0061264285 -0.005929068 -0.13649726 -0.06499614 0.033543438 0.03036869
-0.08808019 -0.07949652 0.07920265 -0.07109562 -0.027202958 -0.033031065 0.023148805 -0.008335065
-0.16723908 -0.037540246 -0.076194845 0.05119487 -0.056648552 0.079132564 -0.015623756 0.041518815
-0.0123764025 -0.034977693 -0.01791077 0.033037137 0.113469794 -0.043599427 0.088667884 0.12013906
0.032587048 -0.015814994 -0.018966641 0.10212852 0.05666428 0.08840937 0.03490272 0.009408443
0.0063166027 0.12279279 0.0047975243 0.042713944 0.007288633 0.05543019 -0.021493938 0.0656446
-0.014074278 0.091025725 0.13477603 0.004586146 -0.04327873 -0.037606236 0.048397034 -0.06510927
0.07495014 -0.006129855 -0.09916865 -0.0109376125 0.027372587 0.000984348 -0.0005833461 -0.020897336
0.0522248 -0.051895052 -0.016121365 0.14420207 0.08338675 -0.047650788 -0.059187453 0.05543866
-0.09622061 0.02905965 0.031354208 -0.025135577 0.055634435 -0.08054804 -0.034765493 -0.03906846
-0.04636477 0.023053601 0.19722207 -0.077260055 -0.1285054 0.06643938 -0.10307088 0.1532014
-0.11010769 0.007063363 0.06738807 -0.088245764 0.113803916 0.041412264 -0.057404928 0.008048214

network_body._body_endoder.seq_layers.2.bias f4 [256]
00000000: 2b72 c43c 1903 dc3c 494a c33b a30d 65ba
00000010: fbf6 9f3c ac78 c43b 967a a43b 5aee 9b3b
00000020: 94d7 103d 4d96 573c be33 013d cacb d83b
00000030: d6e9 133d e919 373c 7c84 213b 6e47 893c
00000040: 5bd3 2fbc 792e bd3c fe9e 893c b2bd 813c
00000050: 07f5 033d a6d7 c2bb 4aa5 733c 629c 353c
00000060: 2cca a4bb bd8e 863a 3d11 0d3c 3d01 e23c
00000070: dc16 e53c 3185 12bb a2bd 3dbc a52d d23b
00000080: 6166 513c 18f9 433c 72dd 433c d3ce 90bb
00000090: 4076 abbb 41d6 bcbb 8a40 9a3c 55c1 593c
000000a0: fe31 403c bcd5 febb fd5f 903c faa7 6d3c
000000b0: d649 efbb 2dad 3e3c a460 963c afdb 12bb
000000c0: 6ec4 0f3d 57f9 623c 8ae8 913a a68d 2f3c
000000d0: 79ae 333c 0228 07bc c2be 683c 2e7a d5bb
000000e0: e820 413c 28e6 33bc 3670 003d c758 0b3b
000000f0: f47e 803c f63d 9a3c 0932 593c e6d5 ab3b
00000100: dcd5 f03a 5d1a 6dbb 6698 8f3b 3503 96bb
00000110: c0e3 d03c 9103 263c b6ac 60bb 6c1e 883c
00000120: c561 6f3c 2f7b 843b 7ebf 8c3b 733b a13c
00000130: c28e 2c3c 4192 0e3c b6fb d23c 455a a03b
00000140: bc98 823c cc79 083d c652 d53b b927 06bb
00000150: 2729 053d 0df0 7d3c c0fe 4b3c 36ff fbba
00000160: f4d6 843c 1de5 2d3b dc45 793c e6d8 143d
00000170: 2376 8cbb 1af2 32bc d699 1ebb 6818 aa3c
00000180: 3f9c 363b 7b53 22bc 52f4 b43c 5387 a93c
00000190: 58c3 a23c 9699 be3b 3107 e33b 3193 a33b
000001a0: cac6 183b ec45 6d3b 014a ac3c 6d9d cf3b
000001b0: f1a1 f23c c69a 9b3c 051c f33c 53f6 88bb
000001c0: 4707 44bc dde4 1db9 20d5 953c 92fc c13c
000001d0: bbaf f8b9 28aa 893c a32b 0c3c fa84 793c
000001e0: d35c e63b 2481 753c 96b9 8c3c 8e7e 2c3c
000001f0: 4a5f 73ba bd0a f03a e28d a4bb 4a52 d63c
00000200: ee45 113b 2134 323c d3e5 9d3a 5f4c 9e3c
00000210: 6fcb a63c b895 3fbc d73e 0e3b 14d4 083d
00000220: 3af7 a83c 2fa2 063d 315e b33a 9499 823c
00000230: 15ca afba e840 e43c 83a6 513c 3f1a 963c
00000240: dd31 1cbb 09ac ee3b 4cf5 ff3c 6462 183c
00000250: a0e1 91bb efb8 7a3b 5545 963c 44fe 213b
00000260: f681 bd3c 6562 1e3c fe5e 963b b880 8c3c
00000270: e1d9 8c3c b5f6 a43c 4986 b63c 372b e63c
00000280: 593f 8f3c 09af 1d3d 4178 783c 8353 813c
00000290: 03c8 a93c b091 963a 1a0f 0a3d 2ec3 dbbb
000002a0: 341d cebb cf14 333c 637c ba3c 6525 6c39
000002b0: 863b b93b d4fa 87bb f9de 69b9 a95e cf3c
000002c0: 75ff b63c bde1 30ba 8fde 183d 2e3f 3f3c
000002d0: 0129 0cbc 821c a33c 38ff c23c eead 92bb
000002e0: d3d5 473d a445 a4bc 72af e23b ca3c 463c
000002f0: 2547 62bc 9554 9dba 152c 223c 2079 beba
00000300: bcb1 043b 2e7b e03c 9ebb 0e3c b8b5 073c
00000310: af72 ca37 a217 5f3b 79ee 373c 0b06 c63c
00000320: 7774 d4bb da0d 20bc 428a 263b 8fed 1d3c
00000330: 9397 f53a c541 4dbb 0f43 a63c 8732 933c
00000340: ed62 03bc 7f4b 403c 9f4b 8e3c ae9c 31bc
00000350: 72f4 113c 67d9 3abb 97f1 593c b80b c13a
00000360: 16ea 7a3c 998a 00bc 435d ec3c d4b5 bd3c
00000370: da6a d53c 88c8 1ebc 377e 103b 5d16 2dbb
00000380: b68f ad3c 782a 223b 0637 333b 10be 1c3c
00000390: cbd7 9f3c 331e a83b 9d3a af3c de3b f63b
000003a0: 6d20 93bc ff62 dfbb 4829 9abc 6067 e53c
000003b0: c73f 043d 8e38 3bbc e257 d23c d1a9 743c
000003c0: 9f72 0dbc a0f8 d23b bd73 183c 0750 a73c
000003d0: 68ed 65bc a358 a13b 5076 ab3b e468 053d
000003e0: bfea 0cbb 7dab c13b a6e8 cd3a 0ba6 0e3d
000003f0: 02bc 20bc f16e 7d3c 4bca 60bb e095 983b
0.02398022 0.026856946 0.005959783 -0.0008737689 0.01952695 0.0059958305 0.005019496 0.0047586383
0.03536184 0.013158393 0.031543486 0.0066160904 0.036111675 0.011175611 0.0024645617 0.016757693
-0.010731543 0.023093449 0.016799446 0.015837524 0.0322161 -0.0059461175 0.014870951 0.011084648
-0.0050289836 0.0010265928 0.008610067 0.027588481 0.027965002 -0.002235722 -0.0115808565 0.0064141327
0.012780757 0.011961244 0.011954652 -0.0044191866 -0.0052326024 -0.0057628457 0.018829603 0.013290723
0.011730669 -0.007776944 0.017623896 0.014505381 -0.007302503 0.011637968 0.018356629 -0.0022408774
0.03509944 0.013853393 0.0011131924 0.010714924 0.0109668905 -0.008249285 0.014205636 -0.006514809
0.011787631 -0.0109801665 0.031357013 0.0021262632 0.015685536 0.018828373 0.013256558 0.0052440045
0.0018374282 -0.0036179044 0.004382181 -0.004578019 0.025499225 0.010132686 -0.0034282631 0.016616069
0.014610712 0.004043005 0.0042952886 0.019681668 0.010532083 0.008701862 0.02575479 0.0048935735
0.01594197 0.03331928 0.0065101115 -0.0020470454 0.03250995 0.015499127 0.012450874 -0.0019225839
0.016215779 0.0026534267 0.01521441 0.036339663 -0.004286544 -0.010921979 -0.002420058 0.020763591
0.0027864126 -0.009907599 0.022089157 0.02069441 0.019868538 0.0058166487 0.0069283475 0.004991912
0.0023311847 0.0036205007 0.021031382 0.0063359053 0.029618235 0.0189947 0.029676447 -0.0041797548
-0.011964626 -0.00015057945 0.018290102 0.023680005 -0.00047433175 0.01680477 0.008555326 0.015229458
0.0070301085 0.014984403 0.017178338 0.01052822 -0.00092839135 0.0018313747 -0.0050217966 0.026162285
0.0022166925 0.010876686 0.0012046642 0.019323526 0.020360677 -0.011693411 0.0021704936 0.03340538
0.0206257 0.032869514 0.0013684687 0.015942372 -0.0013411666 0.027862981 0.012796047 0.018323062
-0.0023833432 0.007283692 0.031244896 0.009300802 -0.0044519454 0.0038257202 0.018343607 0.0024718205
0.02313326 0.009667014 0.0045889607 0.017151222 0.017193737 0.02013717 0.022280829 0.028096778
0.017486261 0.038497005 0.0151653895 0.015786892 0.020725256 0.001148751 0.03370581 -0.006706617
-0.0062901024 0.010930254 0.02276439 0.00022520644 0.0056528477 -0.004149774 -0.00022303675 0.025313692
0.022338608 -0.0006747505 0.037321623 0.011672778 -0.008554698 0.019911055 0.023803338 -0.0044763004
0.048787903 -0.020052738 0.0069178874 0.012099454 -0.0138109075 -0.0012003357 0.009898205 -0.0014531948
0.002024754 0.027402487 0.008711724 0.008283071 2.413368e-05 0.0034041186 0.01122629 0.024172803
-0.0064836103 -0.0097689275 0.0025411998 0.009639158 0.0018737189 -0.003131972 0.020295648 0.01796843
-0.008019191 0.01173675 0.017370043 -0.010840578 0.008908378 -0.002851093 0.013302228 0.0014728224
0.0153145995 -0.007845544 0.028853064 0.023157991 0.026051927 -0.009691365 0.0022047886 -0.0026411035
0.02118669 0.0024744552 0.002734603 0.009566799 0.019512078 0.005130553 0.021390254 0.007514461
-0.017959798 -0.006817221 -0.018818513 0.028003395 0.032287385 -0.011427058 0.025676671 0.0149330655
-0.008633285 0.00643833 0.009304938 0.020423902 -0.014033653 0.0049238964 0.00523261 0.032570735
-0.0021502224 0.0059103356 0.0015709593 0.03482632 -0.00981045 0.015468345 -0.0034300264 0.0046565384

action_model._continuous_distribution.log_sigma f4 [1, 5]
00000000: abd9 1ebe 4cb3 04be 5eaa 56be 6657 efbc
00000010: bb5b 40bd
-0.15512721 -0.12959021 -0.20963427 -0.02921648 -0.04696248

action_model._continuous_distribution.mu.weight f4 [5, 256]
00000000: f6d9 523c addc 7ebd 71d0 0a3d cb1f 9fbd
00000010: c3fe 02bd b279 193d 0e38 aabc ed6b 4c3d
00000020: 8fee 47bd 4750 ccbb bbe8 5e3c e6d3 94bb
00000030: 48eb 223c dc38 563b d751 533b 499c 8c3d
00000040: 6a14 253c ee54 8b3c 5a2f 223d 8ea2 e8bb
00000050: dc9d de3b fe3f 733d 300f 5cbc 7ada 8dbb
00000060: ba25 f7bb 0a2c 103d 57e1 8e3d cb51 dbbc
00000070: a3f3 88bd 8805 0c3d a4d0 7d3c 58c7 673d
00000080: f504 abbd 9276 1dbd 39f4 b43b f28d 14bc
00000090: ab19 7f3d f0a7 903c fd58 13bb 572a 10bd
000000a0: dc03 09bc df66 7c3c 3e3d e73b e881 39bd
000000b0: e85e 073d 8ff5 afbc 8190 42bd f9e0 e13c
000000c0: 88f4 043d ab5a 3dbd 2a25 e43d 49e0 84bd
000000d0: 75bc 613b c0cd 6b3c 1a84 ad3c fda3 543c
000000e0: fd6d 9c3c 0e85 abbb fb57 dabc 699a 6c3a
000000f0: a9e2 b7bd b13d 4a3d 617a a0bc a418 5ebc
00000100: 2ce4 483d f68f 26bd b51c aa3b af2b 6abd
00000110: 99a1 f6bb 77b6 e1bc ce70 fe3c 4b82 a13c
00000120: 15dc f43c 4d63 49bd b063 e53c 49d3 18bc
00000130: 8c66 56bd 0ba8 16bd fb60 fd3c 7a98 963d
00000140: d186 22bd 4a45 213c 8bd5 b0b9 9bfa 223d
00000150: 5ec6 02bc d81b ec3b 62cf 1cbd ce47 c53c
00000160: 10fa bd3c f80f 54bd 9a4e c33c 9157 e5bc
00000170: b85a 01bd cc65 263d 8ed0 87bc 8057 51bd
00000180: a38c ad3c 799d ba3c 08ae 7d3c 99b9 b3bb
00000190: 6d98 a1bc cb78 153d 109d 23bd 5c1a 933d
000001a0: bb20 c13c 3331 8e3d eb91 873c 8b56 3bbd
000001b0: bee1 42bb 551f 973b 82d3 b8bb 4c52 013d
000001c0: a718 43bc a89d 5dbd 8112 11bd 152a 8abc
000001d0: 6069 21bd 257c dc3c 5b09 5e3d 4172 d03c
000001e0: f9b6 013c dfe5 fe3b a848 a63c 2ffe 58bd
000001f0: 5177 123b e2d3 243d c050 df3c 8cf7 67bc
00000200: 5ad1 993c 2659 913d b623 bf3c 89e2 51bd
00000210: b886 173d 9ba3 073d 01a8 6c3c 3faf 183d
00000220: d5f3 e4bc 5b93 edbc 8f29 bb3c 6a3b 3f3d
00000230: 588d 9a3c 4b64 113a 2664 bf3d d87a 5f3b
00000240: 9f26 26bd 2afe 643c 8c72 36bd cd32 683d
00000250: 5f47 7d3c 4ecb bdbd 0292 833d 8abd b43c
00000260: 06b4 b6bc 754d 463b 1edd 0dbd de5e 283d
00000270: b6c0 10bd f8e3 3bbd 70b2 6bbd 4dd1 47bc
00000280: f376 51bd 3d65 b5bb d309 9b3c 3e91 a7bc
00000290: 2a82 34bc 7996 6dbd 2f30 9bbc b21e f43c
000002a0: 7e1f e6bc f19b f63c 8f00 61bd 028b 28bc
000002b0: 513a 08bc 9cfb 323d 67f0 88bd 3a02 20bd
000002c0: 5a1f 1c3d 20a8 9dbd 474f 183b f6b6 dfba
000002d0: 6d64 623c ba70 10bd e683 07bb 8fa4 b1bc
000002e0: 5a78 e93c 58cb 713d c7c5 5fbd e19f 4fbd
000002f0: e13c 193d 93b9 b53d ef4f a43b 46c2 0c3c
00000300: 7ffd 8f3d a730 2abc 6cd9 963d 2820 7fbc
00000310: 5ba4 743d a7a0 c53b 2424 603d 2fc2 23bd
00000320: 079a 563c 132c ee3c b053 053c 83e6 eebc
00000330: fc66 883c 1170 2cbd 835e 0a3d d9a4 19bd
00000340: cad6 a83b dda2 acbd 463b 56bc 1b5c 183d
00000350: 97fd a23c e751 313d 21bc 11bd 7214 97bc
00000360: 1347 f1bc 9f30 a4bc 1d00 123c 1ff6 d83b
00000370: ba4b ad3c 870c 053d 03b8 8f3d 80ea fc3c
00000380: 201b 943c 1357 1c39 3ec0 35bd 138d 143c
00000390: 5049 b5bb b419 e7bc 9118 4cbd befa 8ebd
000003a0: facf db3b c976 243d bc9c ef3c e9c4 c0ba
000003b0: 6eeb cfbb 5fd3 8d3d 17c4 43bd c657 fcbb
000003c0: e471 2a3d fef7 93bc 0562 b23c 4395 d33c
000003d0: 0017 313d 5a1a 78bd 9158 8d3d 4bd5 cabb
000003e0: 399d a93c 3605 f13c d1ad 563d 7bd4 8dbb
000003f0: a9f0 34bc 73a1 d13c 7040 0e3d 817b a1bb
0.012869349 -0.06222217 0.03389019 -0.07769736 -0.03198124 0.037469573 -0.020778682 0.049907614
-0.04881149 -0.0062351557 0.013605292 -0.004541862 0.009943791 0.00326877 0.0032244825 0.068657465
0.010075668 0.017008271 0.03959594 -0.007099456 0.0067937206 0.0593872 -0.013431355 -0.004329023
-0.007542339 0.03519825 0.06976574 -0.0267724 -0.06687095 0.034184963 0.015491638 0.056586593
-0.08350555 -0.038443156 0.0055222777 -0.0090670455 0.06228034 0.017658204 -0.002248346 -0.03519663
-0.008362737 0.015405386 0.007056861 -0.045289904 0.033049494 -0.021479396 -0.04750109 0.027573096
0.032459766 -0.046229046 0.11139901 -0.064880915 0.0034444605 0.014392316 0.021181155 0.012978551
0.019095415 -0.005234367 -0.02665328 0.00090256945 -0.08978779 0.04937524 -0.019589605 -0.0135556795
0.049045727 -0.040664636 0.0051914104 -0.057170566 -0.007526588 -0.027552826 0.031059649 0.019715449
0.0298901 -0.049166966 0.028001636 -0.009327718 -0.05234389 -0.036781352 0.030930033 0.07353301
-0.039679352 0.00984318 -0.00033728438 0.039789777 -0.007981865 0.0072054677 -0.038283713 0.02408209
0.023190528 -0.05177304 0.023841191 -0.027995856 -0.031580657 0.040624425 -0.016578939 -0.051108837
0.021185225 0.022780167 0.015483387 -0.0054847714 -0.019726003 0.03649215 -0.03994471 0.07182762
0.023575177 0.06942978 0.016549071 -0.04573683 -0.0029736604 0.0046118894 -0.005640448 0.031572625
-0.011907733 -0.05410543 -0.035418037 -0.01686577 -0.039407134 0.026914665 0.05420814 0.025445106
0.007917159 0.0077788676 0.020298317 -0.052976783 0.002234895 0.04024113 0.027260184 -0.014158141
0.018776584 0.07097082 0.023332458 -0.05124143 0.036993712 0.03311501 0.014444352 0.037276503
-0.0279483 -0.029000929 0.022846965 0.04668752 0.018866226 0.0005546256 0.09345274 0.003410032
-0.040564176 0.013976613 -0.044542834 0.056689072 0.015458911 -0.09267293 0.06424333 0.022063036
-0.022302639 0.003025857 -0.034634702 0.041106097 -0.035340033 -0.045871705 -0.057543218 -0.012195897
-0.05113883 -0.00553575 0.018925583 -0.020454999 -0.011017362 -0.05800483 -0.018943874 0.029799793
-0.028091189 0.030103656 -0.054932173 -0.010287048 -0.008314685 0.043696985 -0.06686478 -0.039064623
0.038115837 -0.07698083 0.0023240612 -0.0017068076 0.013817889 -0.035263754 -0.0020677983 -0.021684913
0.02849977 0.059031814 -0.054631975 -0.05068958 0.037411574 0.08873286 0.0050144116 0.00859124
0.070307724 -0.010387576 0.07365689 -0.0155716315 0.059727054 0.006031114 0.054721966 -0.03998011
0.013098246 0.02907375 0.008137628 -0.02916265 0.01665067 -0.042099062 0.03378154 -0.037510727
0.005152558 -0.08429501 -0.013075655 0.037197214 0.019896312 0.043291 -0.035579804 -0.018442366
-0.029452836 -0.020042716 0.00891116 0.006621137 0.021154273 0.03248265 0.07017519 0.030873537
0.01807934 0.00014909757 -0.04437279 0.009066838 -0.005532421 -0.028210498 -0.049828116 -0.06981419
0.0067081423 0.040152345 0.029249541 -0.0014707121 -0.006345204 0.069250815 -0.047794428 -0.007700893
0.04161252 -0.018062588 0.021775255 0.02582801 0.043234825 -0.060572006 0.06901658 -0.0061899773
0.020704852 0.02942143 0.052411858 -0.004328308 -0.011043706 0.02558968 0.03472942 -0.004928053

action_model._continuous_distribution.mu.bias f4 [5]
00000000: 6cee c2bb 434a 853c b8cf b8b9 6efa 973c
00000010: daf3 b93b
-0.0059488323 0.016270762 -0.00035249977 0.018552031 0.0056748213
