ML and AI/Hummingbirds/ml-agents/results/hb_01/Hummingbird/Hummingbird-4499968.onnx (onnx, 318358 bytes, 7 tensors)

network_body._body_endoder.seq_layers.0.weight f4 [256, 46]
00000000: 3545 a63d 049a 353d 8bf3 553e 0d9a 79be
00000010: 94a4 ac3d 2cb5 7d3d cf7d 57bd 8c7f 743d
00000020: 21ed d03d d75b 3f3e b9a8 8a3d e815 ae3d
00000030: 936b b93a 2cb5 6bbd b889 71be 1eec 54bc
00000040: a402 0b3c b846 5ebd f586 0a3e cd9b 76be
00000050: 47de 80be 1a83 133d c390 94bd fc8e f6bc
00000060: 534c 093e 5a6f 5bbe 93da 82be 26f6 2bbe
00000070: fb9d 773d 7b33 bf3e 4703 cf3c c5bf 8c3d
00000080: 0af9 62bd 09e5 4b3d 4bdf 7ebd 08ae b63d
00000090: b969 26be 3326 3b3e c10d e03c 6965 383d
000000a0: 5513 4ebe 13e3 323e c7b2 b8bc eb2f 373e
000000b0: a033 313c 51c1 5cbe 8cf1 39be a299 85bd
000000c0: b78d e7bc b96a 163c 3a5e 833e fd6e 313e
000000d0: 8402 883e d038 8fbb 3643 b33d bec0 243d
000000e0: 214e c53d 7635 ba3b 31b4 05be 02a4 833e
000000f0: 41a7 2fbd 3dd1 68bd a107 a03d c652 823d
00000100: 0535 0bbd 2d75 903e dd71 24be e790 37bb
00000110: 9c4d ba3d 0fa6 88be de30 4abd b5ee 5cbe
00000120: be11 a9be ed19 853d e8b7 063e f076 073e
00000130: 3fa0 8cbe e3d1 8b3b 0714 32be d3ad 7d3d
00000140: 48e1 753e b2d7 75bd d22d 093d 3b7e 0abd
00000150: 53da 5fbe b579 9e3d 7dfd 683d 7aef 6fbb
00000160: 8216 51be 9452 913e 426e f13d 000d 963e
00000170: 29c9 0a3e 1381 10be 707a 2ebe b0c9 c13c
00000180: 7512 04be 452c 56bd 4a92 853b d055 ebbd
00000190: 59ed 823e 6d07 d73c 3a43 823d 6fb1 9dba
000001a0: 23b3 a9bb c506 36bd 4e1e 8abd 598b 71bd
000001b0: 1b64 113e 4524 10be 85f7 10be 7df5 003e
000001c0: 39f2 be3d e397 ae3d 1c4b 653e 75ea 0d3c
000001d0: 8f16 843d 0ddc 0cbc 4189 84bc 82c5 67bd
000001e0: b991 2cbe 140c ae3d 2b87 edbd 835b f2bd
000001f0: 7a02 0d3e 70d0 4e3e 81bb a2bd 5172 6b3e
00000200: 3749 033e 9e94 e7bd ca4c 4ebe 51bd b43c
00000210: 62e8 05be 22ed 5ebe a399 f2be f379 d33d
00000220: 07e4 bebd c8b9 b03d d748 82bb 11a6 13be
00000230: fe20 a8bd 67e0 2a3c 445d f4bc c2a0 babd
00000240: bfb8 34be 7b96 973e d989 2b3e 17f6 7abe
00000250: e99e 243d 7e2d 5bbd f22a 6dbe b16a 13be
00000260: 084e a43d c6c9 03bc 8a9e dcbb 8ee7 1f3d
00000270: 307f 86bd 89fa 8e3e 93b8 563d 2db6 55bd
00000280: e47f b1bd 3c1b f03b 80c7 873e 04d0 2bbe
00000290: 1230 233d d4c6 12bd 672a 003d 0887 2c3e
000002a0: ec73 51bb 109b 5c3e b450 dc3d 387b 523e
000002b0: 6581 c23e 63bd 893d 580f 483c 03ae 24bd
000002c0: 6719 77be 459c 153e f98c 80be 2358 e2bd
000002d0: 987f 3b3e 7bd3 e6bc bf64 483e ecfd 15be
000002e0: f901 60be 4870 5f3d 5eaf b2be 0f90 a83d
000002f0: e987 86bd 05f8 383d d59d c73c 720d 103e
00000300: 74c0 b53c 6b2a 6f3e 3707 ce3d 4220 2dbd
00000310: 1f6e 8aba a641 a03d 5af0 e9bd 7ad5 82bd
00000320: 86ec b7bc 7687 90bd 9fcb 77bc 2d98 84be
00000330: e697 f93d b562 263c fc2f 81be fd81 523d
00000340: 7fa8 21be 14df 193e 65a5 d73b 1bf1 2dbe
00000350: b0d9 a13d 5ec7 12be 9854 973e a977 b73e
00000360: a9f2 5b3e e6bf 51bd eefc 813d 1c1a 99bd
00000370: 8177 0d3e ff58 5fbd bdc1 b2bd ac2a 863d
00000380: a1aa 0c3c 4cda 0dbd aa8e e63d 2902 c0bd
00000390: 6b2e 833e 2fb2 f13d ea8b 043e 6afd 413d
000003a0: 33ef b8bd dcca 753e bbe7 753e 1620 223c
000003b0: 7ec2 6ebd a573 893d 6bec 1fbe 2475 12bb
000003c0: 0a2d e7bd a14d 96be fc49 2f3e d003 ff3d
000003d0: 773d 9f3e 7f8d 5d3e da15 6abe 5a88 2f3d
000003e0: 5338 fb3c e09f 31be fa63 5e3e cc58 b03d
000003f0: 14d8 3b3d c214 283e eea0 383e efe6 3d3d
0.08118669 0.044336334 0.20893686 -0.24375172 0.08429828 0.061940357 -0.052610215 0.05969195
0.10201479 0.18687378 0.067704625 0.08500272 0.001414644 -0.057545826 -0.23587692 -0.012995748
0.008484516 -0.05426666 0.13528045 -0.24082871 -0.25169584 0.0360137 -0.072541736 -0.030097477
0.13408022 -0.21429196 -0.25557384 -0.16793117 0.060453396 0.37343964 0.025270117 0.06872515
-0.055413283 0.04977897 -0.062224668 0.089199126 -0.16251267 0.1827629 0.027350308 0.045018587
-0.20124562 0.17469434 -0.022546185 0.17889373 0.010815531 -0.2155812 -0.18158549 -0.06523444
-0.028265817 0.009180718 0.25657827 0.17327495 0.2656442 -0.0043707862 0.08753054 0.040222876
0.096340425 0.0056826426 -0.13057019 0.25711066 -0.042884115 -0.05684017 0.07813955 0.06363444
-0.03398611 0.28214398 -0.1605906 -0.0028009953 0.09096834 -0.26689193 -0.04936301 -0.21575435
-0.3302135 0.064990856 0.13156092 0.13228965 -0.27466008 0.004266964 -0.17390452 0.06193335
0.24011719 -0.060020156 0.033490963 -0.03381179 -0.21860628 0.077380575 0.05688237 -0.0036611245
-0.20418742 0.28383315 0.11788608 0.29306793 0.13553299 -0.14111738 -0.17038894 0.023655742
-0.12897666 -0.052288312 0.004076277 -0.11490977 0.25571707 0.026248658 0.06360479 -0.0012031029
-0.0051788255 -0.04444005 -0.067440614 -0.058970783 0.14198343 -0.14076336 -0.14156921 0.12593646
0.09323544 0.08525064 0.22391933 0.008661856 0.06449615 -0.008597386 -0.016178729 -0.056584843
-0.16852464 0.084983975 -0.11598047 -0.11833861 0.13770476 0.201967 -0.0794592 0.22992827
0.12820898 -0.11307643 -0.2014648 0.02206293 -0.13076928 -0.21770146 -0.4738284 0.10325994
-0.093208365 0.08629185 -0.0039759683 -0.14418818 -0.08209418 0.010429478 -0.029829629 -0.09112693
-0.176486 0.29606995 0.16751803 -0.24507938 0.04019061 -0.05351018 -0.23160914 -0.14396168
0.08022696 -0.008043712 -0.0067327665 0.039039187 -0.06567228 0.27925518 0.052422117 -0.05217569
-0.08666971 0.0073274653 0.26519394 -0.1677857 0.039840765 -0.03583415 0.031290438 0.16848385
-0.0031959964 0.21543527 0.107575804 0.20554817 0.37989345 0.06725576 0.0122106895 -0.040205013
-0.24130784 0.14610393 -0.25107554 -0.11051967 0.18310392 -0.028177014 0.19569682 -0.14647645
-0.21875753 0.05455044 -0.3489942 0.08230602 -0.065688916 0.045158405 0.024367252 0.14067629
0.022186495 0.23356025 0.1005997 -0.04226709 -0.0010561383 0.078250214 -0.114227965 -0.06388374
-0.02245165 -0.07057087 -0.015124231 -0.2589735 0.121871755 0.0101553695 -0.25231922 0.051393498
-0.15786932 0.15026504 0.006580996 -0.16986506 0.07902849 -0.14333865 0.29556727 0.3583348
0.21479286 -0.0512084 0.06347071 -0.07475683 0.13815118 -0.054528233 -0.08728359 0.06551108
0.008585603 -0.034632012 0.1125768 -0.09375412 0.25621352 0.11801564 0.12943998 0.047360815
-0.09029999 0.24003166 0.2401418 0.009895345 -0.05829095 0.067115106 -0.1561753 -0.0022347653
-0.112878874 -0.293561 0.17118067 0.12451899 0.3110158 0.21636008 -0.22859898 0.042854644
0.030666506 -0.17346144 0.21717826 0.08610687 0.045860365 0.16414168 0.1803014 0.046362814

network_body._body_endoder.seq_layers.0.bias f4 [256]
00000000: 37dc 8d3b 1732 16bc aab5 c13b f5b7 38ba
00000010: 0741 c13c c3b8 873b 01cf a93d a2bd ba38
00000020: 7880 e83c c9af 8f3b 4195 4b3d 289e 5a3c
00000030: 8cb7 f8bb f699 cf3b e23f 853d b86a df3c
00000040: bf52 683c 8d4c 4e3d e5b8 143d 778f b03c
00000050: 44c6 803c c875 7f3c c1b1 dc3c d48e ae3c
00000060: d156 a0bc da36 453c 84b1 803c bd8f a1bc
00000070: 5f45 8dbc a6cd 763b 6118 5b3c 4516 e1bb
00000080: bc57 863c defe 8bbc 4818 4fbb 06c3 2bbc
00000090: ccdd 51bb 7751 a3bb db02 393c 33a0 8ebc
000000a0: da32 41bc 494b a93a e45b 4cbb 3b7b fe3c
000000b0: 6bf0 6f3c be01 1f3c 64dc e5bb bd03 ae3c
000000c0: d72e c73b 0d4d 5f3c 404e 923c 7695 94bc
000000d0: a50b e53c a7dd c5bb 9d58 723c 908b 653c
000000e0: ae23 af3a 194a 0b3d 219b 133d 1b29 cd3c
000000f0: 49d7 343d bd8a f03c 5fa9 e63a 1caf 063c
00000100: 1bf4 04bb 4f8b ee3c ce6e 3c3d 4b2c 883c
00000110: 09af 443d 28ef 903c ebfa 043d 5e05 a13c
00000120: 1d10 fa3c 9bbc ee3c 21fc d43c 257b b73c
00000130: fd5a 883d 8e21 8b3c d526 28bb 2d3c 063d
00000140: 3215 963b 2635 503b 3f4e 213c e206 c73c
00000150: 4c66 4c3c a153 033d 1c3b 293d 803e c53b
00000160: 064a 0a3c d0de f73c a342 8c3d 8c4d 8d3d
00000170: c8ec 643d 973e 873c 2084 283d 4412 19bc
00000180: 068e a43c ecb1 803b 9478 4abb 2e9f e7bc
00000190: 1188 41ba a2a3 a73c dbf7 903b e7fe ca3a
000001a0: 0e35 b33c 1642 5a3c d639 583c 8fdb 453d
000001b0: 7391 363b 4b56 a5bb 0977 6b3c fe25 df3c
000001c0: e2b9 333c 2f8c d4bb ae8b 3e3c 8fe3 033d
000001d0: aac3 25bc 08a5 1c3a b87a 4d3c bbc4 493d
000001e0: f9ea 80bc c82a 233a ec31 783c 459a da3b
000001f0: 1791 7dbc 9a8d f03b 4c72 703c 708f 913b
00000200: 581c ea3c b370 ad3c 8510 173d 6284 df3a
00000210: 2572 453c 5968 e83b fe48 8d3c 8796 20bc
00000220: fd90 a53c 80fc 353c b154 fd3c 7fa6 46bd
00000230: 31a5 2b3c 3154 a23b ff6c 803c 1658 283d
00000240: c142 da3b 93ae 7dbb 4943 ec3b 83fb 253c
00000250: a98e cc3c 77db ff3b e35b b83c 4497 dd3c
00000260: 6b84 fabb ddf9 9c3c c2a7 5e3d 9160 c43b
00000270: f499 5a3d 26ae 283c 83a1 a93c 2f89 e9bb
00000280: c0b8 f8bb 7460 253c 3f17 a93b e766 f0bb
00000290: a456 623c 9a2f 0e3d 6259 033d 023d 4b3c
000002a0: 4ba6 213c 01b2 6f3c 8865 d63c ad9b 553c
000002b0: 2b77 f4bb aef3 4fba 8f36 cebb 5216 02bc
000002c0: 9e68 843c f041 293c 211d 9d3c 5f7b 103c
000002d0: 2a46 283d 932f 463c 9264 5f3c 57a9 3cbb
000002e0: 614d 843b b4eb 5d3c 6255 a43c c457 293d
000002f0: 454e b23c d2b2 3d3d 99bf 463d 128f 843c
00000300: b8c1 f83b 0aec ff3c 60b0 c33c 1306 bdbc
00000310: 484b c13c 0b96 6c3c 6463 823d 4225 893b
00000320: 5ef9 52bc bb78 123d 0617 823c 4e76 253c
00000330: 29ee 203c 691f 893c 4e11 6a3c 16f2 053d
00000340: 8235 cfbb 39ea 3b3c e922 aa3c 0e4e 203d
00000350: 70b6 7cbb 0b33 ff3b 2ba7 163d 7d52 9a3c
00000360: 1ef9 46bc b057 8abb 3e40 563d 4f6c 5f3c
00000370: bdaf 4a3d 0321 02bc 152a 9aba 3552 c43c
00000380: d851 db3c 2aa9 3f3c 75ce 853d aef1 ffbb
00000390: aeb5 403c 8eac de3a 448c 84bc 5946 deb7
000003a0: af96 013d 17ba 813c 7de2 7f3d 7cce bf3c
000003b0: 16ba 523c 8a16 003d c684 803c dcd2 25bc
000003c0: b46b 943c cde7 043d 360e 36bb 3252 7d3c
000003d0: 329e b8bc 71d0 8b3c e5af b33c 093b b43c
000003e0: 7083 50bd 1fa1 d33c 3c05 44bb 3f70 5d3c
000003f0: 0bc4 5b3c 848b 5c3b b1ef c53b 9553 37bc
0.00432923 -0.009167216 0.0059115486 -0.00070464547 0.023590578 0.0041418984 0.08291436 8.904493e-05
0.028381571 0.004384969 0.049702886 0.013343371 -0.00759024 0.0063354922 0.06506325 0.027272567
0.014179884 0.050365973 0.03630914 0.021552784 0.01571954 0.015592046 0.026940228 0.02130834
-0.019572647 0.012037003 0.015709646 -0.01972186 -0.017244993 0.0037659197 0.013372512 -0.00686911
0.016399257 -0.017089304 -0.0031600166 -0.010483509 -0.003202307 -0.0049840766 0.011292185 -0.017410373
-0.011791909 0.0012916113 -0.00311827 0.03106462 0.014644722 0.009705005 -0.007014798 0.021242017
0.006078582 0.01362921 0.017859578 -0.018137675 0.027959654 -0.006038386 0.014791635 0.014010325
0.0013362074 0.034006212 0.036036614 0.025044015 0.044150624 0.02936303 0.0017598084 0.00822046
-0.00202871 0.029119162 0.04600411 0.016622683 0.04801849 0.017692164 0.032465857 0.01965588
0.030525262 0.029142668 0.02599913 0.022397587 0.0665798 0.016983774 -0.0025657911 0.03277223
0.0045801634 0.003176996 0.0098453155 0.024295274 0.012475561 0.032062177 0.041316137 0.0060194135
0.0084405 0.030257612 0.068486474 0.068995565 0.055889875 0.016509337 0.04114163 -0.009342734
0.020087253 0.00392746 -0.0030894624 -0.028274145 -0.0007382641 0.020463768 0.004424078 0.0015487344
0.021875884 0.01332142 0.013197383 0.04830509 0.002785769 -0.0050456873 0.014371642 0.027239796
0.010969611 -0.0064864377 0.011629982 0.03219944 -0.010117451 0.00059755193 0.012541465 0.049259882
-0.015737044 0.00062243314 0.015148621 0.0066712224 -0.015476487 0.007341099 0.014675688 0.004442148
0.028577968 0.021171903 0.03688099 0.0017053003 0.01205114 0.0070925173 0.01724672 -0.0098015135
0.020210737 0.011107564 0.030924173 -0.048498627 0.010476396 0.004953884 0.015676973 0.04109963
0.0066607897 -0.003870879 0.0072101695 0.010130766 0.02497037 0.0078081447 0.022504753 0.027049668
-0.00764518 0.019162113 0.054359205 0.005992957 0.053369477 0.0102954265 0.020706898 -0.0071269493
-0.0075903833 0.010093797 0.005160242 -0.0073364857 0.013814602 0.034713365 0.032067664 0.012404682
0.0098663075 0.014629842 0.02617146 0.013037604 -0.007460495 -0.00079327344 -0.006293125 -0.007939892
0.016163167 0.010330662 0.019178929 0.008818476 0.04108254 0.0120963035 0.013634818 -0.0028787458
0.0040375446 0.013544966 0.020060245 0.041343465 0.021765837 0.046313114 0.048522566 0.016181502
0.0075914524 0.031240482 0.023887813 -0.023074185 0.023595467 0.01444007 0.063666135 0.0041853497
-0.012876837 0.03575967 0.015880119 0.010099007 0.009822407 0.01673861 0.014286352 0.032701574
-0.0063235173 0.011469417 0.0207686 0.03913694 -0.003856089 0.007788067 0.036780518 0.018838162
-0.012144355 -0.004221879 0.05230736 0.013636663 0.049484003 -0.007942441 -0.0011761809 0.02396498
0.026772425 0.011698047 0.06533519 -0.007810793 0.011762066 0.0016988681 -0.016180165 -2.649722e-05
0.031637844 0.015835805 0.062471855 0.02341389 0.012861749 0.031271495 0.015688311 -0.010121074
0.018117763 0.032447625 -0.0027779466 0.015461491 -0.02253637 0.017067166 0.021934459 0.022000806
-0.0509066 0.025833664 -0.0029910346 0.013515531 0.0134134395 0.0033652494 0.0060405363 -0.011189361

network_body._body_endoder.seq_layers.2.weight f4 [256, 256]
00000000: 0cb4 49bd 8a10 d7bd 4acc 4dbd ccd3 823d
00000010: 1f37 233d e4cb 963d 971c 20bd 6665 4b3d
00000020: 58e9 773d 2aa8 4fbd 0902 1dbd 53ad cabd
00000030: cbe5 26bd 7e61 f83d e940 4f3e 6b4d cfbd
00000040: 519b a13d 1bb0 053e 742b 833d 59a0 403d
00000050: 31f0 1f3d d9e3 d5bb 7577 c7bd a092 103d
00000060: 9a50 9abb bb8c e5bb ae08 af3d 9a78 bcbd
00000070: 4e9d b7bd 383b 13bd 9d91 9a3d c8a3 a13d
00000080: 7cf4 633d 90df e8bc dd9f a1bb 01ff 5e3c
00000090: 9d35 75bd 8b97 22bd deb6 cabd 955d 6a3d
000000a0: 40df a93c c0d2 b03d be4f 353c 8667 03bd
000000b0: acf5 d0bd 3721 82bd ad84 93bd 729d 7a3c
000000c0: e7c4 87bd 1c34 973c 1a5e 8f3d dab3 c7bd
000000d0: fd7f 973d ed38 ca3d c1a2 173d ee99 82bd
000000e0: fc82 993c a739 8e3b 520e c33a 4767 943d
000000f0: efe9 943c b1dd 09bd 5f78 b5bc 6382 843d
00000100: bf86 133b e611 283c 2362 dbbd 9f58 eebd
00000110: 3434 c93d 8340 583c 1b6d 90bc 830e 16bd
00000120: 036d ab3c 8ac8 403d c2fb 4fbb 051d 9fbb
00000130: dfd8 5e3d 41de f13c bb00 9d3d ea31 10ba
00000140: 40d8 743d 5016 ecbc 8d8f a03d 63e4 5ebd
00000150: 6497 013d 6b58 bbbc c90c 063e ccf1 2cbc
00000160: 35d8 fb3d ca13 603d 502b 1b3d 59bb 243e
00000170: 70fd 8ebd edce 053b be5a 1d3e a1c9 e23d
00000180: c75f 6d3b 2da9 8b3d 6ef2 103d 6ac9 093d
00000190: 905c 53bd e258 eb3d de52 ab3d 86da 8abd
000001a0: cdad 993a 19ba 0abe c48f 11be ff0b 3d3e
000001b0: 0170 5e3d a11d b0bd 0b56 8b3d 9520 d43c
000001c0: c6bb 5cbd 7165 54bd 5d10 91bd cb7d bc3d
000001d0: 6632 db3d 4779 6bbd 34dd 723d 2294 71bb
000001e0: 2bc4 e9bd 6d84 253d 208b ae3d 6725 d73d
000001f0: 4503 a83b 168a 553d c81f 15bd fc10 f93c
00000200: 90f8 a0bd d6cb 89bc b81c 833d 49e1 033c
00000210: 889d 9b3d 9dba 84bd cf86 9ebd 462d f9bc
00000220: b4a2 adbc f7eb 7bbd dbc7 5f3d 6658 9abd
00000230: 879d 493e c4b7 b53c bfa5 04bd 78ba 263c
00000240: 5d42 04bd c629 f33d d836 15bb 4231 68bd
00000250: 1940 91bc 0d8c b13c ce6a 61bd a8ce 89bd
00000260: 6987 15bc a2c5 46bd 5e51 e73d 63db 07bd
00000270: a405 76bd 0dff f33b 9353 033e 7f67 69bd
00000280: b53a 4ebd 5305 b7bc 2fe0 943b fb68 d7bb
00000290: a4ae 0bbe b5a6 88bd 3dca 043d 9315 f13c
000002a0: 051d b2bd 81bd a2bd 3124 9e3d a33f 92bd
000002b0: b914 e8bc 4732 06bd 31fe bc3c 1286 0dbc
000002c0: 6ea1 29be 405d 1abd af54 99bd 4011 533d
000002d0: fffe 64bd 2bb4 a13d d225 88bc 123f 293d
000002e0: 58e1 58bc 8400 0ebd 873b 8abc 0de2 063d
000002f0: b9a9 e43d ec45 3ebd 668b b13d 2513 f63d
00000300: 1305 033d a3fc 87bc 23d2 afbc bb8b cf3d
00000310: 45ff 5e3d 4783 b33d b6c4 0c3d bfaf 2e3c
00000320: 526a ef3b aa22 ff3d 2685 7d3b 6fb9 333d
00000330: c8e4 d33b af80 5b3d 3a14 a7bc ce40 883d
00000340: 7ddf 78bc 72c1 b73d 3e5c 083e 2dd3 c73b
00000350: 0f05 36bd 53e9 20bd 9999 4a3d 82e7 83bd
00000360: 4799 973d 8ddd debb 543e ccbd f958 36bc
00000370: fce9 d43c ef01 dc38 d5b7 91b9 efba abbc
00000380: 28f2 523d e4e4 55bd 19c0 8cbc 7f50 123e
00000390: 0efe a83d e653 46bd 9dbb 6cbd 5458 603d
000003a0: 8bc1 c6bd 3763 ea3c a0bc f63c 3387 d7bc
000003b0: ad05 683d 977a a8bd cf55 11bd 6881 1fbd
000003c0: cabc 38bd ecf9 ae3c 1dbc 483e 8390 a1bd
000003d0: 4597 04be a14e 873d c866 d5bd c12a 1c3e
000003e0: 72f9 debd ae03 bd3b 3328 873d 4aeb b6bd
000003f0: 3cf3 e53d 3803 293d f31e 70bd f75e f23b
-0.04924397 -0.105012015 -0.050243653 0.06388053 0.03984749 0.07363108 -0.039089765 0.049657248
0.06052527 -0.050697483 -0.03833202 -0.0989634 -0.04074649 0.1212797 0.20239605 -0.10122188
0.078909524 0.1305546 0.064047724 0.04702792 0.039047424 -0.0065274057 -0.097395815 0.035296082
-0.0047093155 -0.007005302 0.085465774 -0.092026904 -0.0896555 -0.035945147 0.07547305 0.07892567
0.05565308 -0.028426915 -0.0049323873 0.013610602 -0.059865583 -0.039695304 -0.098981604 0.057218153
0.020736337 0.08633947 0.011066375 -0.03208115 -0.10203108 -0.063539915 -0.0720304 0.015296327
-0.06629353 0.018457465 0.0700037 -0.09751101 0.07397459 0.09874139 0.03702045 -0.06377016
0.018739216 0.004340369 0.0014881587 0.07246261 0.018177954 -0.033658687 -0.022152124 0.06470182
0.0022510735 0.010258174 -0.107120775 -0.11637997 0.0982441 0.013198975 -0.01763015 -0.036634933
0.020926004 0.04706625 -0.0031735753 -0.0048557543 0.054406043 0.029524924 0.07666155 -0.0005500602
0.059776545 -0.028819233 0.0783988 -0.054417025 0.031638518 -0.02286931 0.13090815 -0.010555696
0.122970976 0.054706372 0.037883103 0.16087092 -0.06981933 0.0020417527 0.15366647 0.11073614
0.0036220418 0.06819377 0.03538745 0.03363935 -0.051601946 0.114915624 0.08365415 -0.06779961
0.001172477 -0.13547553 -0.14214998 0.18461607 0.054306034 -0.08599401 0.06803521 0.025894443
-0.053890012 -0.051854555 -0.07083199 0.092036806 0.10702972 -0.057488706 0.059292987 -0.0036861976
-0.11414369 0.040409494 0.0852263 0.10505181 0.005127343 0.052133642 -0.036407262 0.030403607
-0.078599095 -0.01682083 0.06401962 0.008049318 0.07598406 -0.06480906 -0.077405564 -0.030417096
-0.021195747 -0.06150433 0.054633956 -0.07536392 0.19688998 0.022182353 -0.03238463 0.010176294
-0.03228985 0.11873202 -0.0022768285 -0.0566876 -0.01773076 0.021673227 -0.055033498 -0.0672887
-0.009126523 -0.04852832 0.112948164 -0.033168208 -0.060063973 0.007446176 0.1282485 -0.056983467
-0.050348956 -0.022341406 0.0045433263 -0.006573794 -0.13640839 -0.06672422 0.032419432 0.029429233
-0.08696941 -0.07946301 0.07721747 -0.07141044 -0.028330194 -0.032762792 0.023070427 -0.008637922
-0.16565487 -0.037686586 -0.07486855 0.051530123 -0.055907246 0.078956924 -0.016619597 0.041319914
-0.01323732 -0.03466846 -0.016874088 0.032930423 0.111651845 -0.0464534 0.08669166 0.1201537
0.03198726 -0.016599959 -0.021462506 0.10134073 0.054442663 0.087652735 0.034367286 0.010662018
0.0073063755 0.124577835 0.00386841 0.043878015 0.006466482 0.05358952 -0.020395387 0.066529855
-0.0151900025 0.08972444 0.13316438 0.006098172 -0.044438418 -0.039285015 0.04946289 -0.06440641
0.07402282 -0.0068013133 -0.09972826 -0.011129611 0.025990479 0.00010490778 -0.0002779352 -0.02096316
0.05150047 -0.05222024 -0.017181443 0.1428852 0.08251582 -0.048419856 -0.05779611 0.054771736
-0.09704884 0.028611762 0.03011924 -0.026309585 0.056646038 -0.08226507 -0.035482224 -0.03894177
-0.04510192 0.021359406 0.1960301 -0.078888915 -0.1294833 0.06606794 -0.104199946 0.15250684
-0.10887422 0.005768261 0.06599464 -0.089315966 0.11228034 0.041262835 -0.058623265 0.0073965746

network_body._body_endoder.seq_layers.2.bias f4 [256]
00000000: a296 ba3c de63 dd3c 515c c73b 9a9d 1fba
00000010: 5770 9c3c 5216 d53b 62a1 a13b daaa 9e3b
00000020: 18f2 0e3d ebe8 453c 1572 003d bd8d cc3b
00000030: 1b51 0e3d 4847 353c 6ee0 223b bf03 813c
00000040: f096 30bc 024f b63c 4f5d 823c 64a3 823c
00000050: 234a fe3c e2d2 c9bb 41ee 623c 0022 1f3c
00000060: 32fa a6bb b69e 8b3a a2d2 f53b 742e dc3c
00000070: 2b02 e73c f0c7 03bb b746 2ebc 09ad ba3b
00000080: 64ab 573c c5a9 413c 2c7e 3b3c a81d bfbb
00000090: be91 adbb 584e afbb 5a07 953c d29f 593c
000000a0: bd47 433c 3cfe fbbb 1a8a 8c3c 8ca6 653c
000000b0: c6d2 d3bb 3d56 393c ff93 993c d708 1dbb
000000c0: 6916 0b3d a8e3 633c 9ef1 303a ddd5 2f3c
000000d0: 61db 2c3c 9ff5 02bc 54ef 4a3c c6f2 ddbb
000000e0: f750 353c 8293 31bc a7a6 fb3c 57a8 123b
000000f0: b0a3 803c 3906 913c b68d 433c eb47 933b
00000100: fe05 993a 85f0 62bb 691a 833b 7a4a 8fbb
00000110: b001 c83c a599 163c 33c2 86bb 11b4 7f3c
00000120: 0c02 743c 59bf 8c3b 29cf 803b 0a23 9c3c
00000130: 2cda 253c d7e1 123c 09ec ca3c c759 8a3b
00000140: 1a75 7c3c faa2 033d 574d c93b 9edc 02bb
00000150: d74a 003d b5f5 773c 4d60 4f3c bc94 e5ba
00000160: 6f08 803c 16c3 243b f2c3 743c 8934 163d
00000170: d3b6 8bbb 13a5 38bc 4c9e 39bb 2c2c aa3c
00000180: 07d9 543b 1a5e 22bc 83aa b33c 4fd7 a33c
00000190: a654 9a3c 22ef 953b de96 df3b a27b 8b3b
000001a0: 77bc c33a 8b04 2e3b 2e7b a13c 22d3 cc3b
000001b0: 36b8 e73c d732 8f3c 54f2 ee3c 9afb 7fbb
000001c0: 2ade 43bc 9649 87b9 b3bd 933c 2185 b83c
000001d0: 758b 9eb9 f42e 813c 3215 003c 3dcc 5f3c
000001e0: 97bb cf3b bb79 703c 0336 863c b805 233c
000001f0: f720 a7ba 9f3a c53a 7d81 9bbb 9bc0 cc3c
00000200: 4b65 133b 4e3d 223c 0dc7 b03a d201 993c
00000210: a212 a03c 48f4 47bc 09be 073b 38d5 033d
00000220: cc71 a83c 8f91 013d 293d e13a eba8 783c
00000230: 39ce abba 0665 d73c 36f3 473c ddca 903c
00000240: be53 73ba d109 dc3b 91ab fd3c 83cc 0e3c
00000250: 7e10 a5bb cfe9 843b dc0f 8c3c 6f2d 993a
00000260: 0093 ba3c 1f89 1d3c ea38 8c3b aee1 883c
00000270: f926 833c bbfa a03c a7c1 b43c 9ca7 e13c
00000280: c3c4 8b3c e4fd 173d 1785 713c 0140 713c
00000290: 8455 a93c 76fa b53a c663 073d ba7f e7bb
000002a0: 1ab4 cabb 7630 283c 8822 b93c 4eaf 4bba
000002b0: e555 d03b 0b61 9abb 491d 6cb9 9469 c93c
000002c0: cb06 ad3c 8685 46b9 4d57 133d e8fd 353c
000002d0: 6aa9 12bc 114e a13c cd3f c33c 3bef 97bb
000002e0: 2966 423d ec31 a2bc e139 c83b 2a59 3d3c
000002f0: 5e3f 67bc 0d2d b0ba 784b 173c c6a3 1bbb
00000300: 153a d43a b3f3 d73c c133 043c c326 023c
00000310: 5cc6 24b8 7353 273b 63b1 2e3c 87d7 c13c
00000320: af67 d7bb 4f35 1abc e22f b03a 7c5d 123c
00000330: 9846 b33a 8db9 35bb a11c 9a3c 6c58 8d3c
00000340: df59 06bc e30d 463c 6439 883c 81e6 28bc
00000350: 7132 0f3c 1b4f 60bb b147 523c 39c2 703a
00000360: 093e 793c 78dc f1bb 2681 e33c 6e3c b43c
00000370: 79a4 cf3c a196 24bc 9c5a de3a 86f6 54bb
00000380: 121e a83c e445 253b 0889 493b d1e5 173c
00000390: ee43 a23c e0a2 a83b 89cd b03c 58d0 fc3b
000003a0: c3b1 93bc f1de fabb fb06 94bc e300 e43c
000003b0: 8e55 013d 9233 3ebc 4f8f d13c 265f 6d3c
000003c0: 4363 0cbc f2f9 bb3b 7e93 193c 3439 9e3c
000003d0: 9028 65bc 4c1b a93b d289 a13b fa81 043d
000003e0: 8ecc 08bb e96c b23b 9689 d53a 65f4 093d
000003f0: bc1f 20bc 8bc4 803c 2067 8dbb b5aa 823b
0.022776905 0.02702516 0.006084003 -0.0006088853 0.019096537 0.006502905 0.0049325684 0.0048421444
0.034898847 0.012079458 0.031358797 0.0062424825 0.034745317 0.011064358 0.0024853009 0.015748857
-0.010778174 0.02225447 0.015913634 0.015947051 0.03104121 -0.0061591724 0.0138507495 0.009712696
-0.0050957436 0.0010652158 0.007501916 0.02687762 0.028199276 -0.0020108186 -0.010636977 0.005696897
0.013163421 0.011820261 0.011443656 -0.0058323927 -0.005296915 -0.0053499155 0.018191982 0.013282733
0.011918959 -0.007690219 0.017155696 0.014016759 -0.006464335 0.011312065 0.018747328 -0.0023961568
0.03395692 0.013909258 0.0006749871 0.010732141 0.010550351 -0.007993131 0.012386162 -0.0067733256
0.011066667 -0.010838391 0.030719114 0.002237817 0.015703052 0.017703163 0.011935642 0.0044946573
0.001167476 -0.0034628224 0.004000951 -0.004372892 0.024414867 0.009191905 -0.004112506 0.015606896
0.014893066 0.0042952714 0.0039309454 0.019059677 0.010122817 0.008964977 0.024770753 0.004222128
0.015408779 0.03213785 0.006143253 -0.0019967924 0.031321373 0.015134265 0.012657237 -0.001751564
0.015629021 0.0025140694 0.014939295 0.036671195 -0.0042637377 -0.0112698255 -0.0028323112 0.020773016
0.0032477991 -0.009910131 0.021931892 0.020000128 0.018839192 0.004575626 0.0068234047 0.0042566815
0.0014933486 0.0026553 0.019712057 0.006250755 0.02828608 0.017480297 0.029168285 -0.0039059878
-0.0119548235 -0.00025804032 0.018034792 0.022524418 -0.00030240012 0.01576946 0.007817553 0.013659534
0.006339501 0.01467746 0.016383177 0.009950094 -0.0012750913 0.0015047378 -0.004745661 0.024994185
0.0022490795 0.0099023115 0.0013487056 0.018677626 0.019540135 -0.012204237 0.0020712635 0.032185763
0.020562075 0.031632956 0.0017184365 0.015176992 -0.0013107724 0.026293289 0.012203982 0.017674858
-0.0009282193 0.0067150374 0.030965598 0.008715752 -0.0050373664 0.0040561925 0.017097406 0.0011686514
0.022775173 0.009615212 0.0042792456 0.016709175 0.016009795 0.019650808 0.022064997 0.027545743
0.017061597 0.037107363 0.014741204 0.014724732 0.02067066 0.0013883847 0.033054136 -0.0070647867
-0.0061860206 0.01026546 0.022599474 -0.0007769958 0.0063578957 -0.0047112755 -0.00022517623 0.024586476
0.021121403 -0.00018932493 0.03597193 0.011107899 -0.008951524 0.019690545 0.023834134 -0.004636673
0.04746071 -0.019799195 0.0061104153 0.011556903 -0.014114229 -0.001344116 0.009234302 -0.002374874
0.0016191626 0.026361322 0.00806898 0.007943812 -3.9285384e-05 0.0025531917 0.0106624095 0.023662342
-0.0065736393 -0.009412124 0.0013442005 0.008933421 0.0013677655 -0.0027729005 0.01881248 0.017254077
-0.008200138 0.012088272 0.016628928 -0.010308863 0.0087400535 -0.0034226838 0.012834475 0.0009184215
0.015212544 -0.0073810183 0.027771544 0.022001471 0.025346981 -0.010045678 0.001696426 -0.0032495572
0.020522151 0.002521866 0.0030751843 0.009271101 0.019807782 0.0051463693 0.021582382 0.007715266
-0.0180291 -0.007655971 -0.018069735 0.027832454 0.031575732 -0.011608975 0.02558103 0.014488017
-0.008568588 0.005736583 0.009373544 0.019314386 -0.013986722 0.0051607247 0.0049297595 0.032350518
-0.0020873877 0.005445112 0.0016291614 0.03368034 -0.009773191 0.015718719 -0.004315272 0.003987635

action_model._continuous_distribution.log_sigma f4 [1, 5]
00000000: efdd 1cbe a142 04be c907 55be 92a0 eebc
00000010: b339 3cbd
-0.15319036 -0.12916042 -0.20803751 -0.0291293 -0.045953464

action_model._continuous_distribution.mu.weight f4 [5, 256]
00000000: 8eae 463c 49ab 7fbd 7df8 0a3d f165 9ebd
00000010: fbc4 03bd 3494 1b3d 8898 a8bc 596d 4b3d
00000020: 4f48 4abd 5bf6 dabb d350 583c 2d1f 9cbb
00000030: ef73 163c 227a 413b 18da 4c3b a971 8b3d
00000040: f51a 213c 663d 893c d8ed 1e3d 3f0a f4bb
00000050: 5739 c33b 23d3 723d 5a8c 64bc 2a20 acbb
00000060: bd20 f2bb 31ed 0f3d 64b9 8d3d 3175 e0bc
00000070: 5dfb 89bd aef2 0e3d 8556 833c 5a59 663d
00000080: 04da aabd 4856 1ebd 9e67 ab3b 9140 1bbc
00000090: b700 7e3d 9ea5 913c 8c8c 31bb b2f6 0fbd
000000a0: d411 0cbc 0e77 7e3c 13dc d63b e3f2 3bbd
000000b0: 2eb9 093d 12ad b1bc b8f5 44bd d161 df3c
000000c0: c3b9 013d a63b 3fbd 0b61 e33d d58d 84bd
000000d0: 38f8 533b f3e5 6d3c 3551 a63c 2a46 513c
000000e0: 0203 983c 8f95 a9bb 804b e0bc d9c8 6b3a
000000f0: f779 b8bd 368a 473d f053 a4bc 503d 66bc
00000100: eb82 483d b1a0 26bd 0849 ac3b 5ced 68bd
00000110: 5ff6 05bc 4b73 e3bc 75f1 fc3c b195 9b3c
00000120: 1892 f13c 9957 48bd 0c11 e83c aa35 20bc
00000130: 9a16 58bd 17ab 16bd ff62 f83c 99b8 953d
00000140: e531 23bd d628 133c 5874 00b9 389f 223d
00000150: eaa2 0cbc beac e13b 7c24 1ebd 6514 c43c
00000160: b591 b93c 8f83 54bd ef51 c13c f13f e7bc
00000170: fe7b 01bd 4198 263d 4efc 86bc 9b17 53bd
00000180: c59b af3c 8547 b93c f2f8 753c a842 c6bb
00000190: ca15 a8bc 8be3 113d e5b9 23bd 053d 923d
000001a0: d420 bf3c 963b 8d3d effe 813c 4a7b 3bbd
000001b0: 91f6 75bb d055 733b 9156 d0bb 58e9 013d
000001c0: 8234 41bc 6f5d 5ebd a399 10bd d65f 8fbc
000001d0: 9b3e 21bd 7c4d d63c 1942 5c3d bbe4 ca3c
000001e0: 4e33 f73b 66b9 ec3b 4206 a33c 0226 5abd
000001f0: 19a4 1c3b 7e9d 243d b6c7 de3c d0cc 73bc
00000200: 4349 9c3c a439 903d 46fe c13c ec1a 54bd
00000210: 456b 153d 5eba 073d 7593 6a3c ac91 153d
00000220: 0ce6 e6bc 043b f4bc 996e bc3c d2c9 3c3d
00000230: 7d02 9a3c b648 15ba 4d84 be3d 1165 3b3b
00000240: 1338 25bd f76a 5d3c e2db 38bd ff24 673d
00000250: 1f9a 7c3c 9be1 bdbd 224a 823d 39fc b13c
00000260: da15 bbbc 5e35 543b 1614 0fbd 308f 263d
00000270: 59c0 12bd 8737 3dbd 12ec 6cbd 84f4 51bc
00000280: d283 51bd d16d d3bb e7e7 983c 22ed abbc
00000290: 369c 3abc c580 6dbd 59ad 9fbc b1fa f33c
000002a0: 0be3 e4bc ed5a f13c 75e9 61bd e5c0 2bbc
000002b0: bec2 03bc 70f9 313d c2f9 88bd 36ad 21bd
000002c0: bf2b 193d 27aa 9dbd 5b2f d03a 9e13 1bbb
000002d0: 39ba 5e3c 7138 11bd dd0d 18bb d489 aebc
000002e0: 70ac e23c 36fb 713d 9b62 60bd 39ac 52bd
000002f0: 7f3a 193d 56bc b53d 9ea8 9b3b 3b8b 063c
00000300: f450 8f3d 42ea 33bc f1ec 953d ece0 81bc
00000310: 4f7f 733d 483d b73b 8f92 5f3d 3b9f 25bd
00000320: 4d00 5d3c ef5c ee3c c949 013c b12d efbc
00000330: 13ae 863c 20b1 2bbd fe61 073d c251 1bbd
00000340: f928 a73b 12af acbd dfd6 5fbc ece5 193d
00000350: 0232 a03c ab85 2f3d 2a0c 14bd 468b 97bc
00000360: 65d7 efbc d374 a3bc ad97 063c a415 c33b
00000370: 9456 a83c 1ff6 033d 69ef 8e3d 1eb2 fa3c
00000380: 7e2b 8f3c e374 f538 ed93 35bd a445 133c
00000390: 4fa7 bcbb f891 e5bc 6ac4 4dbd 7ecd 8ebd
000003a0: 73c9 e43b bd2b 223d 51fc f23c c18a 09bb
000003b0: 871a e6bb e9d2 8d3d 4f16 45bd 736e 03bc
000003c0: 0964 2a3d e359 96bc ab61 b33c 13bd cd3c
000003d0: ff4f 313d b782 77bd 3a73 8d3d c732 ddbb
000003e0: c8a2 a73c f26f f03c b972 563d 1a5a a2bb
000003f0: 8d85 31bc 8ae5 d13c 27a7 0d3d 8989 aabb
0.012126578 -0.06241921 0.033928383 -0.077342875 -0.032170277 0.037983134 -0.020580545 0.04966483
-0.049385365 -0.0066822 0.013202864 -0.0047644586 0.009182914 0.002952226 0.0031257924 0.06808788
0.009833087 0.01675291 0.038801044 -0.0074475105 0.005957763 0.059283387 -0.013949478 -0.0052528577
-0.0073891566 0.035138313 0.06920126 -0.027399631 -0.06737397 0.034899406 0.016032467 0.056237556
-0.083423644 -0.038656503 0.005230858 -0.009475843 0.0620124 0.017779168 -0.002709183 -0.035147376
-0.008549172 0.015531315 0.0065569966 -0.04588593 0.033623867 -0.021688972 -0.0480859 0.027268322
0.031671297 -0.046687745 0.11102494 -0.06472365 0.0032343995 0.014520156 0.020302394 0.012773076
0.018556122 -0.0051752995 -0.027379751 0.0008994467 -0.09007638 0.048715793 -0.020059556 -0.014052704
0.048952978 -0.04068059 0.0052577294 -0.05686699 -0.008176415 -0.027764937 0.030876854 0.018992277
0.029488608 -0.048911665 0.028328441 -0.0097784195 -0.05275593 -0.036784258 0.030320643 0.073106
-0.039842505 0.008981904 -0.00012250373 0.039702624 -0.008583764 0.0068870476 -0.038609013 0.023935506
0.022652486 -0.051883277 0.02359864 -0.028228732 -0.03161239 0.040672544 -0.01647773 -0.051536184
0.021436581 0.022617111 0.0150129665 -0.0060504265 -0.020518202 0.035617393 -0.039972205 0.07140545
0.023331083 0.06896131 0.015868632 -0.045771874 -0.0037530998 0.0037130006 -0.006357976 0.031716675
-0.011792304 -0.054288324 -0.03530277 -0.017501753 -0.039366346 0.026159994 0.053773973 0.02476727
0.007543958 0.0072242497 0.019900445 -0.053258903 0.002390152 0.04018926 0.027194839 -0.014880374
0.019077903 0.07042244 0.023680817 -0.051783487 0.036479253 0.033136718 0.014317383 0.036515877
-0.028185867 -0.029813297 0.023001956 0.04609091 0.018800015 -0.00056947337 0.09302578 0.0028594176
-0.04033668 0.013514272 -0.04513157 0.056431767 0.015417605 -0.092715465 0.06361796 0.021726714
-0.022837568 0.0032380442 -0.034931265 0.040663898 -0.03582797 -0.046195533 -0.05784232 -0.012814645
-0.051151104 -0.0064523 0.018665267 -0.020987097 -0.011389783 -0.057984132 -0.019491838 0.029782625
-0.027940294 0.029462302 -0.055154283 -0.010483001 -0.008042036 0.043450773 -0.066882625 -0.039471827
0.037395235 -0.076984696 0.0015883254 -0.0023662816 0.013594204 -0.035454217 -0.0023201623 -0.021305956
0.027670115 0.059077464 -0.054781538 -0.051433776 0.0374093 0.08873813 0.0047503253 0.008211906
0.069978625 -0.010981144 0.073205836 -0.015854321 0.059447583 0.005592022 0.05458313 -0.040435057
0.013488841 0.029097049 0.007891127 -0.029196592 0.016440427 -0.041916966 0.033052437 -0.037919767
0.00510132 -0.084318295 -0.013662069 0.037572786 0.019555096 0.042852085 -0.036144413 -0.018499028
-0.029277513 -0.019953167 0.008214873 0.0059535075 0.020549096 0.03221714 0.069792576 0.030602511
0.017476793 0.00011704282 -0.044330526 0.008988772 -0.0057572494 -0.028023705 -0.050236143 -0.06972788
0.0069820224 0.039592493 0.02966133 -0.0020987245 -0.0070222053 0.069249935 -0.04811698 -0.008021939
0.041599307 -0.018353408 0.021897158 0.025114572 0.04328918 -0.060427394 0.06906743 -0.006750438
0.020463362 0.029350255 0.0523555 -0.0049545886 -0.010835064 0.025622148 0.034583237 -0.0052043837

action_model._continuous_distribution.mu.bias f4 [5]
00000000: 801d d1bb d5ff 7f3c 601d 3cba 76d8 893c
00000010: 3b9e ad3b
-0.0063816905 0.01562496 -0.0007176008 0.01682685 0.0052984036
