ML and AI/Hummingbirds/ml-agents/results/hb_01/Hummingbird/Hummingbird-3499968.onnx (onnx, 318358 bytes, 7 tensors)

network_body._body_endoder.seq_layers.0.weight f4 [256, 46]
0	0x3da2c813	0.079483174
1	0x3d4332d1	0.047655884
2	0x3e55f38b	0.20893686
3	0xbe7917ac	-0.24325436
4	0x3da7abdb	0.08187076
5	0x3d5c6209	0.05380443
6	0xbd577dcf	-0.052610215
7	0x3d5130d4	0.051071957
8	0x3dcd0b02	0.10011865
9	0x3e39f869	0.18161167
10	0x3d8aa8b9	0.067704625
11	0x3d999fda	0.075011924
12	0x3aec0f81	0.0018009992
13	0xbd80b097	-0.06283682
14	0xbe7189b8	-0.23587692
15	0xbc796c69	-0.015223601
16	0x3c00d776	0.00786387
17	0xbd743859	-0.05962405
18	0x3e0a86f5	0.13528045
19	0xbe7d5dd5	-0.24742825
20	0xbe80d8fc	-0.25165546
21	0x3d10fa93	0.035395216
22	0xbd9490c3	-0.072541736
23	0xbce8d4e9	-0.028421836
24	0x3e0abc25	0.13548334
25	0xbe66529d	-0.22492452
26	0xbe82da93	-0.25557384
27	0xbe31bd2b	-0.17357318
28	0x3d7ca0d6	0.061676823
29	0x3ebc47ff	0.3677368
30	0x3ccf0347	0.025270117
31	0x3d9038e4	0.07042101
32	0xbd60839f	-0.054813024
33	0x3d4a8bcc	0.049449727
34	0xbd7edf4b	-0.062224668
35	0x3db52349	0.08844621
36	0xbe25126b	-0.16120307
37	0x3e3b53d1	0.18293692
38	0x3cdcc81e	0.026950892
39	0x3d406e87	0.046980407
40	0xbe4ba3bc	-0.19886678
41	0x3e35b4ac	0.17744702
42	0xbcc44072	-0.023956511
43	0x3e367cf8	0.1782111
44	0x3c46e51d	0.012139586
45	0xbe5c19b6	-0.21494183
46	0xbe3a664c	-0.18203086
47	0xbd824802	-0.06361391
48	0xbce78db7	-0.028265817
49	0x3b843fe3	0.004035936
50	0x3e819f99	0.25317076
51	0x3e2f62b1	0.17127492
52	0x3e880284	0.2656442
53	0xbc7ac35e	-0.015305368
54	0x3dadb042	0.08480884
55	0x3d1487f4	0.036262468
56	0x3dc54e21	0.096340425
57	0xbc0cea7c	-0.008600827
58	0xbe058945	-0.13040645
59	0x3e835969	0.25654152
60	0xbd2fa741	-0.042884115
61	0xbd85b693	-0.06528964
62	0x3d9dbf9f	0.077025644
63	0x3d619067	0.055069353
64	0xbd0b3505	-0.03398611
65	0x3e894261	0.26808456
66	0xbe24e195	-0.16101678
67	0x3834ca13	4.310354e-05
68	0x3dba4d9c	0.09096834
69	0xbe8aa83b	-0.27081475
70	0xbd4b1123	-0.04957689
71	0xbe5f6aa5	-0.21818025
72	0xbea911be	-0.3302135
73	0x3d589cfb	0.052884083
74	0x3e084ada	0.13309804
75	0x3e01d54a	0.1267902
76	0xbe8ca03f	-0.27466008
77	0xb9f0e0b0	-0.00045943772
78	0xbe34991a	-0.17636529
79	0x3d80c007	0.06286626
80	0x3e75e148	0.24011719
81	0xbd756fc2	-0.059921034
82	0x3d1027d9	0.03519425
83	0xbd082d0e	-0.033246092
84	0xbe60a231	-0.21936871
85	0x3da17af6	0.07884781
86	0x3d6a9f2e	0.05728071
87	0x3891c520	6.950856e-05
88	0xbe5350dc	-0.20636314
89	0x3e9052fc	0.28188312
90	0x3df523e8	0.11969739
91	0x3e90bd62	0.28269488
92	0x3e0aceda	0.1355547
93	0xbe0fbd01	-0.14036943
94	0xbe2e7a70	-0.17038894
95	0x3c9ca167	0.019119931
96	0xbe083ec0	-0.13305187
97	0xbd6ae2e5	-0.05734529
98	0x3b85924a	0.004076277
99	0xbe012770	-0.126127
100	0x3e81cd61	0.25352004
101	0x3cadf69e	0.02123576
102	0x3d82433a	0.06360479
103	0xbc5f3a83	-0.01362479
104	0xbb9e1e37	-0.0048253792
105	0xbd42180e	-0.04738622
106	0xbd8a1e4e	-0.067440614
107	0xbd8b227f	-0.06793689
108	0x3e105ee2	0.14098695
109	0xbe183e21	-0.1486745
110	0xbe10f785	-0.14156921
111	0x3de8effc	0.113738984
112	0x3dbdda87	0.092701964
113	0x3db3f6c6	0.08787303
114	0x3e654b1c	0.22391933
115	0x3bbf3581	0.0058352356
116	0x3d856eaf	0.06515252
117	0xbc50b197	-0.012737653
118	0xbc848941	-0.016178729
119	0xbd86239b	-0.0654976
120	0xbe2b82ab	-0.16749065
121	0x3da37efe	0.07983206
122	0xbded872b	-0.11598047
123	0xbdf7b85d	-0.120957114
124	0x3e09af3b	0.13445751
125	0x3e50ba5b	0.20383589
126	0xbda2bb81	-0.0794592
127	0x3e6bfc7a	0.23045531
128	0x3e04a5ac	0.12953824
129	0xbde6bfff	-0.11267089
130	0xbe4efd1c	-0.20213741
131	0x3cbf59df	0.023358284
132	0xbe0474de	-0.12935206
133	0xbe5b660e	-0.2142565
134	0xbef39bc2	-0.4757977
135	0x3dd3889c	0.103287905
136	0xbdba8de4	-0.09109095
137	0x3da32aef	0.07967173
138	0xbbb5d91c	-0.005549563
139	0xbe10e4ec	-0.14149827
140	0xbda820fe	-0.08209418
141	0x3c39643f	0.011315404
142	0xbcfa589c	-0.03055983
143	0xbdc01371	-0.09378708
144	0xbe34b8bf	-0.176486
145	0x3e9651d7	0.29359314
146	0x3e2a6fe8	0.16644251
147	0xbe7b93dc	-0.24568123
148	0x3d249ee9	0.04019061
149	0xbd6a3b9c	-0.057185754
150	0xbe6d3b82	-0.23167232
151	0xbe140645	-0.14455517
152	0x3da44e08	0.08022696
153	0xbb896472	-0.004192882
154	0xbbdba533	-0.006703043
155	0x3d1a6df7	0.037702527
156	0xbd867f30	-0.06567228
157	0x3e8ecdab	0.27891287
158	0x3d56af42	0.052413233
159	0xbd53557e	-0.051595204
160	0xbdb17fe4	-0.08666971
161	0x3c32f431	0.010922478
162	0x3e88727c	0.26649845
163	0xbe33737a	-0.1752452
164	0x3d233012	0.039840765
165	0xbd1536ef	-0.036429342
166	0x3d001113	0.031266283
167	0x3e2bdb6b	0.1678292
168	0xbb5173ec	-0.0031959964
169	0x3e5e9c2f	0.21739267
170	0x3dde90b7	0.10867446
171	0x3e519359	0.20466365
172	0x3ec28165	0.37989345
173	0x3d89057d	0.066905
174	0x3c5cdfa7	0.013481057
175	0xbd2bfb90	-0.041987956
176	0xbe753407	-0.23945628
177	0x3e177b4f	0.14793132
178	0xbe80e4c3	-0.2517453
179	0xbddfeeba	-0.10934205
180	0x3e394681	0.18093301
181	0xbce9e910	-0.028553516
182	0x3e47f267	0.19526063
183	0xbe144775	-0.14480384
184	0xbe60061d	-0.21877332
185	0x3d5907d3	0.052985977
186	0xbeb2af5e	-0.3489942
187	0x3db1c74a	0.086805895
188	0xbd82cbc7	-0.06386524
189	0x3d373067	0.044723894
190	0x3cc79dd5	0.024367252
191	0x3e1a0dac	0.15044278
192	0x3cbe4d63	0.02323026
193	0x3e71575b	0.2356848
194	0x3dce0737	0.1005997
195	0xbd0011e3	-0.031267058
196	0xbaeab607	-0.0017907032
197	0x3d9bfd65	0.076166905
198	0xbde9f05a	-0.114227965
199	0xbd61b21e	-0.055101506
200	0xbcb45fd9	-0.02201836
201	0xbd827e94	-0.06371799
202	0xbc77cb9f	-0.015124231
203	0xbe7c59be	-0.24643609
204	0x3df89e1a	0.121395305
205	0x3c3519fb	0.0110535575
206	0xbe812ffc	-0.25231922
207	0x3d6cc4c4	0.057804838
208	0xbe22d8a5	-0.15902956
209	0x3e1d9bbf	0.15391444
210	0x3bd7a565	0.006580996
211	0xbe236d26	-0.15959606
212	0x3d9f8f6e	0.07791029
213	0xbe0e3cf0	-0.13890433
214	0x3e975498	0.29556727
215	0x3ebab738	0.3646791
216	0x3e5fb321	0.21845676
217	0xbd5cf21a	-0.053941824
218	0x3d81fcee	0.06347071
219	0xbd9f17c5	-0.077682056
220	0x3e0cf1fa	0.13764182
221	0xbd5f25e9	-0.054479513
222	0xbdb1bf0f	-0.0867902
223	0x3d854029	0.06506378
224	0x3c0364be	0.008019624
225	0xbd15878b	-0.036506217
226	0x3dea7dd0	0.11449778
227	0xbdbb11c1	-0.09134246
228	0x3e829bd5	0.25509515
229	0x3e08058b	0.13283364
230	0x3e061c28	0.13096678
231	0x3d29e123	0.041474473
232	0xbdb8ef33	-0.09029999
233	0x3e76635e	0.24061343
234	0x3e74e560	0.23915625
235	0x3c465253	0.012104589
236	0xbd6ec27e	-0.05829095
237	0x3d900441	0.07032061
238	0xbe1e87a4	-0.1548143
239	0x3a9b299f	0.0011837966
240	0xbde72d0a	-0.112878874
241	0xbe9228b8	-0.2854669
242	0x3e2dc932	0.16971281
243	0x3e006354	0.1253789
244	0x3e9f3d77	0.3110158
245	0x3e5c19e0	0.21494246
246	0xbe6b2f69	-0.22967304
247	0x3d488c3d	0.048961867
248	0x3cfb3853	0.030666506
249	0xbe2acbda	-0.16679326
250	0x3e5c92a0	0.21540308
251	0x3db163e0	0.08661628
252	0x3d3bd814	0.045860365
253	0x3e272e88	0.16326344
254	0x3e3718b8	0.17880523
255	0x3d4af813	0.04955299

network_body._body_endoder.seq_layers.0.bias f4 [256]
0	0x3b8dba31	0.0043251743
1	0xbc183b28	-0.009291448
2	0x3bcb38d1	0.0062018414
3	0xba735aa2	-0.00092832197
4	0x3cbe6cd0	0.023245245
5	0x3b7b8c30	0.0038383119
6	0x3da96304	0.08270839
7	0x38ddee7e	0.00010582524
8	0x3cda6491	0.026659282
9	0x3b89dcc1	0.004207224
10	0x3d43bdc9	0.047788415
11	0x3c48ab0d	0.012247813
12	0xbc05afe0	-0.008159608
13	0x3bd314df	0.006441697
14	0x3d857e73	0.06518259
15	0x3cd5539e	0.026040848
16	0x3c5bfc09	0.013426789
17	0x3d5005f1	0.050786916
18	0x3d13d3e3	0.036090743
19	0x3cac4138	0.021027192
20	0x3c6bf137	0.014400772
21	0x3c70c935	0.014696409
22	0x3cd37bbe	0.02581584
23	0x3cb2981f	0.021801053
24	0xbca3861d	-0.019961411
25	0x3c4f6ca0	0.012660176
26	0x3c71e25d	0.014763442
27	0xbc97078a	-0.018436212
28	0xbc9029d0	-0.017598063
29	0x3b4bdc6d	0.0031106726
30	0x3c45b8e1	0.012068004
31	0xbbc896e8	-0.006121505
32	0x3c7dabed	0.015482885
33	0xbc7de80a	-0.015497217
34	0xbb10fb34	-0.0022122385
35	0xbc384096	-0.011245867
36	0xbb63ac9d	-0.0034740337
37	0xbbb999ff	-0.0056641097
38	0x3c290786	0.010316735
39	0xbc944b6d	-0.018102372
40	0xbc444c73	-0.011981118
41	0x3a944d58	0.0011314554
42	0xbb3441f1	-0.0027505124
43	0x3d048a0c	0.032358214
44	0x3c73c8de	0.014879433
45	0x3c0d6c57	0.008631787
46	0xbbe5be8c	-0.0070112403
47	0x3ca821e5	0.020523975
48	0x3bb8aa1c	0.005635513
49	0x3c52ba22	0.01286176
50	0x3c8dc4ef	0.01730582
51	0xbc92265e	-0.01784056
52	0x3cdbf42f	0.026849834
53	0xbbe52452	-0.006992855
54	0x3c602420	0.013680488
55	0x3c5f9de8	0.013648488
56	0x3aff94c4	0.0019499292
57	0x3d043cbe	0.03228449
58	0x3d171901	0.03688908
59	0x3cc23379	0.023706185
60	0x3d36417c	0.044496045
61	0x3cf3789e	0.0297206
62	0x3af4fe2e	0.0018691474
63	0x3bf9aa5a	0.0076191844
64	0xbb1eda43	-0.002423898
65	0x3cead016	0.028663676
66	0x3d3aeb66	0.04563465
67	0x3c810889	0.01575114
68	0x3d3d793b	0.046258193
69	0x3c8a7d01	0.01690531
70	0x3d019890	0.031639636
71	0x3c9baf5a	0.019004513
72	0x3cfae8b2	0.030628536
73	0x3ce8ad8f	0.028403072
74	0x3cd2ce0c	0.025733016
75	0x3cb72c0d	0.022359872
76	0x3d84e034	0.06488076
77	0x3c8cf69c	0.017207436
78	0xbb5aeb69	-0.0033404476
79	0x3d02bd57	0.03191885
80	0x3b94a7a8	0.0045365877
81	0x3b69aa9b	0.0035654667
82	0x3c042a59	0.008066737
83	0x3cc81a2b	0.02442654
84	0x3c3568cb	0.011072348
85	0x3cfa39d3	0.03054515
86	0x3d25dc75	0.040493447
87	0x3baf3e8e	0.0053480333
88	0x3bdf70a2	0.006818847
89	0x3cfa1f75	0.030532578
90	0x3d8b83f6	0.06812279
91	0x3d8af211	0.06784452
92	0x3d5941f1	0.053041402
93	0x3c7b5df2	0.0153422225
94	0x3d245b91	0.040126387
95	0xbc1bdbc7	-0.009512848
96	0x3c9aed91	0.018912109
97	0x3b885ae8	0.0041612275
98	0xbb95305a	-0.004552883
99	0xbcde8418	-0.027162597
100	0xb8ddb952	-0.0001057262
101	0x3ca1bc81	0.019743206
102	0x3b8a0ffe	0.004213332
103	0x3ad4ffbb	0.001625053
104	0x3ca93517	0.020655198
105	0x3c62fdc7	0.013854451
106	0x3c48ae08	0.0122485235
107	0x3d439d9e	0.047757737
108	0x3b480f0e	0.0030526551
109	0xbb8f1db4	-0.0043675546
110	0x3c637e74	0.013885129
111	0x3cd66e9c	0.02617579
112	0x3c375b56	0.01119121
113	0xbbc0ead3	-0.005887368
114	0x3c5ad46e	0.013356311
115	0x3d039d25	0.032132287
116	0xbc2e5254	-0.010639746
117	0x392781aa	0.00015974665
118	0x3c45cb74	0.012072433
119	0x3d46274c	0.04837732
120	0xbc7c42ed	-0.015396816
121	0xb999dcca	-0.00029346935
122	0x3c72c58e	0.0148176085
123	0x3bbbe94e	0.005734599
124	0xbc83e9b1	-0.016102644
125	0x3bf648b6	0.007515992
126	0x3c7a803f	0.015289365
127	0x3b924ac8	0.004464481
128	0x3ce33770	0.027736396
129	0x3ca6d12c	0.020363413
130	0x3d14ba60	0.036310554
131	0x3a8cc974	0.001074119
132	0x3c336a81	0.0109506855
133	0x3bf32b00	0.0074208975
134	0x3c907347	0.017633094
135	0xbc2a9aaf	-0.010412856
136	0x3ca1e17a	0.019760836
137	0x3c339e2d	0.010963005
138	0x3cff1480	0.031137705
139	0xbd46fbf5	-0.04858013
140	0x3c1d157f	0.009587645
141	0x3b8526c9	0.0040634614
142	0x3c6b53a2	0.014363201
143	0x3d1e31e4	0.0386218
144	0x3bd0ef17	0.006376158
145	0xbb99e953	-0.004697004
146	0x3bf46bcb	0.007459139
147	0x3c169a2d	0.009192032
148	0x3cbb1b69	0.022840219
149	0x3c0f489d	0.00874534
150	0x3ca4a3e2	0.020097677
151	0x3ce0b075	0.027427891
152	0xbc07507f	-0.008258938
153	0x3c975184	0.018471487
154	0x3d5ae689	0.05344251
155	0x3ba1c839	0.0049371985
156	0x3d580474	0.05273862
157	0x3c208d76	0.009799352
158	0x3ca2645f	0.019823251
159	0xbbdbdd5e	-0.0067097386
160	0xbc14e129	-0.0090868855
161	0x3c221fb6	0.009895256
162	0x3b8b7d72	0.0042568976
163	0xbc008f90	-0.007846728
164	0x3c54f219	0.012997174
165	0x3d0aca33	0.03388424
166	0x3d023e51	0.03179771
167	0x3c5df2e7	0.013546682
168	0x3c16947a	0.009190673
169	0x3c659085	0.014011507
170	0x3cd0e9b5	0.025502065
171	0x3c45fb1e	0.012083797
172	0xbbf5df2e	-0.0075034117
173	0xbb0c62c9	-0.0021421185
174	0xbbe1693f	-0.0068790014
175	0xbc19507b	-0.009357567
176	0x3c8241a1	0.015900435
177	0x3c125151	0.00893052
178	0x3c9c315a	0.019066501
179	0x3c0a9f64	0.008460853
180	0x3d18057c	0.037114605
181	0x3c3de7ed	0.01159094
182	0x3c573e9d	0.013137487
183	0xbb503acc	-0.0031773327
184	0x3b5ccd3f	0.0033691672
185	0x3c51eb3f	0.012812435
186	0x3c95d85a	0.018291641
187	0x3d22d71c	0.039755926
188	0x3cafa7b5	0.021442274
189	0x3d3966bf	0.045264002
190	0x3d450ed4	0.048109844
191	0x3c8e6ba1	0.017385306
192	0x3bc46d67	0.005994487
193	0x3cf7bde4	0.030241914
194	0x3cba4a55	0.022740522
195	0xbcc204b8	-0.02368389
196	0x3cbe2cc2	0.023214702
197	0x3c59d1c0	0.013294637
198	0x3d7fd416	0.06245812
199	0x3b89a025	0.004199999
200	0xbc56ba00	-0.013105869
201	0x3d0bb9ea	0.03411285
202	0x3c7d7626	0.015470063
203	0x3c1038b8	0.008802585
204	0x3c238ea5	0.00998274
205	0x3c865514	0.01639799
206	0x3c6a6468	0.014306165
207	0x3d049166	0.032365225
208	0xbbd6bdc4	-0.0065533835
209	0x3c334ea8	0.010944046
210	0x3c9851d4	0.018593706
211	0x3d22cb8b	0.039744895
212	0xbb72582e	-0.0036978829
213	0x3be55c6d	0.0069995434
214	0x3d0e4983	0.034738075
215	0x3c99e8b5	0.018787721
216	0xbc40c8b0	-0.011766598
217	0xbb88c5d9	-0.004173976
218	0x3d4fc25b	0.05072246
219	0x3c647a22	0.013945134
220	0x3d46aa92	0.048502512
221	0xbc02f38d	-0.007992637
222	0xba4e661d	-0.00078734924
223	0x3cbc99fc	0.023022644
224	0x3cda7859	0.026668714
225	0x3c42e9f1	0.011896596
226	0x3d83c877	0.0643472
227	0xbbf28eb3	-0.007402265
228	0x3c324a6d	0.010882002
229	0x3a140564	0.0005646555
230	0xbc84df8d	-0.016219879
231	0x38fe0bb2	0.00012113842
232	0x3d012f85	0.03153946
233	0x3c670f6d	0.014102799
234	0x3d7c7254	0.06163247
235	0x3cb02e89	0.021506565
236	0x3c3db4fe	0.011578796
237	0x3cfb4a29	0.03067501
238	0x3c84c70c	0.016208194
239	0xbc2433b4	-0.010022093
240	0x3c9f8bc9	0.019475834
241	0x3cfeecd3	0.031118786
242	0xbb26cfe7	-0.002545351
243	0x3c7a7f9c	0.0152892135
244	0xbcb7be30	-0.022429556
245	0x3c899f72	0.016799662
246	0x3cae66aa	0.021289188
247	0x3cab8348	0.020936623
248	0xbd54d46c	-0.051960394
249	0x3cd36d0e	0.025808837
250	0xbb412de0	-0.0029476807
251	0x3c6b5285	0.014362936
252	0x3c528a9a	0.012850428
253	0x3b61d0dc	0.0034456765
254	0x3bb501be	0.0055238893
255	0xbc35f75d	-0.011106339

network_body._body_endoder.seq_layers.2.weight f4 [256, 256]
0	0xbd51e38d	-0.0512424
1	0xbdd939a6	-0.10606699
2	0xbd517a3b	-0.05114196
3	0x3d80bf82	0.06286527
4	0x3d26a61d	0.04068576
5	0x3d95f598	0.07322234
6	0xbd16b536	-0.03679391
7	0x3d555ce3	0.052090537
8	0x3d7424cf	0.059605416
9	0xbd506774	-0.05087991
10	0xbd18a16e	-0.037263326
11	0xbdc9055d	-0.09815476
12	0xbd1f860f	-0.038946208
13	0x3df8c6e5	0.12147311
14	0x3e5028ca	0.2032806
15	0xbdcb2bbb	-0.0992045
16	0x3da06073	0.07830896
17	0x3e0a18ec	0.1348607
18	0x3d7fbfcf	0.062438782
19	0x3d3b1630	0.045675457
20	0x3d130ec5	0.035902757
21	0xbc2887a5	-0.010286246
22	0xbdcce032	-0.10003699
23	0x3d072813	0.032997202
24	0xbb67cb04	-0.003536881
25	0xbc16a134	-0.009193707
26	0x3db2e6eb	0.0873545
27	0xbdbccbba	-0.09218545
28	0xbdbcb0a2	-0.092133775
29	0xbd0c4061	-0.034241084
30	0x3d96655e	0.07343553
31	0x3d9eb9ed	0.07750306
32	0x3d615576	0.055013143
33	0xbcee8f49	-0.029121058
34	0xbbba2a2e	-0.0056812977
35	0x3c601e12	0.013679044
36	0xbd73c171	-0.059510652
37	0xbd2bbf7d	-0.041930664
38	0xbdcb051d	-0.09913085
39	0x3d6c3a70	0.057672918
40	0x3cb95333	0.02262268
41	0x3db1dd7f	0.08684825
42	0x3c13f60a	0.009030828
43	0xbd063822	-0.032768376
44	0xbdcfa896	-0.10139577
45	0xbd83710a	-0.06418045
46	0xbd955568	-0.072916806
47	0x3c4b2e80	0.012401223
48	0xbd87f12f	-0.06637799
49	0x3c82060c	0.015872024
50	0x3d8ff847	0.07029777
51	0xbdc655b7	-0.096843176
52	0x3d992c3c	0.0747914
53	0x3dce0b63	0.100607656
54	0x3d0cd259	0.03438029
55	0xbd7f5522	-0.06233705
56	0x3c83b79d	0.016078765
57	0x3b072740	0.002062276
58	0x3ba0947c	0.004900513
59	0x3d942713	0.07234015
60	0x3c979e81	0.018508198
61	0xbd0be98c	-0.034158275
62	0xbcc59844	-0.024120457
63	0x3d806888	0.06269938
64	0x3ace6341	0.0015746133
65	0x3baadd17	0.0052143442
66	0xbdd67911	-0.1047231
67	0xbded6add	-0.11592648
68	0x3dbc3238	0.09189266
69	0x3c46cd1a	0.012133861
70	0xbc9056c5	-0.0176195
71	0xbd17bc26	-0.037044667
72	0x3ca8d2a3	0.020608252
73	0x3d4298a8	0.047508866
74	0xbb7576c4	-0.0037454823
75	0xbb91aa47	-0.0044453475
76	0x3d59028a	0.052980937
77	0x3ce59265	0.028023908
78	0x3d9b889c	0.075944155
79	0xbb96bfbd	-0.0046004937
80	0x3d6eb886	0.058281444
81	0xbce69ae3	-0.028150028
82	0x3da0d6b4	0.07853451
83	0xbd470928	-0.048592716
84	0x3d0899c1	0.033349756
85	0xbcf4a977	-0.029865963
86	0x3e07ee64	0.13274533
87	0xbc286702	-0.010278465
88	0x3dfa4209	0.122196265
89	0x3d6639ea	0.056207575
90	0x3d2317b0	0.039817512
91	0x3e2242be	0.15845773
92	0xbd979b31	-0.07402647
93	0xba5eef24	-0.00085042627
94	0x3e1d2d9d	0.15349431
95	0x3ddf4d5d	0.10903428
96	0xb9cbb902	-0.0003885702
97	0x3d8990d8	0.0671708
98	0x3d1937a5	0.037406582
99	0x3d08967c	0.033346638
100	0xbd629f23	-0.055327546
101	0x3dea3e11	0.114376195
102	0x3da7f56d	0.08201108
103	0xbd8fcb39	-0.070211835
104	0x3aeb1c92	0.0017937592
105	0xbe0c2bcf	-0.13688587
106	0xbe10ed9f	-0.14153145
107	0x3e3b37ad	0.18282957
108	0x3d67de53	0.05660851
109	0xbdae15fe	-0.085002884
110	0x3d8ab03a	0.06771894
111	0x3ccadc65	0.024763295
112	0xbd55fc81	-0.05224276
113	0xbd55d052	-0.052200623
114	0xbd941c1f	-0.07231926
115	0x3dc9ea90	0.09859192
116	0x3ddb48c0	0.10707235
117	0xbd58cf13	-0.052931856
118	0x3d76ddcf	0.060270127
119	0xbb732b35	-0.003710461
120	0xbde9ef0e	-0.11422549
121	0x3d2a5739	0.04158709
122	0x3dab9b67	0.0837925
123	0x3dd29de2	0.1028402
124	0x3be3d1fc	0.0069525223
125	0x3d4ffbe1	0.05077732
126	0xbd1af28d	-0.03782897
127	0x3d04e3c4	0.032443777
128	0xbda2db52	-0.07951988
129	0xbc8ec3e6	-0.017427396
130	0x3d82d478	0.063881814
131	0x3bdc4a35	0.0067227134
132	0x3d9c7005	0.076385535
133	0xbd83b0bd	-0.064301945
134	0xbd977981	-0.07396222
135	0xbcde57da	-0.0271415
136	0xbcadc72a	-0.021213133
137	0xbd7666b2	-0.06015653
138	0x3d73845b	0.059452396
139	0xbd986a50	-0.074421525
140	0x3e481a43	0.19541268
141	0x3cabdc49	0.020979064
142	0xbcf7a84c	-0.030231617
143	0x3c20b1f7	0.009808055
144	0xbd05c84b	-0.032661717
145	0x3df066e9	0.117383786
146	0xbaca237d	-0.0015421953
147	0xbd67d230	-0.056596935
148	0xbc866d22	-0.01640946
149	0x3c858448	0.016298428
150	0xbd57eac8	-0.05271414
151	0xbd8d21f7	-0.06891244
152	0xbc3ac6a4	-0.011399899
153	0xbd411413	-0.047138285
154	0x3de0ef8b	0.10983189
155	0xbcf8f276	-0.030389052
156	0xbd77ba63	-0.060480487
157	0x3bdc80cb	0.0067292205
158	0x3dfdc1cc	0.123904794
159	0xbd6541e7	-0.055971052
160	0xbd483e93	-0.0488878
161	0xbcbf5de4	-0.0233602
162	0x3b743e50	0.0037268586
163	0xbbb54d2e	-0.005532882
164	0xbe0b18e4	-0.13583714
165	0xbd91de3c	-0.07122466
166	0x3d0b38b4	0.033989623
167	0x3d0f2e39	0.03495619
168	0xbdad8153	-0.08471932
169	0xbda15b8f	-0.078787915
170	0x3d98473e	0.07435463
171	0xbd8ae86c	-0.06782612
172	0xbcd102b9	-0.025513994
173	0xbd00141d	-0.03126918
174	0x3cad5029	0.021156387
175	0xbc49339a	-0.012280369
176	0xbe2c37fd	-0.16818233
177	0xbd17553e	-0.036946528
178	0xbd953fe7	-0.07287579
179	0x3d6f1966	0.05837383
180	0xbd639f1f	-0.05557167
181	0x3d99d1de	0.07510732
182	0xbca530aa	-0.020164806
183	0x3d26b13e	0.040696375
184	0xbc55ae41	-0.013042034
185	0xbd10d33f	-0.03535771
186	0xbc6e1b85	-0.014532928
187	0x3d03db88	0.032191783
188	0x3de4dcad	0.11174903
189	0xbd38d746	-0.045127176
190	0x3db6254a	0.08893831
191	0x3e00bac5	0.12571247
192	0x3d02bec3	0.031920206
193	0xbc8892a0	-0.016671479
194	0xbcb84381	-0.022493126
195	0x3dd719e3	0.105029844
196	0x3d5e38c5	0.05425336
197	0x3dbac05d	0.09118722
198	0x3d0787e5	0.033088583
199	0x3c44451e	0.011979369
200	0x3a342f97	0.00068735465
201	0x3dfc21f5	0.12311164
202	0x3a96b074	0.0011496679
203	0x3d2f9a1f	0.04287159
204	0x3bbf05be	0.005829542
205	0x3d5bc4e3	0.053654563
206	0xbcda98f2	-0.026684258
207	0x3d88d2f0	0.06680858
208	0xbc80d4e1	-0.015726509
209	0x3db4aa8b	0.08821591
210	0x3e048d9c	0.12944645
211	0x3bb67e8a	0.005569284
212	0xbd34c6f8	-0.044135064
213	0xbd25c1a5	-0.040467877
214	0x3d4c4a39	0.04987547
215	0xbd85261f	-0.06501412
216	0x3d958f93	0.07302775
217	0xbbdc9158	-0.0067311935
218	0xbdd047fa	-0.101699784
219	0xbc329c43	-0.0109015135
220	0x3cb8d550	0.022562653
221	0x3a223cbf	0.00061888614
222	0xbb7ab3e6	-0.00382542
223	0xbcb5f59d	-0.022211844
224	0x3d5c5932	0.053796
225	0xbd5540fa	-0.05206392
226	0xbc981500	-0.018564701
227	0x3e12b480	0.14326668
228	0x3da56897	0.080765896
229	0xbd4e62f6	-0.050387345
230	0xbd60d61f	-0.0548917
231	0x3d6302c4	0.05542256
232	0xbdc11937	-0.094286375
233	0x3cd1ac55	0.02559487
234	0x3ceae294	0.028672494
235	0xbcd0d060	-0.025489986
236	0x3d747e18	0.059690565
237	0xbdaa66e8	-0.08320409
238	0xbd0e91a8	-0.034806877
239	0xbd25c913	-0.040474962
240	0xbd35884d	-0.04431944
241	0x3c871b2b	0.016492447
242	0x3e480633	0.19533615
243	0xbd9ee2e6	-0.07758121
244	0xbe02033d	-0.12696548
245	0x3d84c250	0.06482375
246	0xbdcdf76c	-0.100569576
247	0x3e185ed7	0.14879929
248	0xbddcf78a	-0.10789402
249	0x3babffce	0.005249
250	0x3d8735ba	0.066020444
251	0xbdb36c88	-0.08760935
252	0x3de498e7	0.11161976
253	0x3d271210	0.04078871
254	0xbd5d93f5	-0.05409618
255	0x3be7cb85	0.007073822

network_body._body_endoder.seq_layers.2.bias f4 [256]
0	0x3cb239aa	0.021756012
1	0x3cdef776	0.027217608
2	0x3ba88351	0.0051426073
3	0xba84dba9	-0.0010136265
4	0x3c9a81d4	0.018860735
5	0x3b85e5ea	0.004086246
6	0x3b8e674b	0.0043458096
7	0x3b95c9cd	0.0045711757
8	0x3d0c2a4f	0.034220036
9	0x3c3d9093	0.011570114
10	0x3cf5c35b	0.03000038
11	0x3bcee097	0.0063133943
12	0x3d0a924c	0.033830926
13	0x3c2effaf	0.010681077
14	0x3b3bbe01	0.0028647187
15	0x3c7cd18c	0.015430819
16	0xbc2c79f3	-0.010527122
17	0x3cb02f5c	0.021506958
18	0x3c75c521	0.0150006125
19	0x3c7e8118	0.015533708
20	0x3cf489cc	0.029850863
21	0xbbcdbb2d	-0.0062784166
22	0x3c48b9eb	0.012251358
23	0x3c0c2d35	0.0085557
24	0xbbb7fdba	-0.0056149634
25	0x392f3fdf	0.00016713094
26	0x3bf55826	0.0074873148
27	0x3ccfa5a0	0.02534753
28	0x3ce6d3bc	0.028177135
29	0xbb6f9375	-0.0036556397
30	0xbc2d1c0e	-0.010565771
31	0x3bb5baa6	0.005545932
32	0x3c5d922a	0.013523618
33	0x3c38a00c	0.011268627
34	0x3c2617cb	0.010137509
35	0xbbd5bfa5	-0.00652309
36	0xbb90adb3	-0.004415238
37	0xbba6e3c6	-0.0050930707
38	0x3c927456	0.017877739
39	0x3c6089a1	0.013704688
40	0x3c24da8b	0.01006187
41	0xbbfbbe38	-0.007682588
42	0x3c8a81b4	0.01690755
43	0x3c529897	0.012853763
44	0xbc065a89	-0.008200296
45	0x3c480d9b	0.012210275
46	0x3c8db843	0.017299777
47	0xbaf0299b	-0.0018322946
48	0x3d073aa9	0.033014927
49	0x3c66d8be	0.014089761
50	0x3a51e283	0.000800647
51	0x3c3fb3cf	0.011700585
52	0x3c37dfd6	0.0112228
53	0xbbff2523	-0.0077864095
54	0x3c3e8da8	0.011630453
55	0xbbbd94a8	-0.0057855435
56	0x3c3dcc87	0.011584408
57	0xbc30db6c	-0.010794502
58	0x3cf3da47	0.029767169
59	0x3b43574e	0.0029806676
60	0x3c7ee879	0.0155583555
61	0x3c8bba0c	0.017056488
62	0x3c42453e	0.011857329
63	0x3b885eea	0.0041617053
64	0xb8ea177f	-0.00011162366
65	0xbb6a5118	-0.0035753902
66	0x3b5e7323	0.0033943139
67	0xbb5fc0b0	-0.003414195
68	0x3cbca9ab	0.023030123
69	0x3c0a1f92	0.0084303785
70	0xbb99be8d	-0.004691905
71	0x3c6cd230	0.0144544095
72	0x3c712b0a	0.014719734
73	0x3ba2bc64	0.0049663056
74	0x3b410cec	0.0029457165
75	0x3ca06da3	0.019583529
76	0x3c1e349c	0.009656098
77	0x3c229311	0.009922759
78	0x3cc2ca74	0.023778178
79	0x3b9808dd	0.0046397285
80	0x3c62f4ca	0.013852308
81	0x3cfcb984	0.03085018
82	0x3bb94e4c	0.0056550857
83	0xba962347	-0.0011454605
84	0x3cec77f8	0.0288658
85	0x3c693799	0.014234447
86	0x3c3d981f	0.011571913
87	0xba220445	-0.0006180446
88	0x3c74f965	0.014952038
89	0x3b02f9f0	0.00199854
90	0x3c812ed2	0.015769396
91	0x3d15e8f7	0.036599126
92	0xbb660cde	-0.0035102884
93	0xbc3cdf52	-0.011527853
94	0xbb1194f1	-0.002221402
95	0x3ca71daf	0.020399896
96	0x3b2f68d5	0.0026765366
97	0xbc2f8fd7	-0.010715446
98	0x3cae5542	0.021280888
99	0x3ca0bfe9	0.01962276
100	0x3c8f9e2b	0.017531475
101	0x3b6ea65f	0.0036415083
102	0x3bd484f8	0.0064855777
103	0x3b6e9916	0.0036407164
104	0x3aa41502	0.0012518468
105	0x3b3693cc	0.002785909
106	0x3c9b2697	0.0189393
107	0x3bd8c077	0.0066147405
108	0x3cdc64a5	0.02690346
109	0x3c87b1fb	0.01656436
110	0x3ce753e0	0.028238237
111	0xbb99d21d	-0.004694237
112	0xbc3c82df	-0.0115058115
113	0xba2c6a8d	-0.00065771566
114	0x3c913453	0.017725145
115	0x3cb0c5e1	0.021578731
116	0x3a250815	0.0006295455
117	0x3c775078	0.015094869
118	0x3c0a2570	0.008431777
119	0x3c552bf2	0.013010966
120	0x3bb71235	0.0055868872
121	0x3c622a30	0.013804004
122	0x3c7d9678	0.015477769
123	0x3c0ba43b	0.008523042
124	0xbafb64f8	-0.0019179871
125	0x3aacb3b0	0.001317611
126	0xbb9e7241	-0.0048353975
127	0x3cc1d095	0.02365903
128	0x3aa6288d	0.001267688
129	0x3c1f2df6	0.009715548
130	0x3aaa2a90	0.0012982655
131	0x3c91b6c6	0.017787348
132	0x3c9b61a1	0.018967452
133	0xbc49e2d3	-0.0123221455
134	0x3b4356e4	0.002980643
135	0x3cfd4dd2	0.030920897
136	0x3cac1a53	0.021008646
137	0x3ced26ab	0.028949102
138	0x3ab82388	0.0014048675
139	0x3c76a623	0.0150542585
140	0xba2c8cda	-0.0006582268
141	0x3cc9a4e4	0.024614759
142	0x3c43ff6c	0.011962753
143	0x3c902d5d	0.017599756
144	0xbaf8472c	-0.0018942109
145	0x3be0da71	0.0068619777
146	0x3cf905da	0.030398298
147	0x3c01faa5	0.0079332935
148	0xbbbf76f9	-0.00584304
149	0x3b9463e4	0.0045285095
150	0x3c88eda6	0.016714882
151	0x3acbf98d	0.0015562043
152	0x3cb593c9	0.022165196
153	0x3c1baaf6	0.0095012095
154	0x3ba65925	0.005076545
155	0x3c85ad26	0.016317915
156	0x3c72e202	0.014824392
157	0x3c9df53b	0.019281974
158	0x3cb24674	0.02176211
159	0x3cd76b31	0.02629623
160	0x3c8e2463	0.017351335
161	0x3d11fff3	0.035644483
162	0x3c81d09b	0.015846541
163	0x3c4dacbb	0.012553389
164	0x3ca75bbd	0.020429486
165	0x3a60a707	0.0008569811
166	0x3d048dd3	0.032361817
167	0xbbf6798e	-0.0075218147
168	0xbbda9299	-0.006670308
169	0x3c1d96b8	0.009618454
170	0x3cb70918	0.022343203
171	0xbac9ddce	-0.0015401186
172	0x3bc95763	0.0061444505
173	0xbba34a81	-0.004983247
174	0xb98a0da3	-0.0002633157
175	0x3cc3f940	0.023922563
176	0x3ca49d3a	0.020094503
177	0xb90eca42	-0.00013617522
178	0x3d0d5399	0.034503553
179	0x3c267e1d	0.010161904
180	0xbc029d55	-0.007972081
181	0x3c9dc64a	0.01925959
182	0x3cc329f7	0.023823721
183	0xbb7f11fd	-0.0038920634
184	0x3d3e1930	0.04641074
185	0xbca1a160	-0.01973027
186	0x3bb508cb	0.00552473
187	0x3c1bfce1	0.00952074
188	0xbc5e9447	-0.013585157
189	0xbb12e029	-0.0022411442
190	0x3c0061f2	0.007835852
191	0xbae0e6e7	-0.0017158658
192	0x3b166328	0.0022947285
193	0x3cca8eea	0.02472635
194	0x3c0c0fdc	0.008548703
195	0x3c05a8f4	0.008157957
196	0x39890ea3	0.00026141581
197	0x3b18216f	0.0023213287
198	0x3c21a099	0.00986495
199	0x3cae21c9	0.021256344
200	0xbbae6852	-0.0053224945
201	0xbc0bc789	-0.00853146
202	0x381cbff6	3.7372076e-05
203	0x3c1afcfd	0.009459731
204	0x3b3412d1	0.0027477036
205	0xbafe8865	-0.0019419311
206	0x3c986311	0.018601926
207	0x3c8a37f4	0.016872384
208	0xbc0c4799	-0.008561992
209	0x3c44866b	0.011994938
210	0x3c83b2b3	0.016076421
211	0xbc359392	-0.011082547
212	0x3c0ce528	0.008599557
213	0xbb60e09c	-0.0034313565
214	0x3c474def	0.012164577
215	0x3a369a38	0.00069657294
216	0x3c6f301d	0.014598873
217	0xbbd4cdd9	-0.0064942655
218	0x3cdc3a57	0.026883287
219	0x3cb13405	0.02163125
220	0x3ccc318c	0.02492597
221	0xbc17e778	-0.009271495
222	0x3b07edde	0.0020741145
223	0xbb88f7df	-0.004179939
224	0x3ca24c51	0.019811781
225	0x3b381044	0.0028085867
226	0x3b22fc37	0.002486957
227	0x3c0fc9d2	0.008776145
228	0x3ca14ae8	0.019689038
229	0x3ba7a965	0.005116629
230	0x3cb30680	0.021853685
231	0x3bf7ea92	0.0075658048
232	0xbc94fa77	-0.018185837
233	0xbbfd1623	-0.007723586
234	0xbc986fc2	-0.018607978
235	0x3cdcf768	0.026973441
236	0x3cf789f7	0.030217154
237	0xbc370fc7	-0.011173195
238	0x3ccad9b1	0.024762006
239	0x3c5d73d1	0.013516382
240	0xbbf759ca	-0.0075485455
241	0x3bca0cd8	0.006166082
242	0x3c0c797b	0.008573885
243	0x3c9a394d	0.018826151
244	0xbc742813	-0.014902133
245	0x3b9ff34d	0.0048812986
246	0x3ba24c48	0.004952941
247	0x3d00e4e2	0.03146828
248	0xbaa3b77a	-0.0012490593
249	0x3b8cc39e	0.0042957803
250	0x3ad20b6e	0.0016025135
251	0x3d035a43	0.032068502
252	0xbc15267a	-0.009103412
253	0x3c7ec1f3	0.015549171
254	0xbb97e05b	-0.0046348996
255	0x3b9f46d9	0.0048607406

action_model._continuous_distribution.log_sigma f4 [1, 5]
0	0xbe0e6ada	-0.13907948
1	0xbdf8fd63	-0.12157705
2	0xbe43ce2e	-0.1912162
3	0xbcc0eaa3	-0.023549384
4	0xbd1e3b86	-0.038630985

action_model._continuous_distribution.mu.weight f4 [5, 256]
0	0x3c4f17b0	0.012639925
1	0xbd7d63c0	-0.061862707
2	0x3d0463fd	0.03232192
3	0xbd9e67e1	-0.07734657
4	0xbd06f5cc	-0.032949254
5	0x3d09920f	0.033586558
6	0xbcb204d5	-0.02173082
7	0x3d444de7	0.047925856
8	0xbd4b7525	-0.049672265
9	0xbbcb29eb	-0.0062000654
10	0x3c33f912	0.010984676
11	0xbb6a1919	-0.0035720526
12	0x3c2f94b5	0.010716607
13	0x3b11e774	0.00222632
14	0x3bc71754	0.006075779
15	0x3d8b5503	0.06803324
16	0x3c29ef6a	0.010372022
17	0x3c57e46c	0.013177019
18	0x3d1bbf6c	0.03802435
19	0xbc328755	-0.0108965235
20	0x3be84f88	0.007089559
21	0x3d677412	0.056507178
22	0xbc43c07d	-0.011947748
23	0xbb7892b0	-0.003792923
24	0xbc0958cd	-0.008382988
25	0x3d0308e6	0.031990908
26	0x3d8bc735	0.06825105
27	0xbccaa34a	-0.024736065
28	0xbd8973cc	-0.067115396
29	0x3cff8080	0.031189203
30	0x3c486c7d	0.012232897
31	0x3d66f178	0.056382626
32	0xbdaaf71a	-0.08347912
33	0xbd1bfb0e	-0.03808122
34	0x3be84df0	0.007089369
35	0xbc13d9ef	-0.009024127
36	0x3d775da0	0.060392022
37	0x3c977a46	0.018490922
38	0xbabe6969	-0.0014527264
39	0xbd0fc4bc	-0.03509973
40	0xbb17fac0	-0.002319023
41	0x3c68d3dc	0.014210667
42	0x3bd4cd8f	0.006494231
43	0xbd2fa096	-0.042877756
44	0x3d032097	0.032013502
45	0xbcb528ae	-0.022114124
46	0xbd3e48bf	-0.046456095
47	0x3cd51327	0.02601011
48	0x3d072a16	0.03299912
49	0xbd3e6081	-0.046478752
50	0x3ddfe2db	0.10931941
51	0xbd85e8cf	-0.06538545
52	0x3ae56e9b	0.0017504276
53	0x3c55b74a	0.013044188
54	0x3c9ab02e	0.018882837
55	0x3c42dd75	0.01189362
56	0x3c945fdb	0.018112114
57	0xbbe679ce	-0.007033563
58	0xbcde6ec7	-0.027152432
59	0xb9a04ccb	-0.00030574793
60	0xbdb397e0	-0.08769202
61	0x3d463ef9	0.0483999
62	0xbca2abd3	-0.019857323
63	0xbc58d7ee	-0.013235075
64	0x3d39f8e2	0.04540337
65	0xbd25f3b9	-0.040515635
66	0x3b89278e	0.0041856235
67	0xbd69a90f	-0.057045992
68	0xbc05ccbe	-0.00816649
69	0xbcd71b77	-0.026258213
70	0x3ce7fd03	0.028318888
71	0x3c97dd39	0.018538104
72	0x3cea8067	0.02862568
73	0xbd48f9d6	-0.049066387
74	0x3cdb4c2f	0.026769726
75	0xbc23bc41	-0.009993614
76	0xbd4f6b37	-0.050639357
77	0xbd188102	-0.037232406
78	0x3cfff309	0.031243818
79	0x3d9467b9	0.07246346
80	0xbd0ca569	-0.034337435
81	0x3c168610	0.009187236
82	0xb9a70ffa	-0.00031864626
83	0x3d1a9ccd	0.037747193
84	0xbbce69a3	-0.006299214
85	0x3bd5c13d	0.00652328
86	0xbd1ac39a	-0.037784196
87	0x3cbac6af	0.022799818
88	0x3ca49a5c	0.020093136
89	0xbd52e47f	-0.051487442
90	0x3cc2f62f	0.02379903
91	0xbcd578f0	-0.026058644
92	0xbd031623	-0.032003533
93	0x3d1dd30a	0.03853134
94	0xbc8463b7	-0.016160829
95	0xbd4a1319	-0.04933462
96	0x3cacf173	0.021111226
97	0x3ca78b23	0.020452088
98	0x3c4d2649	0.012521335
99	0xbbd94092	-0.006630012
100	0xbca37f01	-0.019958021
101	0x3d1377e6	0.036003016
102	0xbd215275	-0.039385278
103	0x3d8e8e4a	0.06960733
104	0x3cbced2e	0.023062315
105	0x3d8b770d	0.068098165
106	0x3c906c17	0.017629666
107	0xbd369722	-0.044577725
108	0xbb338f7d	-0.0027398758
109	0x3b57d149	0.003293114
110	0xbbd43152	-0.006475606
111	0x3ce319d0	0.02772227
112	0xbc4d488e	-0.012529505
113	0xbd5a3b6d	-0.05327933
114	0xbd0a371e	-0.03374397
115	0xbc8673e6	-0.016412687
116	0xbd2a6cb8	-0.04160759
117	0x3ccf1626	0.025279116
118	0x3d5c8061	0.05383337
119	0x3cdbf2e3	0.026849216
120	0x3bddb5fb	0.0067660785
121	0x3bebd4ec	0.007197013
122	0x3c9d99fc	0.019238465
123	0xbd5472e8	-0.051867396
124	0x3abe0c79	0.0014499567
125	0x3d20292a	0.039101757
126	0x3ccf7b7a	0.025327433
127	0xbc5f2338	-0.013619237
128	0x3c6af878	0.014341466
129	0x3d8d37fe	0.06895445
130	0x3cb877fc	0.02251815
131	0xbd4e3eda	-0.05035291
132	0x3d103d6e	0.035214834
133	0x3cf277ce	0.029598143
134	0x3c4267dd	0.011865583
135	0x3d113769	0.035453234
136	0xbcf0a7b9	-0.029376851
137	0xbcd7cca1	-0.026342692
138	0x3ca5f848	0.020259991
139	0x3d3c6968	0.04599896
140	0x3c970929	0.018436985
141	0x399cfbd4	0.00029942265
142	0x3dbab48f	0.0911647
143	0x3b0b61f5	0.0021268104
144	0xbd248767	-0.040168192
145	0x3c50db47	0.012747592
146	0xbd378ca6	-0.044811867
147	0x3d5b496c	0.053536817
148	0x3c677b01	0.0141284475
149	0xbdbcd51b	-0.09220334
150	0x3d820e55	0.0635039
151	0x3cb92b1b	0.022603562
152	0xbcbc99a8	-0.023022488
153	0x3ba66234	0.0050776247
154	0xbd10cc55	-0.035351116
155	0x3d209c47	0.039211538
156	0xbd0c6cb8	-0.03428337
157	0xbd355cc0	-0.044277906
158	0xbd694baa	-0.056956924
159	0xbc3d6c78	-0.0115615055
160	0xbd55d768	-0.05220738
161	0xbbb7263c	-0.0055892747
162	0x3c8fb007	0.017539991
163	0xbcac4aec	-0.02103182
164	0xbc274720	-0.010209829
165	0xbd6d3292	-0.057909556
166	0xbca6f3fb	-0.02038001
167	0x3ce30990	0.02771452
168	0xbce483dc	-0.027894907
169	0x3ceaca4b	0.028660914
170	0xbd5aa53a	-0.05338023
171	0xbc1e798c	-0.009672534
172	0xbc0bab56	-0.008524736
173	0x3d257393	0.040393423
174	0xbd890dd3	-0.0669209
175	0xbd1d5e40	-0.038419962
176	0x3d18465a	0.037176467
177	0xbd9a299e	-0.07527469
178	0x3b1be947	0.0023790167
179	0xba3fc366	-0.00073151884
180	0x3c587eec	0.013213854
181	0xbd0f0961	-0.034921054
182	0xbb69fdcc	-0.0035704253
183	0xbcc2ad50	-0.023764282
184	0x3ceadf94	0.028671063
185	0x3d667579	0.056264374
186	0xbd5bf160	-0.05369699
187	0xbd487ce5	-0.048947234
188	0x3d123f02	0.03570462
189	0x3daeb1f9	0.08530039
190	0x3be965e5	0.0071227425
191	0x3bf630a9	0.007513125
192	0x3d8b26ff	0.06794547
193	0xbc4aa715	-0.012368937
194	0x3d96e509	0.07367904
195	0xbc758c98	-0.014987133
196	0x3d6c843f	0.057743307
197	0x3bb7727c	0.0055983644
198	0x3d51d6ce	0.051230244
199	0xbd1ca2e0	-0.038241267
200	0x3c3dd19b	0.011585618
201	0x3ce66774	0.028125502
202	0x3b99fcd6	0.00469933
203	0xbcf5b650	-0.02999416
204	0x3c616338	0.013756566
205	0xbd2c330c	-0.04204087
206	0x3d0887b4	0.03333254
207	0xbd1b6fc6	-0.037948392
208	0x3aee7fd0	0.001819605
209	0xbda89f1e	-0.08233474
210	0xbc5dac91	-0.013529913
211	0x3d0c8084	0.03430225
212	0x3ca8bb96	0.02059726
213	0x3d2bd84c	0.041954324
214	0xbd14cf0f	-0.03633028
215	0xbc92f412	-0.017938647
216	0xbcf087c9	-0.029361622
217	0xbcaf8c3c	-0.021429174
218	0x3c1d661e	0.009606866
219	0x3bbbe630	0.0057342276
220	0x3ca5c157	0.020233793
221	0x3cfbeb78	0.030751929
222	0x3d8c43f2	0.06848897
223	0x3ce6c650	0.028170735
224	0x3c92548a	0.017862577
225	0xbaaa9883	-0.0013015423
226	0xbd3876ad	-0.045035053
227	0x3bf11a8d	0.0073579014
228	0xbbbfc33b	-0.0058521307
229	0xbcec25b3	-0.02882657
230	0xbd4fcf7e	-0.05073499
231	0xbd8d3011	-0.068939336
232	0x3b7b3646	0.003833191
233	0x3d229806	0.039695762
234	0x3cc7849d	0.024355227
235	0xb9687c31	-0.00022171509
236	0xbbcca15b	-0.006244821
237	0x3d8a3909	0.0674916
238	0xbd3a12f1	-0.04542822
239	0xbc1305a3	-0.008973512
240	0x3d25069b	0.040289503
241	0xbc91e39e	-0.017808732
242	0x3c9bfd85	0.019041786
243	0x3cbfe242	0.023423318
244	0x3d177bb4	0.036983207
245	0xbd71b381	-0.05900908
246	0x3d8868fe	0.06660651
247	0xbbb723c5	-0.005588981
248	0x3c9a3e8d	0.018828655
249	0x3cd7fb7c	0.026365034
250	0x3d4c2db0	0.04984826
251	0xbbc45ba1	-0.0059923683
252	0xbc45972c	-0.012059968
253	0x3ccc367a	0.02492832
254	0x3d08c250	0.033388436
255	0xbb9ca534	-0.004780436

action_model._continuous_distribution.mu.bias f4 [5]
0	0xbbc99479	-0.0061517325
1	0x3c716830	0.014734313
2	0xba9b1869	-0.0011832836
3	0x3c8b3562	0.016993228
4	0x3b9be64e	0.004757679
