ML and AI/Hummingbirds/ml-agents/results/hb_01/Hummingbird/Hummingbird-3999896.onnx (onnx, 318358 bytes, 7 tensors)

network_body._body_endoder.seq_layers.0.weight f4 [256, 46]
00000000: 8a56 a53d 1689 2c3d 8bf3 553e d8d4 78be
00000010: 3738 ac3d fa91 793d cf7d 57bd 02ca 6c3d
00000020: b941 cf3d 73cc 3f3e b9a8 8a3d 71a7 a93d
00000030: 5039 e83a ddbd 6bbd b889 71be 8e1b 4cbc
00000040: d825 003c 75b9 62bd f586 0a3e d198 79be
00000050: 9c36 81be 6995 183d c390 94bd 9e79 e9bc
00000060: 2201 093e fb18 5fbe 93da 82be f07d 2ebe
00000070: 5f43 753d 6d41 be3e 4703 cf3c c62b 903d
00000080: 72c6 69bd cfc4 4b3d 4bdf 7ebd b7bc b73d
00000090: 1ae4 23be 646b 3b3e 7f05 de3c 6191 433d
000000a0: 2d20 4bbe 904b 343e b838 bfbc cb29 363e
000000b0: cf2b 243c 5d3c 5cbe a2eb 38be 4853 8cbd
000000c0: b78d e7bc d52d f43b b1a4 823e f9e3 303e
000000d0: 8402 883e 51a0 fbbb 1cdf b03d 3ee1 1f3d
000000e0: 214e c53d 5d78 6d39 0007 07be 7134 833e
000000f0: 41a7 2fbd 84dd 73bd 8c5c 9f3d b847 7c3d
00000100: 0535 0bbd 4636 8d3e 8cc4 25be ba84 d539
00000110: 9c4d ba3d b576 89be 8841 4dbd ce43 5bbe
00000120: be11 a9be e30d 723d c5a2 063e 6f91 063e
00000130: 3fa0 8cbe dedd dd3a 9afe 33be 1338 803d
00000140: 48e1 753e 4d4f 79bd 2fba 0a3d f6b4 0abd
00000150: c4c0 5fbe 264b 9f3d 85e1 663d b3aa 3cbb
00000160: cca2 51be 59d5 903e c617 f33d c64b 953e
00000170: 8174 0b3e 58c1 13be 707a 2ebe b1b4 b23c
00000180: fc4f 05be ad51 58bd 4a92 853b c516 f2bd
00000190: 2c8b 823e 8131 d03c 3a43 823d 8262 cebb
000001a0: 3ec7 c6bb ca6d 38bd 4e1e 8abd 66bd 7fbd
000001b0: 3f2f 113e 2957 12be 85f7 10be 1c0c f63d
000001c0: 50f7 bc3d 96b1 b63d 1c4b 653e 6078 e03b
000001d0: 72ca 823d 6db7 eebb 4189 84bc e5a0 7cbd
000001e0: 8aea 2cbe a8da ad3d 2b87 edbd cebd f6bd
000001f0: fab3 093e cc26 503e 81bb a2bd b651 6b3e
00000200: eaa9 043e 12e3 e8bd 5788 4dbe c481 c03c
00000210: 64f7 04be 5966 5ebe 3aac f2be 94ac d23d
00000220: f246 bebd 35b1 ae3d d629 8ebb 47ba 14be
00000230: fe20 a8bd 40a8 443c 37b8 eebc e084 babd
00000240: bfb8 34be 1cd8 973e 867d 2b3e d2ce 79be
00000250: e99e 243d 1214 58bd 6dc9 6bbe b813 13be
00000260: 084e a43d 850a 9fbb b45e ddbb 6ab8 1d3d
00000270: 307f 86bd e0ef 8e3e 4ea3 573d 7aba 5bbd
00000280: e47f b1bd d87d 273c e5ef 873e 0baf 2fbe
00000290: 1230 233d d4b0 11bd ff83 fe3c fe7b 2b3e
000002a0: ec73 51bb 307f 5f3e 4e66 dd3d dbd7 513e
000002b0: 6581 c23e 9ef3 8a3d f65e 613c d81b 24bd
000002c0: 9e43 77be fb54 173e fdd8 7fbe 45a0 e0bd
000002d0: d031 3a3e 3f08 ecbc b498 473e d51e 15be
000002e0: 62a7 60be a24e 663d 5eaf b2be 1f5d aa3d
000002f0: 46bd 84bd a4c9 373d d59d c73c 391f 123e
00000300: a308 b83c 0165 703e 3707 ce3d df40 1dbd
00000310: 582f 89b9 edea a23d 5af0 e9bd 14fc 7bbd
00000320: fafd b6bc ee97 8dbd 9fcb 77bc 83d8 81be
00000330: 8ee0 fa3d f46e 1b3c fc2f 81be c4ff 573d
00000340: 8959 21be 8006 193e 65a5 d73b 281b 29be
00000350: 29aa a13d a9a4 11be 9854 973e 57af b83e
00000360: f2eb 5c3e 430e 54bd eefc 813d 28fb 98bd
00000370: 3880 0d3e 3572 5fbd cf9a b2bd 2f60 863d
00000380: 6067 203c 132d 0ebd 6b78 e73d 645b bdbd
00000390: 1df2 823e 314e f53d b2d6 033e 0c92 443d
000003a0: 33ef b8bd 9a02 743e de25 743e e4d7 383c
000003b0: 7ec2 6ebd eaba 873d 26ab 20be 0484 72b9
000003c0: 0a2d e7bd 6f7e 96be ceb2 2d3e e070 003e
000003d0: 773d 9f3e ced7 593e a602 6bbe ffc2 353d
000003e0: 5338 fb3c 13d6 2fbe c85b 5d3e db04 b53d
000003f0: 14d8 3b3d 88b5 243e 6f5a 373e db6d 473d
0.08073147 0.042122923 0.20893686 -0.24299943 0.0840916 0.06093023 -0.052610215 0.057809837
0.101199575 0.18730335 0.067704625 0.0828389 0.0017717276 -0.057554115 -0.23587692 -0.012457741
0.007821523 -0.055352647 0.13528045 -0.24374701 -0.25236976 0.037251864 -0.072541736 -0.028500374
0.13379338 -0.21786873 -0.25557384 -0.17040229 0.059878703 0.3715929 0.025270117 0.07039599
-0.057074018 0.04974824 -0.062224668 0.089715414 -0.16004983 0.18302685 0.02710223 0.047746066
-0.19836493 0.1760695 -0.023342475 0.1778938 0.01002021 -0.21507402 -0.18058637 -0.06851822
-0.028265817 0.0074517527 0.25516275 0.17274465 0.2656442 -0.0076790233 0.08636305 0.039033167
0.096340425 0.0002264692 -0.13186264 0.25625947 -0.042884115 -0.059537426 0.07781324 0.061591834
-0.03398611 0.2758047 -0.16188258 0.00040725415 0.09096834 -0.2684838 -0.050111324 -0.21412584
-0.3302135 0.059095275 0.13148029 0.13141416 -0.27466008 0.0016927083 -0.17577592 0.06260695
0.24011719 -0.060866643 0.033868965 -0.033863984 -0.21850878 0.07778005 0.056367416 -0.0028788268
-0.20472258 0.2828777 0.11869769 0.29159373 0.13618661 -0.14429224 -0.17038894 0.021814676
-0.13018793 -0.052812267 0.004076277 -0.11820749 0.25496805 0.02541423 0.06360479 -0.006298364
-0.006066232 -0.045026578 -0.067440614 -0.062436484 0.14178179 -0.14291061 -0.14156921 0.120140284
0.092268586 0.089205906 0.22391933 0.0068502873 0.0638627 -0.0072850497 -0.016178729 -0.06167688
-0.16886345 0.08488971 -0.11598047 -0.12047921 0.13447562 0.203273 -0.0794592 0.22980389
0.12955442 -0.11371435 -0.20071541 0.023499377 -0.12984997 -0.2171873 -0.47397023 0.10286823
-0.092908755 0.08529893 -0.0043384833 -0.14524184 -0.08209418 0.012003005 -0.029140575 -0.09107375
-0.176486 0.29657066 0.16747102 -0.24395302 0.04019061 -0.052753516 -0.23026057 -0.14362991
0.08022696 -0.004853549 -0.0067556743 0.03850595 -0.06567228 0.27917385 0.052645974 -0.053644635
-0.08666971 0.010222875 0.26550213 -0.17156617 0.039840765 -0.035569027 0.0310688 0.16746518
-0.0031959964 0.21825862 0.10810529 0.20492499 0.37989345 0.067847475 0.013755551 -0.040065616
-0.24146888 0.14778511 -0.24985118 -0.10968069 0.18183064 -0.028812526 0.19491845 -0.14562543
-0.21938851 0.056227334 -0.3489942 0.08318543 -0.064814135 0.044870034 0.024367252 0.14269723
0.022465056 0.2347603 0.1005997 -0.038391944 -0.0002616595 0.07954965 -0.114227965 -0.061519697
-0.022337902 -0.06913744 -0.015124231 -0.25360498 0.12249862 0.0094869025 -0.25231922 0.05273415
-0.15756811 0.14943886 0.006580996 -0.16514266 0.078937836 -0.14222969 0.29556727 0.36071274
0.21574381 -0.051771414 0.06347071 -0.07469779 0.13818443 -0.054552276 -0.08720934 0.06561314
0.0097902715 -0.034710955 0.11302265 -0.09245947 0.25575343 0.119778045 0.12874869 0.047990844
-0.09029999 0.23829117 0.2384257 0.011281941 -0.05829095 0.06627448 -0.15690288 -0.00023128098
-0.112878874 -0.29393336 0.1696274 0.12543058 0.3110158 0.21273729 -0.22950229 0.044375416
0.030666506 -0.17171507 0.21617043 0.08838817 0.045860365 0.16084874 0.17905591 0.04868875

network_body._body_endoder.seq_layers.0.bias f4 [256]
00000000: c777 6a3b f865 18bc 4f8a bb3b b61e 87ba
00000010: fb91 c13c cbeb 653b c534 a93d b335 cab9
00000020: 3054 ed3c 44ed 823b c673 4a3d ff6d 5a3c
00000030: 3726 f2bb a889 cf3b bbaa 843d 622e e13c
00000040: aeb8 5f3c 6374 4f3d 06d3 143d edf8 ae3c
00000050: 593b 723c b310 7b3c d90f d43c 1d05 ab3c
00000060: 859f a1bc cdc5 3e3c 2971 833c 75ca 9cbc
00000070: 6eb0 91bc c99d 9d3b 720c 543c 2358 f3bb
00000080: 150d 833c 1c83 87bc 3bbf 27bb 7e7d 34bc
00000090: 39a0 54bb 50a4 afbb e76b 363c a3b2 89bc
000000a0: 560c 3dbc a6c3 103b 31e6 38bb 4748 f93c
000000b0: 5d1b 813c 92ee 1c3c 8fcf f1bb 889d a53c
000000c0: 6612 c63b 31f0 5b3c 7870 943c 8e0c 90bc
000000d0: 1211 e03c 97a5 c4bb a732 713c e5ca 633c
000000e0: e499 923a bc65 0b3d 13c1 163d b0cd c83c
000000f0: e6b7 353d c423 f23c 2e07 0c3b 402d f93b
00000100: f29a 21bb 9713 e83c bd5f 3b3d 93e4 823c
00000110: 76ee 433d 5038 8e3c 53be 023d a63e 9f3c
00000120: 5517 f83c da45 ed3c 9a67 d03c 3e8b b33c
00000130: 8942 863d f14d 8a3c 2c41 31bb 75f9 053d
00000140: e43e 913b 6b80 273b ad53 143c 0e63 c73c
00000150: ac68 513c f662 023d 41c7 273d bcb6 b83b
00000160: b1b8 f43b 5574 f73c 8a26 8a3d 790a 8d3d
00000170: 0e34 5f3d 43c0 7d3c 985f 283d 489f 18bc
00000180: 82c0 993c 6f56 703b 4bae 8bbb 012a e5bc
00000190: e2bc 53ba 990e a53c 996e 793b d5f4 c63a
000001a0: f383 b33c 9101 5e3c 63bf 603c 29e9 443d
000001b0: 8210 383b 36b1 a6bb 740d 6a3c 371f de3c
000001c0: 9b64 343c a3dd dabb 9db4 473c 203a 023d
000001d0: e4fa 24bc e526 a13a 9588 643c c03e 483d
000001e0: 8c9e 7dbc f4cf 2d39 9ccc 733c fb80 d83b
000001f0: 6680 89bc 8ad2 e73b 6a2a 6c3c 8af1 983b
00000200: 1af4 e53c 797e a83c e0b4 163d 2806 b03a
00000210: fbeb 3e3c 7ee0 e93b 0d57 8a3c b520 1fbc
00000220: dc5c a93c 76d8 363c acb7 ff3c 0b0d 40bd
00000230: 5891 223c 4eba 9f3b c9fe 843c b376 263d
00000240: d595 bd3b 1237 8fbb 500a dd3b 67f8 223c
00000250: d27b c93c 95e4 e73b b457 ae3c 96d3 d33c
00000260: 5a6b 00bc 5776 9e3c e448 5c3d faf0 d43b
00000270: 2eab 583d cb0f 1d3c f7c3 a33c 4515 dcbb
00000280: 431b fcbb 23af 1c3c 0a30 a33b f0f5 e4bb
00000290: a787 5c3c 88f2 0d3d eb67 023d ef8d 593c
000002a0: f6ec 253c 6875 6a3c 8c06 d13c 1f06 5a3c
000002b0: 6f7f debb b2ae 1cba 1c97 c9bb a775 ffbb
000002c0: 3b0e 803c 4452 203c 6546 9c3c d1a0 1b3c
000002d0: 36fe 233d 127b 313c e96b 5b3c 4524 30bb
000002e0: 0f88 863b dde1 503c 3ac3 a83c 7728 2c3d
000002f0: d4ab b03c 5ff8 3b3d 9598 443d ad36 863c
00000300: 0be6 f33b a49f fc3c 51e3 bd3c 2d2e bcbc
00000310: 0621 bd3c f221 683c d398 823d 7e28 9f3b
00000320: f8a7 68bc 433a 103d 5eb2 763c ced1 1d3c
00000330: 67a2 163c a163 893c 3ca9 6c3c 8397 0b3d
00000340: 97db d6bb a1b3 3b3c 541f a33c 243c 1a3d
00000350: a567 85bb 4571 e63b ad0d 143d 7b44 903c
00000360: 95bd 3ebc 31ef 92bb bd73 533d b881 693c
00000370: c330 493d b1b5 01bc b086 aaba 2919 c23c
00000380: 53d9 d93c 85d0 3a3c efc1 853d 3e41 03bc
00000390: f1b7 3e3c d9ff 7c3a 1ec8 80bc b59a ae39
000003a0: 98e6 043d f725 6e3c d4e5 803d 76a4 b43c
000003b0: 5c01 393c e363 fd3c 1c8a 7b3c f5c0 27bc
000003c0: a83f 8f3c b665 013d 345d 3fbb d414 733c
000003d0: 4ed6 b6bc 333a 853c e5cd b43c 6ed1 b23c
000003e0: a06c 50bd 3588 d33c 5382 35bb 3bb3 633c
000003f0: 7aef 513c 661f 833b 7029 cc3b 0b1d 38bc
0.003577696 -0.009301655 0.005723275 -0.0010308835 0.02362918 0.003508317 0.08262018 -0.0003856845
0.028970808 0.0039955694 0.049426816 0.013331889 -0.0073898095 0.0063335486 0.06477877 0.027487937
0.013654871 0.050648104 0.03633406 0.021358931 0.014784657 0.015323806 0.025886463 0.020876462
-0.019729385 0.011643839 0.01604517 -0.019139508 -0.017784324 0.004810069 0.01294242 -0.007426278
0.015997449 -0.01654201 -0.002559616 -0.011016248 -0.0032444133 -0.0053601637 0.011134124 -0.016808813
-0.011538586 0.0022089272 -0.0028213377 0.030429972 0.015760118 0.009578364 -0.0073794792 0.020216718
0.0060446737 0.013423965 0.018120036 -0.017584112 0.02735189 -0.006001185 0.014721549 0.013903354
0.0011184779 0.03403257 0.036805224 0.024512142 0.044364832 0.02955807 0.0021366584 0.007604271
-0.0024659005 0.028329654 0.0457456 0.015978133 0.047834836 0.017360836 0.03191979 0.019439053
0.030284563 0.028963972 0.025440026 0.021916982 0.06555659 0.016882868 -0.0027046902 0.032708604
0.004432546 0.002555872 0.009053153 0.024339225 0.012781303 0.031832658 0.040961508 0.005637018
0.007468306 0.030206839 0.06745632 0.06886763 0.054493003 0.015487733 0.04110679 -0.009315319
0.018768553 0.0036672612 -0.0042627207 -0.02797413 -0.0008077157 0.020148562 0.0038060306 0.0015179167
0.021913504 0.013550178 0.013717505 0.04807392 0.0028086011 -0.005087043 0.014285434 0.027114494
0.011010314 -0.006679253 0.012189058 0.031793714 -0.010069583 0.0012294917 0.013948579 0.048887968
-0.015479695 0.00016576034 0.014880326 0.0066071725 -0.016784858 0.0070746588 0.014414409 0.0046674656
0.028070498 0.02056812 0.03679359 0.0013429569 0.011652942 0.0071373573 0.016887212 -0.009712388
0.020674162 0.011160007 0.031215511 -0.04688744 0.009922348 0.004874504 0.016234772 0.040640544
0.0057856836 -0.0043705786 0.006745614 0.009946919 0.024595175 0.0070768096 0.021282054 0.025857728
-0.007838095 0.019343538 0.05378045 0.006498453 0.052897625 0.009586285 0.019990904 -0.0067164027
-0.0076936795 0.00956324 0.004980092 -0.006987326 0.013460076 0.034655124 0.031837385 0.0132784685
0.010127297 0.014310218 0.025515817 0.013307123 -0.0067900936 -0.00059769594 -0.006152047 -0.0077960077
0.015631786 0.009785239 0.019076535 0.009498791 0.040037356 0.010832565 0.013392427 -0.0026877087
0.004105575 0.0127491625 0.020600904 0.042030778 0.021566309 0.045891162 0.047997076 0.016383493
0.0074431947 0.030837841 0.023179682 -0.022971237 0.023087036 0.014168249 0.06376805 0.004857122
-0.014200203 0.035211813 0.0150571745 0.009632541 0.009193993 0.01677114 0.0144446455 0.03408004
-0.006556939 0.011456401 0.0199124 0.03765501 -0.0040711933 0.0070325457 0.036145855 0.017610779
-0.01164188 -0.0044840802 0.05162405 0.014252119 0.04911877 -0.007916854 -0.0013010111 0.023693638
0.026592886 0.011402254 0.065311305 -0.00801116 0.011640535 0.00096511614 -0.015720423 0.00033303132
0.032446474 0.014535419 0.06293836 0.022051077 0.011291828 0.030931419 0.015352752 -0.010238876
0.017486408 0.03159114 -0.002919984 0.014836509 -0.022318985 0.016263103 0.022070834 0.02182838
-0.050884843 0.025821785 -0.0027696087 0.013897712 0.012813443 0.0040015457 0.0062305257 -0.011237393

network_body._body_endoder.seq_layers.2.weight f4 [256, 256]
00000000: 70f2 4abd a3e8 d6bd 5bdb 50bd da66 813d
00000010: 6cf0 213d d695 963d f876 24bd 25d9 483d
00000020: fc1d 793d 31da 50bd c941 1dbd dbed c8bd
00000030: 1321 25bd b3a0 f83d 06b5 4e3e ecaa cebd
00000040: 8073 a13d 1bf6 063e b7b3 823d cce9 3a3d
00000050: 6ddc 1c3d 7f7d d8bb d247 c9bd 37e7 103d
00000060: 9421 a8bb bb72 fdbb 8a64 ae3d 0fb5 bbbd
00000070: df78 b8bd c374 11bd d320 993d 892c a13d
00000080: 82c1 633d b8e9 eabc 28dc c0bb 5343 623c
00000090: 5363 77bd 9392 25bd 6633 c8bd 64e1 6c3d
000000a0: a145 bd3c 37f0 b33d 121e 433c c6f7 03bd
000000b0: bb65 cebd 4fc3 82bd e299 94bd 2344 663c
000000c0: 49f4 89bd ad45 923c 3034 8d3d 8ab7 c6bd
000000d0: b603 973d b804 ca3d 4961 153d e693 82bd
000000e0: 0def 983c a234 3b3b 7a74 253b 38b9 953d
000000f0: 0db5 8e3c 73d9 09bd 603a b6bc ea92 853d
00000100: c7d7 f73a b068 263c a9f7 dabd 62cf eebd
00000110: aee6 c53d 3976 4c3c ad1d a0bc 2efe 18bd
00000120: efcd a93c 88a5 3d3d 2fb0 2dbb 518a b2bb
00000130: c478 5f3d 29fe f13c 9630 9c3d 8092 42bb
00000140: 3f45 723d 36d3 e9bc 2c01 9e3d f245 5dbd
00000150: 16c0 003d 7dc0 d0bc d4c2 063e fe99 40bc
00000160: ac85 fa3d 4150 5c3d 76d3 1e3d 6bd2 223e
00000170: e20b 90bd 0ac6 013a b0f2 1c3e a990 e03d
00000180: 16d0 603b ec2f 8b3d af11 123d 99a3 083d
00000190: b17e 5abd ea0c ea3d 4da7 aa3d d4df 8bbd
000001a0: de4e 16ba 1d06 0abe b8bf 10be 0b46 3c3e
000001b0: 09f4 603d 7226 afbd edde 8c3d 42cd cc3c
000001c0: 0663 5ebd ae30 54bd a33a 8fbd 4017 bd3d
000001d0: ea60 db3d c7ac 66bd 3165 723d 0654 80bb
000001e0: 6744 e9bd 9a95 253d 1b0f ad3d a22e d73d
000001f0: 26ea c73b 62aa 543d db6c 11bd 9a58 f33c
00000200: 0ec4 a1bd 9efb 8bbc bae7 823d 941b 0d3c
00000210: 258e 9a3d 8428 83bd ad1c 9dbd 9cf6 f1bc
00000220: b7e8 b5bc 47db 7dbd 80bf 623d 9d75 99bd
00000230: 8a3b 493e 487e b03c df0a f9bc 6841 303c
00000240: 5310 04bd a2f1 f13d 66bf 23bb c9f2 67bd
00000250: e6f8 8abc 9a83 b83c ee25 60bd 71d3 89bd
00000260: edd1 0fbc 4733 46bd a2a5 e43d 0a74 00bd
00000270: a210 74bd 9e2e 013c f9e7 023e d41e 68bd
00000280: cb04 48bd 4c72 b2bc 91a7 853b e04a e9bb
00000290: 2bde 0bbe 9793 89bd 3f44 043d 7874 013d
000002a0: d706 b0bd 72b1 a0bd af4e 9d3d 4dcb 92bd
000002b0: 979c e4bc 03be 01bd 1b18 c33c bea6 18bc
000002c0: c49b 29be 412d 1ebd adad 96bd 9c0c 553d
000002d0: 8d53 64bd a608 a23d 86c5 8fbc ef90 243d
000002e0: 32ce 56bc b7f5 0fbd dfb5 85bc 6651 0c3d
000002f0: d101 e43d 05ef 42bd ea9a b13d 2e9c f73d
00000300: 4a8e 063d 9263 83bc c646 b5bc e9f9 d03d
00000310: a8ae 583d 895c b33d 426f 053d 1ff6 343c
00000320: 44b1 f13b 64b2 fe3d 2de4 3a3b 81ef 313d
00000330: a502 ca3b 47d1 553d 0e15 a8bc 33fa 893d
00000340: 79eb 85bc 4087 b63d de94 083e 341b d03b
00000350: 07eb 35bd eb00 21bd cc6e 4c3d db8f 83bd
00000360: 4694 983d 742e e2bb d257 cdbd e04f 3cbc
00000370: c698 cc3c 781c 9739 5b8f 26ba b976 b0bc
00000380: 30fa 4b3d c57d 54bd dc8d 9cbc d8dc 123e
00000390: b0d3 a63d 749d 49bd b3b1 67bd 04f6 5f3d
000003a0: c506 c5bd 002a e03c aa2f eb3c df09 d4bc
000003b0: 8a2b 6c3d b736 acbd c569 0dbd 231d 21bd
000003c0: 628b 37bd 778f 9e3c e559 473e aadd a0bd
000003d0: bf68 04be 1a53 883d 2d5a d6bd ac10 1b3e
000003e0: 4330 debd 3420 b93b 47a2 863d 9cec b3bd
000003f0: 7221 e43d 9763 293d e3da 68bd b124 f63b
-0.049547613 -0.10493591 -0.050990444 0.063184455 0.039535925 0.07352798 -0.04015252 0.04903521
0.06081961 -0.050989334 -0.038392816 -0.09810992 -0.040314745 0.12140026 0.20186242 -0.100911945
0.07883358 0.1317982 0.06381934 0.045633122 0.038296152 -0.006606757 -0.09828152 0.035376754
-0.005130956 -0.007734624 0.0851527 -0.091653936 -0.09007429 -0.035511743 0.07476964 0.078698225
0.055604465 -0.028675899 -0.0058856197 0.013809997 -0.060397457 -0.040422987 -0.097754285 0.057832137
0.02310449 0.08786052 0.011909025 -0.032218717 -0.10077997 -0.063849084 -0.07255913 0.014054331
-0.06736047 0.01785549 0.068947196 -0.09702976 0.07373755 0.09864181 0.03646973 -0.06375866
0.018668676 0.0028565307 0.0025246427 0.07310718 0.017420316 -0.03365464 -0.022244632 0.06522162
0.0018908911 0.010156795 -0.10691769 -0.11660649 0.09663139 0.012479358 -0.0195454 -0.03735178
0.02072808 0.04630044 -0.0026502719 -0.0054486175 0.05455853 0.029540138 0.076264545 -0.0029689372
0.05914807 -0.028543096 0.07715067 -0.054021783 0.031433187 -0.02548241 0.13160259 -0.011755465
0.12232527 0.053787474 0.038775884 0.1590058 -0.070335165 0.00049504696 0.15326953 0.10965092
0.0034303716 0.0679625 0.035661396 0.033359144 -0.05334348 0.114282444 0.08332691 -0.06829801
-0.0005733798 -0.13478895 -0.14135635 0.18386094 0.05492023 -0.08552255 0.06878457 0.025000218
-0.054293655 -0.051804237 -0.06993606 0.0923295 0.10711844 -0.056317117 0.059178535 -0.0039162664
-0.1139 0.040425874 0.08450147 0.105069414 0.0061009107 0.051920302 -0.035504203 0.029705334
-0.078987226 -0.017087754 0.063918546 0.008612532 0.07546643 -0.06404212 -0.07671485 -0.029536538
-0.022205694 -0.061976697 0.05535841 -0.07493136 0.19651619 0.02154459 -0.030400692 0.010757782
-0.03224213 0.11813666 -0.0024985909 -0.056628022 -0.016964387 0.02252369 -0.054723673 -0.067297824
-0.008778078 -0.048388746 0.111644045 -0.031360663 -0.059586175 0.00788465 0.12783803 -0.056670025
-0.048832696 -0.021783017 0.0040788134 -0.0071195215 -0.13658969 -0.06717604 0.032291647 0.031605214
-0.085950546 -0.07846345 0.07681023 -0.07167683 -0.0279067 -0.03167535 0.023815205 -0.009317098
-0.16563326 -0.038617376 -0.07357345 0.05201398 -0.055743743 0.07911806 -0.017550241 0.040177282
-0.013110684 -0.03514644 -0.016322074 0.034257315 0.11133159 -0.047591228 0.08672126 0.12090336
0.03285054 -0.01603869 -0.022128474 0.102039166 0.05290094 0.08757884 0.032576807 0.011045008
0.007375868 0.12436369 0.002851735 0.0434413 0.006164866 0.052201536 -0.020517852 0.06737175
-0.016347634 0.08912516 0.13338038 0.006350899 -0.044413593 -0.039307516 0.04991035 -0.06423923
0.07450156 -0.0069025103 -0.10026516 -0.011493653 0.024975192 0.00028822175 -0.0006353759 -0.021540986
0.049799144 -0.051877756 -0.019110613 0.14342058 0.08145845 -0.049222425 -0.05656595 0.05467798
-0.09620432 0.027363777 0.028709251 -0.025883613 0.05765871 -0.084088735 -0.034524698 -0.039334428
-0.04481066 0.019355519 0.19467886 -0.07854779 -0.12930582 0.06656475 -0.104664184 0.15143079
-0.10849049 0.005649591 0.06573921 -0.08785364 0.11139192 0.041354742 -0.05684937 0.007511698

network_body._body_endoder.seq_layers.2.bias f4 [256]
00000000: ea8c b73c af09 d53c 47f6 c43b 09ca 91ba
00000010: c1e2 953c 7ce6 e83b b051 9e3b 620d c33b
00000020: 3707 0b3d 6d42 423c b1a1 003d 1100 bf3b
00000030: 57b2 0a3d 2b26 383c be96 4b3b d575 803c
00000040: 786c 2ebc b3c0 b43c ab30 833c 433b 803c
00000050: fb8f f93c 52fa c9bb a3b5 4e3c d830 163c
00000060: a04e a9bb ab9b 7a3a f084 f43b ae1d d43c
00000070: 277e e03c 2f8d eaba a66e 27bc fcd7 c03b
00000080: 8310 523c 6035 413c 99f4 363c 2c9c c7bb
00000090: 5bf3 a8bb 2b11 99bb 802b 8e3c f5b9 533c
000000a0: 395e 3f3c b966 fabb eceb 893c 4243 4e3c
000000b0: d611 b5bb 8196 343c fbaf 8f3c 23c4 18bb
000000c0: 8b1f 093d c241 5b3c 3078 223a d026 283c
000000d0: ee75 293c 5096 00bc 6118 433c cf38 d4bb
000000e0: 98d2 303c 9d8f 30bc 8d53 f63c 0a9b 243b
000000f0: 2f30 753c e925 8e3c 71ec 323c a825 9a3b
00000100: b609 423a 1968 6abb f825 853b e50f 9cbb
00000110: 0ab6 c13c 2952 053c b4fb 86bb f122 783c
00000120: 559b 803c b050 853b fb86 753b 7a12 993c
00000130: 2133 1e3c 8f07 0d3c 21bd c93c 4699 8b3b
00000140: d032 5f3c 0cc5 013d cad3 cc3b ac11 eeba
00000150: 9ed7 f53c adb9 783c 89c9 4a3c 8fe9 b4ba
00000160: 03f7 813c 3b6e 123b c716 773c afab 143d
00000170: 4b86 86bb 041a 38bc 6e0b 3bbb 0afa a23c
00000180: 4e61 713b 8a41 23bc 3958 b43c 5ab6 a23c
00000190: 137a 943c decb 813b 65d0 d73b 9362 873b
000001a0: 343f da3a a33b 343b 3004 9b3c b69e b23b
000001b0: d120 df3c 9c64 8b3c 3208 eb3c e2e0 88bb
000001c0: 9d28 44bc 9280 c9b9 81d4 893c 089f b23c
000001d0: ae32 5eb9 128a 813c ac20 033c 5b81 523c
000001e0: 640b d23b 2519 6c3c f803 873c 9ff5 0a3c
000001f0: a9c8 b3ba 596d ef3a 256e 96bb 59e4 c63c
00000200: f260 ea3a cc62 243c 079d da3a 6630 8e3c
00000210: b97a a03c d802 3fbc 2dd2 163b 06dc 023d
00000220: 9c37 a33c 7b66 f73c 6b50 e53a 587c 783c
00000230: 6434 aaba b900 cc3c 6f6a 473c 7eaa 8d3c
00000240: 36d7 47bb bebc ca3b e456 f73c 999e 113c
00000250: 93cc a8bb 75b8 683b c687 8c3c 2bf9 5f3a
00000260: 25a5 b53c 86fa 1c3c f81b 833b 00eb 8b3c
00000270: ea71 7c3c 3d58 973c 4d33 ad3c 6117 da3c
00000280: 524a 843c dc03 153d aefb 773c 0dd6 5c3c
00000290: a0e3 a43c 9693 a33a 8b4d 053d fdb9 eabb
000002a0: b178 d1bb 4583 2c3c 03c4 b33c f644 76ba
000002b0: 8b20 d13b 380b 92bb a549 14ba e725 c03c
000002c0: 88d5 a93c c339 73ba b125 103d 8154 2f3c
000002d0: f125 11bc 625d 9b3c 4a65 c53c f814 99bb
000002e0: 928d 403d 7fc9 9fbc 5a95 b23b d42b 263c
000002f0: f44f 64bc e0cd c9ba 23e7 123c a79f 23bb
00000300: 8d74 e53a eacc ce3c 8bc6 033c 835e f33b
00000310: a06a 4239 885b 2a3b c675 363c e606 b93c
00000320: 5ee5 c4bb 3079 15bc 43a9 a03a 0223 023c
00000330: 8d68 ea3a ea14 3dbb 3511 943c 9045 853c
00000340: f7af 08bc 29e1 3b3c 7e64 843c c412 29bc
00000350: 94c1 0a3c 77c7 32bb 678b 433c a9df 373a
00000360: 6dd6 793c 8aa1 eabb 72da dc3c 318b b23c
00000370: 91df cd3c 877d 25bc 2026 133b 8399 53bb
00000380: 39f7 a83c 3ff8 2b3b 096e 3b3b c2c2 1d3c
00000390: ccdc a33c 0be2 a43b 0f04 ae3c fe6a f33b
000003a0: 71bd 93bc d848 03bc 23d4 92bc 8a44 e23c
000003b0: e4a3 fe3c 95a7 39bc 075b c73c 324b 673c
000003c0: 991f 05bc feb7 a73b e9cc 1b3c 8f0e 9c3c
000003d0: 9dfa 67bc 432d a13b d46b a73b 74c3 023d
000003e0: 0ca5 05bb e323 b03b 9247 f73a efb4 053d
000003f0: 57a8 1dbc ced6 833c 734c 8ebb af3d 733b
0.02240606 0.026005594 0.006010804 -0.0011122833 0.018296601 0.007107554 0.0048315153 0.005952523
0.033942427 0.011856657 0.0314042 0.0058288653 0.033861484 0.011239569 0.003106519 0.015681187
-0.010645978 0.022064542 0.016014418 0.015653258 0.030464163 -0.0061638737 0.012616548 0.009166919
-0.0051668435 0.00095599395 0.0074621364 0.025893059 0.027403904 -0.0017894859 -0.010219252 0.0058851223
0.0128213195 0.011792511 0.011166715 -0.006091615 -0.0051559634 -0.004671236 0.017354727 0.012922754
0.011680179 -0.00764164 0.01683613 0.012589278 -0.005525808 0.011022211 0.017539969 -0.0023310266
0.033477347 0.013382377 0.0006197719 0.01026316 0.010343058 -0.007848337 0.011907668 -0.0064764987
0.010792397 -0.010776428 0.030069137 0.0025116825 0.014965101 0.017352061 0.01092063 0.004704196
0.000740196 -0.0035767613 0.004063364 -0.004762637 0.023646373 0.008137264 -0.004119361 0.015145049
0.015699068 0.0040684566 0.0037464488 0.018685568 0.009655745 0.008607759 0.024626317 0.004260215
0.0136229545 0.03168206 0.006250833 -0.0018163226 0.03001004 0.015180987 0.012377151 -0.0013802516
0.015864855 0.0022343535 0.015081114 0.036296543 -0.0041053644 -0.011236671 -0.0028540748 0.019894619
0.003683168 -0.009964356 0.022014724 0.019862343 0.018124616 0.0039610704 0.006586122 0.004131624
0.0016650916 0.0027501367 0.018922895 0.0054510487 0.027237328 0.017015748 0.028690431 -0.0041771987
-0.011972574 -0.000384335 0.016824963 0.021804348 -0.0002119045 0.015812907 0.008003395 0.012848224
0.0064100493 0.014410292 0.016481385 0.008481412 -0.0013716418 0.0018266841 -0.004590767 0.024278807
0.0017881675 0.010033321 0.0016678878 0.017357063 0.019589769 -0.011658393 0.0023013458 0.031948112
0.019923978 0.030200234 0.001749528 0.015166365 -0.0012985584 0.024902688 0.012171372 0.017293211
-0.0030493266 0.0061870506 0.0301928 0.00888791 -0.0051513403 0.0035510336 0.017154586 0.0008543904
0.022173474 0.009581214 0.004001137 0.01707983 0.015408019 0.018474692 0.021142626 0.026622476
0.01614872 0.036380634 0.015135689 0.013478768 0.020128071 0.0012479897 0.032544654 -0.007163285
-0.0063925614 0.010529344 0.021944052 -0.0009394431 0.0063820533 -0.004456904 -0.0005656726 0.023455573
0.020731702 -0.00092783215 0.035192195 0.0107013 -0.008859144 0.018965427 0.02409615 -0.004671689
0.047010012 -0.01950526 0.005449933 0.010142285 -0.013935078 -0.0015396439 0.00896624 -0.0024966986
0.0017506048 0.025244195 0.008042942 0.007427038 0.00018541003 0.0025994498 0.011136478 0.022586297
-0.006008788 -0.009123132 0.0012257475 0.007942917 0.0017883942 -0.0028851577 0.018074611 0.016268522
-0.008342735 0.011467257 0.0161612 -0.0103194155 0.008469004 -0.0027279535 0.011935092 0.0007014224
0.015248877 -0.0071603702 0.026959632 0.021794887 0.025131019 -0.010100729 0.0022453144 -0.0032287545
0.020625697 0.0026240495 0.0028599522 0.009628953 0.020002745 0.0050318292 0.02124217 0.007428526
-0.018034669 -0.008012973 -0.01792342 0.027620573 0.031084009 -0.011331459 0.024335397 0.014117049
-0.008125209 0.005118369 0.009509304 0.01904991 -0.014158872 0.0049187257 0.0051092897 0.03192468
-0.0020392565 0.005375372 0.0018865934 0.032643255 -0.009622655 0.016093638 -0.0043426096 0.0037115624

action_model._continuous_distribution.log_sigma f4 [1, 5]
00000000: 1fe4 17be 8063 03be a671 4cbe 1ed8 e2bc
00000010: b9a6 29bd
-0.14833115 -0.12830925 -0.19965228 -0.027690943 -0.041418765

action_model._continuous_distribution.mu.weight f4 [5, 256]
00000000: 1450 4c3c 6b2d 77bd 5c1c 063d 5ab8 9bbd
00000010: c004 01bd 8e7e 113d a2a8 afbc 7a13 4d3d
00000020: 7fcc 44bd 0c9e cabb 5d14 583c 313c 56bb
00000030: e325 283c 79d2 5f3b 43fc 8e3b 0280 8a3d
00000040: 9fef f73b 405d 7a3c 47bf 203d 5d5b cebb
00000050: 3ed1 d83b 28b2 6c3d 4eab 43bc 20f9 c4bb
00000060: bd5d fbbb 2dd2 0b3d dfcb 8b3d 051a d3bc
00000070: 62cb 85bd 0d4a 083d eb31 543c 553f 653d
00000080: 2e0e a9bd bf55 1bbd 86f9 e93b eeb7 20bc
00000090: d327 793d 2e8f 873c 06fd bdba c6d5 0bbd
000000a0: b44d bfbb 2c09 6c3c d9c1 fe3b 0025 32bd
000000b0: 0d05 053d 8559 acbc ecb3 3dbd 6a58 d63c
000000c0: 3a05 023d 6d26 3abd 5fde df3d 71f9 82bd
000000d0: 0795 ac3b daa0 6b3c 6e3c 9d3c d43a 513c
000000e0: dea8 9c3c 75aa cabb 0459 d6bc 049d 033a
000000f0: 3b01 b3bd 8830 443d 5bdc 96bc 6b68 58bc
00000100: b5fd 403d f2c9 23bd ef09 973b 8457 64bd
00000110: f7d8 f3bb 4eaa d2bc f628 f13c 107c 953c
00000120: aacd f93c 8492 46bd e672 de3c 816d 1abc
00000130: 1199 4fbd 4ef0 11bd e9e9 fa3c 6596 933d
00000140: 1b14 0fbd 4d42 173c deaa 7f39 ed44 1e3d
00000150: 75dd e0bb adb3 db3b 6c3a 17bd d38a bf3c
00000160: 9f68 b33c 7f85 51bd 1752 ca3c 56aa d5bc
00000170: 2135 01bd bc10 223d f921 83bc c8f0 4abd
00000180: 4869 ae3c 04f8 b03c 5a75 813c 52a7 d3bb
00000190: ccca aabc e00e 0c3d d1c3 1ebd 675b 8f3d
000001a0: 4cdd bc3c e65f 8b3d 103b 773c 6ab1 34bd
000001b0: e3e8 3fbb 921d 7f3b ec1e aebb 6b3a f63c
000001c0: dfa1 3ebc 0162 5abd 18a1 08bd 3f4a 86bc
000001d0: 23a7 23bd c75b d53c 3288 583d 3bfb ce3c
000001e0: 01df f03b 11f1 0d3c 2de5 a33c 6ecd 4fbd
000001f0: 9d04 0b3b 8c06 1d3d 5eab d63c 09f8 64bc
00000200: 6fa2 8b3c cce5 8d3d 8486 be3c cc60 4fbd
00000210: eeda 133d 7b26 033d 1bc6 613c 8552 173d
00000220: b518 debc f41f eebc 3357 b33c b7cc 3d3d
00000230: 14e3 9b3c 7d50 5539 ca7c bb3d 02a2 893b
00000240: 6406 23bd 7502 553c a3fd 32bd 1f50 603d
00000250: 875a 753c f76c bbbd 0d85 813d 79e2 b23c
00000260: e3c9 adbc 9a18 7e3b 957c 0cbd 7514 263d
00000270: 7fbe 0fbd 9d15 35bd 8b1f 65bd 7675 2ebc
00000280: 1733 4ebd 018b bcbb f902 a13c e765 8fbc
00000290: d147 1cbc 2c5e 6cbd dc00 97bc 3815 e93c
000002a0: d42e e4bc 9689 f53c 6a2b 5abd a9a2 24bc
000002b0: 5b25 c4bb f92a 293d 8655 88bd 18a0 1bbd
000002c0: 391e 153d 6c85 99bd bf98 0a3b c7a6 e7ba
000002d0: f485 663c 6fb5 0abd 18e4 b6ba 19f0 b8bc
000002e0: 5c72 e33c fcce 643d 0532 5dbd 7dba 46bd
000002f0: 60ee 133d 2564 b23d 10e2 be3b dcfe fc3b
00000300: 20e9 8c3d 9ed8 23bc da11 953d 871f 76bc
00000310: 718c 6e3d 443a 963b 08c0 5a3d 0cba 1ebd
00000320: 1caa 553c d67c ed3c 01ac ad3b 5a7e e2bc
00000330: 05d3 8a3c 1435 28bd c6d8 053d f883 14bd
00000340: 588d 5c3b 477e a9bd 7e9a 4dbc 7694 143d
00000350: 3f74 963c 9488 2e3d 48a7 0fbd d1a1 95bc
00000360: ad55 efbc 77b7 a5bc d6a6 133c 7b3b d83b
00000370: 1995 ad3c f1b2 ff3c f32c 8d3d 297d f33c
00000380: dfdf 923c f4aa e738 869f 35bd a08e 153c
00000390: 3787 a1bb 1915 e5bc 7a44 47bd a3e4 8dbd
000003a0: af75 a43b 233a 1e3d 8477 d63c eacb f3b9
000003b0: 233b dfbb 0370 8c3d d9ca 3cbd 1f99 ebbb
000003c0: 621e 293d 02c8 8bbc f80e b33c ff75 c33c
000003d0: c001 253d 9983 72bd 12f1 883d 4429 a0bb
000003e0: 8da8 a53c 1588 e03c 582f 513d 75b2 81bb
000003f0: ad65 33bc 7532 d63c b889 083d a541 a7bb
0.012470264 -0.06034605 0.03274189 -0.07603522 -0.03149867 0.035521083 -0.021442715 0.050067402
-0.048046585 -0.0061833914 0.013188449 -0.0032689685 0.010262939 0.003415255 0.004363568 0.06762697
0.007566407 0.015281022 0.039244916 -0.0062975124 0.0066167405 0.05778709 -0.011942698 -0.0060111433
-0.0076710866 0.034135986 0.06825995 -0.025769243 -0.06532933 0.033273745 0.0129513545 0.0559686
-0.08254658 -0.03792357 0.007140341 -0.009809477 0.060828995 0.016547766 -0.0014494963 -0.034139417
-0.0058381204 0.014406484 0.0077745733 -0.043492317 0.03247552 -0.02103878 -0.046314165 0.026165206
0.031743266 -0.045446802 0.10931086 -0.063952334 0.005266789 0.014381612 0.019193854 0.012770373
0.01912349 -0.006184871 -0.026165493 0.00050206506 -0.08740469 0.047897846 -0.01841562 -0.013208489
0.047116954 -0.039987512 0.0046093385 -0.055747524 -0.0074416357 -0.025715973 0.029438477 0.018247634
0.030493576 -0.048479572 0.027154397 -0.009425522 -0.050683085 -0.035629563 0.030629115 0.0720642
-0.034931283 0.009232116 0.00024382348 0.03863995 -0.0068623372 0.0067047686 -0.03692095 0.023381626
0.021900473 -0.051152702 0.024697347 -0.026082199 -0.03154481 0.03956674 -0.01600741 -0.049546033
0.021290436 0.021602638 0.015803028 -0.006459155 -0.020848654 0.034193873 -0.038760964 0.069998555
0.023054741 0.068054006 0.015089765 -0.044114508 -0.0029283098 0.0038927537 -0.005313745 0.030057153
-0.011635273 -0.05331612 -0.033356756 -0.016392825 -0.039954316 0.02604474 0.05286426 0.02526628
0.007350803 0.008663432 0.02000674 -0.050733022 0.0021212467 0.03833632 0.026204761 -0.013975152
0.017045228 0.06928596 0.023257501 -0.050629422 0.03609746 0.03201912 0.013780142 0.03694393
-0.02711139 -0.02906797 0.021892166 0.04633781 0.019029178 0.00020343247 0.09154661 0.004200221
-0.039801016 0.013001074 -0.043698918 0.05476391 0.014975197 -0.09151643 0.063242055 0.021836506
-0.021214431 0.0038771988 -0.0342985 0.040546853 -0.03509378 -0.044210065 -0.055938285 -0.010648122
-0.05034169 -0.0057538752 0.019654738 -0.017504646 -0.009538607 -0.057706997 -0.018433027 0.0284525
-0.02785436 0.029972833 -0.05326406 -0.010048547 -0.0059858984 0.041300748 -0.06656937 -0.037994474
0.036405776 -0.07496151 0.0021148173 -0.0017673605 0.014070023 -0.033864435 -0.0013953475 -0.022575425
0.027764492 0.05586146 -0.05400278 -0.048517693 0.036116004 0.08710507 0.0058252886 0.0077208113
0.068804026 -0.010000376 0.072787955 -0.015022165 0.058239404 0.0045845825 0.05340579 -0.038751647
0.0130410455 0.02899019 0.0053000455 -0.02764814 0.016946325 -0.041066244 0.032677434 -0.036258668
0.0033653583 -0.082760386 -0.012549041 0.036274396 0.018365977 0.04261072 -0.03507164 -0.018265637
-0.029215658 -0.020229084 0.009011945 0.0065988875 0.02118926 0.031213256 0.06893339 0.029722767
0.017929016 0.00011046781 -0.044341587 0.009128243 -0.004929449 -0.027964162 -0.04864929 -0.069283746
0.005018912 0.038629662 0.026180036 -0.000465005 -0.0068124696 0.06857302 -0.046091888 -0.0071898843
0.04128874 -0.017063145 0.021857724 0.023859976 0.040284872 -0.059207533 0.066866055 -0.0048877317
0.020221973 0.027408639 0.05107054 -0.0039580413 -0.010949534 0.026147107 0.033334464 -0.005104261

action_model._continuous_distribution.mu.bias f4 [5]
00000000: 82d0 acbb d456 793c 044d 1bba b27c 843c
00000010: 08d2 a13b
-0.0052738795 0.015218455 -0.0005924257 0.01617274 0.0049383678
