ML and AI/Hummingbirds/Assets/Hummingbird/NNModels/Hummingbird_128.onnx (onnx, 318358 bytes, 7 tensors)

network_body._body_endoder.seq_layers.0.weight f4 [256, 46]
0.035721213 -0.16187325 -0.15589939 -0.26790842 0.084730476 -0.08569784 0.0777232 -0.019351088
0.11987534 0.13712345 0.050978877 -0.19882287 -0.2259002 -0.20540692 0.32937074 -0.13335517
0.23156404 -0.18356025 -0.14534949 -0.05267705 0.03513492 -0.09730863 -0.14031982 0.23650776
-0.0023846405 0.14513984 0.15008266 0.07738214 -0.045659065 0.061177224 0.27269682 -0.07141615
-0.18444906 0.43677375 -0.009257563 0.14203092 0.22493587 -0.047677707 0.08567126 -0.11912171
-0.07635743 -0.08214891 0.007494514 -0.17478064 0.25470087 -0.021772329 0.09591153 0.23868571
-0.2086089 0.14615679 -0.47461137 0.167185 0.052018262 -0.30956742 -0.19562443 -0.058509108
0.07335212 -0.14763598 -0.11263002 0.14545195 0.00048770677 -0.002259966 -0.058988098 -0.13908577
-0.32922235 0.005796983 -0.0829172 0.0017491201 0.034920372 0.006716759 -0.078246735 -0.027353315
0.17511871 0.13981341 0.03277228 0.006191692 -0.06661196 0.07230121 -0.22225372 0.14575286
-0.05631755 0.1455176 0.14702156 -0.090365656 -0.13713142 -0.021049233 -0.32744765 -0.121800825
-0.042840697 -0.2011137 -0.21546528 0.08208512 -0.11889553 0.29116312 -0.024407819 -0.1637269
0.32620317 0.33304834 0.17423545 0.036223736 0.053367395 -0.08404308 -0.06774389 -0.17568283
-0.11919006 0.09870141 -0.2895555 -0.10954853 0.38844916 -0.16343488 0.20963348 -0.1754688
-0.020316614 -0.14022666 -0.11935372 -0.15250674 0.17379631 -0.14789498 0.2772077 -0.04403907
-0.21663274 0.109665275 -0.03370264 0.029550629 -0.016040472 0.16275322 -0.0187259 -0.020059181
0.03292628 0.04009431 0.1331953 0.076192416 -0.20770718 0.115032345 0.17750739 -0.04947159
0.26368117 -0.011164247 -0.05867686 0.09488372 0.017356165 -0.041996762 0.15256025 -0.11793436
0.07650729 0.18842915 0.08480199 0.04472531 -0.0041314354 -0.0630581 0.24880855 -0.007387384
0.03049298 0.10939022 -0.0506584 0.12961334 -0.008417482 0.10349689 0.10811904 0.059826355
0.041745283 0.1877496 0.04733365 0.23637721 -0.081472866 0.034242008 -0.20418586 0.20876698
0.07869292 -0.09110718 -0.23427129 -0.015699346 0.2781989 -0.12615754 0.1561948 -0.25907418
-0.09616917 -0.3332195 0.01370169 0.075656995 -0.32940665 0.08208541 0.19757889 -0.10601064
0.10802786 0.03697555 -0.31946927 -0.08297673 0.28422633 0.191861 0.008277389 -0.059219584
0.00053163036 -0.05783094 0.0721235 0.011535377 -0.014892132 -0.13004625 0.08918688 0.06813852
0.14786687 0.009758037 -0.18585184 -0.22923103 -0.12651949 0.005232902 0.12990665 0.19515133
-0.34390572 0.012414136 -0.06717048 -0.0001146471 -0.06429436 0.14259285 -0.07521585 -0.16966622
0.1315331 -0.052256964 0.1826943 0.10309484 0.021600494 0.016292417 -0.11743163 0.0035580215
-0.03908217 -0.017255532 -0.025740435 -0.06328248 -0.14885953 -0.057747893 -0.0076955874 0.07996398
-0.12251831 0.0016325223 0.04391784 -0.1891887 -0.016343055 0.088781565 -0.16460511 -0.14370652
0.2517942 0.0090555055 -0.19304147 0.11824362 0.12222442 0.1339909 -0.09714815 0.16813907
-0.07011875 0.2271079 0.30970535 0.15843305 0.12652713 -0.22021933 0.14346173 0.124851584
00000000: 6850 123d 1ac2 25be 17a4 1fbe 4b2b 89be
00000010: 2c87 ad3d 5982 afbd 572d 9f3d 2c86 9ebc
00000020: 3481 f53d 176a 0c3e 3acf 503d 3998 4bbe
00000030: 6252 67be 3156 52be 48a3 a83e 428e 08be
00000040: 201f 6d3e 38f7 3bbe 7fd6 14be e4c3 57bd
00000050: a2e9 0f3d bf49 c7bd 00b0 0fbe 172f 723e
00000060: a147 1cbb 8a9f 143e 45af 193e 877a 9e3d
00000070: 0005 3bbd f894 7a3d eb9e 8b3e a142 92bd
00000080: 37e0 3cbe cfa0 df3e 09ad 17bc 8e70 113e
00000090: 9755 663e b349 43bd 6a74 af3d 15f6 f3bd
000000a0: 4961 9cbd b03d a8bd 8a94 f53b b2f9 32be
000000b0: 2768 823e e25b b2bc 446d c43d 076a 743e
000000c0: 929d 55be 20aa 153e 4300 f3be 8b32 2b3e
000000d0: 1a11 553d 9f7f 9ebe c551 48be 3fa7 6fbd
000000e0: a339 963d e32d 17be 91aa e6bd 5bf1 143e
000000f0: e5b2 ff39 f01b 14bb 819d 71bd 806c 0ebe
00000100: d58f a8be 9ef4 bd3b 7ed0 a9bd bb42 e53a
00000110: aa08 0f3d 4218 dc3b d33f a0bd 0f14 e0bc
00000120: 5252 333e 3f2b 0f3e 3a3c 063d ade3 ca3b
00000130: da6b 88bd a812 943d 7b96 63be 3d40 153e
00000140: 3bad 66bd 9102 153e d28c 163e a111 b9bd
00000150: 2e6c 0cbe 716f acbc 38a7 a7be b672 f9bd
00000160: ba79 2fbd c0f0 4dbe eea2 5cbe 3e1c a83d
00000170: 807f f3bd 5513 953e e8f2 c7bc 06a8 27be
00000180: 1a04 a73e 5085 aa3e c76a 323e 575f 143d
00000190: c597 5a3d c71e acbd 4fbd 8abd 33e6 33be
000001a0: eb19 f4bd f723 ca3d 9e40 94be fb5a e0bd
000001b0: cfe2 c63e 795b 27be 29aa 563e 18ae 33be
000001c0: 076f a6bc 9497 0fbe b96f f4bd ba2a 1cbe
000001d0: a9f7 313e c871 17be 2bee 8d3e 5062 34bd
000001e0: f9d4 5dbe 3098 e03d c80b 0abd 2914 f23c
000001f0: 4f67 83bc c8a8 263e 0f67 99bc 2753 a4bc
00000200: b5dd 063d ee39 243d 5964 083e c50a 9c3d
00000210: 31b1 54be 1496 eb3d 7fc4 353e b9a2 4abd
00000220: 3801 873e 3fea 36bc 2657 70bd 6552 c23d
00000230: 842e 8e3c cc04 2cbd c138 1c3e 9287 f1bd
00000240: dbaf 9c3d 92f3 403e aaac ad3d e331 373d
00000250: fe60 87bb 9b24 81bd abc7 7e3e de11 f2bb
00000260: 6acc f93c fb07 e03d 2f7f 4fbd 5cb9 043e
00000270: 7ae9 09bc 2df6 d33d 846d dd3d 7b0c 753d
00000280: 1afd 2a3d 6e41 403e eee0 413d de0c 723e
00000290: 3fdb a6bd 5941 0c3d 1916 51be 03c7 553e
000002a0: c129 a13d 6796 babd d0e4 6fbe ea9b 80bc
000002b0: 1670 8e3e 712f 01be 88f1 1f3e 5fa5 84be
000002c0: 58f4 c4bd bf9b aabe 0e7d 603c 0ef2 9a3d
000002d0: fda7 a8be 651c a83d 1f52 4a3e 1b1c d9bd
000002e0: b63d dd3d ad73 173d 7a91 a3be b4ef a9bd
000002f0: 1d86 913e 3677 443e e39d 073c 3c90 72bd
00000300: 1c5d 0b3a 23e0 6cbd 7cb5 933d e1fe 3c3c
00000310: 21fe 73bc d82a 05be 9ca7 b63d 358c 8b3d
00000320: 6a6a 173e 2ce0 1f3c f24f 3ebe 8abb 6abe
00000330: 538e 01be c378 ab3b 4006 053e c0d5 473e
00000340: 6914 b0be a964 4b3c ad90 89bd b16e f0b8
00000350: c3ac 83bd dc03 123e c40a 9abd fbbc 2dbe
00000360: 9db0 063e 660b 56bd 3714 3b3e 6323 d33d
00000370: 85f3 b03c ad77 853c ff7f f0bd b22d 693b
00000380: a014 20bd 795b 8dbc 9bdd d2bc 3f9a 81bd
00000390: a26e 18be 0e89 6cbd 442b fcbb 28c4 a33d
000003a0: e1ea fabd 5cfa d53a 31e3 333d afba 41be
000003b0: dfe1 85bc 1cd3 b53d 3e8e 28be cd27 13be
000003c0: 2beb 803e 8b5d 143c aaac 45be b629 f23d
000003d0: cc50 fa3d e934 093e 9cf5 c6bd a62c 2c3e
000003e0: 6b9a 8fbd f98e 683e b391 9e3e 463c 223e
000003f0: 5490 013e 2d81 61be a2e7 123e 30b2 ff3d

network_body._body_endoder.seq_layers.0.bias f4 [256]
0.0053547607 0.0053196526 0.004142433 -0.0039346386 0.0038475224 -0.00063443097 0.0011411239 -0.0021662747
-0.0027152274 -0.0008355863 0.00017258032 0.0016597065 -0.0008667644 -0.0020299824 0.004583498 0.004824498
-0.0007579049 0.0024721085 0.0029929765 0.009427283 0.0011152546 -0.0059842365 -0.0020528908 0.0007591669
0.0046123974 -0.0050973506 0.004263487 0.0035577612 0.00022278057 -0.0007063644 -0.0031353517 -0.004896031
0.000459817 0.00244968 0.0026364715 0.00488338 0.0027483355 -0.0016782058 0.0044715395 0.0033923357
0.002893817 0.0021566818 0.0014064976 -0.0012065892 -0.004554632 -0.0051734587 0.0015088657 0.005705531
0.0029506222 0.0030691437 -0.0021407874 0.0015554177 -0.0021717474 -0.0025686754 -0.0032864336 -0.0055713286
0.0033917797 0.005739662 0.0007544239 0.0036640835 -0.0014788025 0.0015582014 0.0048846193 0.004594207
0.000812823 -0.004815515 -0.0036452035 -0.005074098 -0.004765602 0.0018738562 0.0016987144 -0.0018043058
-0.0015612739 0.005420829 0.0005872473 0.0011624153 -0.0047624614 -0.002142345 0.004141536 0.002779716
0.0015718768 -0.002261939 -0.0010911416 0.002801599 -0.0018156766 0.0013144807 0.0011727416 0.0013351035
0.002306346 -0.00032597856 0.0011147405 0.004263126 0.002768098 0.0016014047 0.003280615 0.003080469
-0.0008547804 -0.0007562266 -0.0013565392 -0.00056605577 0.0013260641 -0.001118289 0.0034786698 -0.0011125158
0.0018400068 0.0009776984 -0.0009537066 -0.0018344696 0.0035658889 -0.008824767 0.0055693025 0.0032667425
0.005407216 -0.0067833457 -0.00035407903 0.0005687605 8.00172e-05 0.00044238748 0.0014223467 0.00064301165
-0.00021023284 -0.0026040424 0.00212003 0.002376932 -0.0017639834 -0.007950762 -0.001950692 -0.0040860847
0.004337004 0.000142649 -0.0030442604 -0.0046738544 0.0029038058 -0.004760495 0.000954314 0.0037778653
0.0032594532 -0.0016846613 -0.005016972 -0.0012989994 -0.0027200335 -0.003491361 -0.0034430942 0.002898173
-0.0016487717 0.001985463 -0.0012144239 -0.0026828558 -0.004985194 -0.0023423277 0.0027212482 0.0012391068
0.001884988 -0.002607107 -0.0033098597 0.001086393 -0.0036763258 -0.0011068515 -0.0021332134 -0.0022875518
-0.0031621866 0.00060404406 0.005729905 -0.0034632664 0.005214722 -0.006319984 0.0013390031 -0.0066451435
0.0044793626 0.0024489306 0.0019075213 -0.0049862633 -0.0043383054 -0.0027712118 -0.0012368134 0.00031305716
-0.0014752841 0.0030313078 -0.006572498 0.001726005 -0.0018887158 0.002435569 -0.0024486573 5.3075557e-05
0.002524235 -0.0047646374 -0.0010456275 -0.00051768817 0.0003139927 0.0037329257 0.00064288185 -0.0044915886
-0.0032834709 0.0032680756 0.0004216235 -0.0035424007 -0.00076443754 -0.0012532267 0.00088822405 0.0025869175
0.002158038 -0.0034673081 0.0011723866 -0.0009264958 -0.0010151649 -0.004066017 0.00064665714 0.0024989303
-0.0033039164 0.0050509037 0.0025346004 -0.0017734382 0.0018778674 0.0022043148 -0.002459599 0.002012933
0.0041549443 0.0023423415 0.001325137 -0.00029592126 -0.003358965 0.0019086922 -0.004666196 0.0058615645
0.0005591916 0.00019884271 0.0013781203 -0.003388321 -0.005688083 -0.005718316 -0.0037552137 -0.0011185494
0.000488242 0.0016631252 -0.0019897704 0.00055781606 -0.0018632119 0.0018450739 0.003385546 0.0020293735
0.0016917561 0.0026304722 0.0037598973 0.0037114357 -0.0053915144 -0.0007426615 -0.0016746526 -0.0031258017
0.0018291957 0.0033874505 -0.0031493735 0.0018357232 -0.005049156 -0.0027659077 0.0031383613 0.007714365
00000000: fd76 af3b 7b50 ae3b 3fbd 873b 24ee 80bb
00000010: b726 7c3b f14f 26ba c491 953a 0ff8 0dbb
00000020: f5f1 31bb 3f0b 5bba adf6 3439 828a d93a
00000030: 9337 63ba 7409 05bb 2b31 963b d316 9e3b
00000040: 23ae 46ba 1903 223b d025 443b e474 1a3c
00000050: bc2d 923a 6a17 c4bb cb89 06bb d402 473a
00000060: 9823 973b ad07 a7bb b9b4 8b3b 5429 693b
00000070: 349a 6939 502b 39ba 797a 4dbb e36e a0bb
00000080: 9813 f139 cf8a 203b a7c8 2c3b c304 a03b
00000090: 6b1d 343b 3ef7 dbba fe85 923b f351 5e3b
000000a0: 31a6 3d3b 1e57 0d3b 3a5a b83a 6a26 9eba
000000b0: 063f 95bb 1e86 a9bb 22c5 c53a 77f5 ba3b
000000c0: 3a5f 413b b023 493b 744c 0cbb 28df cb3a
000000d0: e053 0ebb 3957 28bb 3561 57bb b18f b6bb
000000e0: 9f48 5e3b c613 bc3b 88c4 453a 1f21 703b
000000f0: 61d4 c1ba 903c cc3a 280f a03b 008b 963b
00000100: a113 553a 78cb 9dbb 5ee4 6ebb 9e44 a6bb
00000110: c428 9cbb 2e9c f53a 66a7 de3a 757e ecba
00000120: a9a3 ccba 36a1 b13b 80f1 193a 2f5c 983a
00000130: 6c0e 9cbb 9666 0cbb b9b5 873b e52b 363b
00000140: 6f07 ce3a 0a3d 14bb a304 8fba 089b 373b
00000150: fffb edba a74a ac3a aeb6 993a a4fe ae3a
00000160: 1126 173b 1ae8 aab9 7c1c 923a b1b1 8b3b
00000170: fa68 353b 3ae6 d13a 96ff 563b b2e1 493b
00000180: 5713 60ba 823d 46ba e7cd b1ba 5c63 14ba
00000190: 54cf ad3a 8d93 92ba 65fa 633b d6d1 91ba
000001a0: 622c f13a 1d26 803a 2b02 7aba 9672 f0ba
000001b0: b0b1 693b c195 10bc b27e b63b d816 563b
000001c0: 042f b13b d446 debb afa3 b9b9 df18 153a
000001d0: e8ce a738 3ef0 e739 096e ba3a c88f 283a
000001e0: f371 5cb9 95a8 2abb 34f0 0a3b 4dc6 1b3b
000001f0: 7635 e7ba ea43 02bc 5dae ffba 90e4 85bb
00000200: 6d1d 8e3b 0d94 1539 3782 47bb 2227 99bb
00000210: c74d 3e3b edfd 9bbb ee2a 7a3a 1096 773b
00000220: 8d9c 553b dacf dcba 6965 a4bb 3043 aaba
00000230: 9742 32bb 51cf 64bb 89a5 61bb 46ef 3d3b
00000240: 991b d8ba 8b1e 023b 4e2d 9fba dad2 2fbb
00000250: d75a a3bb bd81 19bb f856 323b 8669 a23a
00000260: b411 f73a ffdb 2abb 3bea 58bb 4d65 8e3a
00000270: 83ee 70bb c613 91ba 62cd 0bbb c0ea 15bb
00000280: b03c 4fbb b658 1e3a edc1 bb3b f8f7 62bb
00000290: 42e0 aa3b de17 cfbb 7d81 af3a 81bf d9bb
000002a0: 9ec7 923b 3d7e 203b cb05 fa3a cf63 a3bb
000002b0: 5828 8ebb 389d 35bb 921c a2ba d221 a439
000002c0: 525e c1ba e8a8 463b 1c5e d7bb 1e3b e23a
000002d0: c98e f7ba 119e 1f3b a779 20bb 729d 5e38
000002e0: a36d 253b ad20 9cbb 700d 89ba 77b5 07ba
000002f0: 639f a439 1aa4 743b 1287 283a 2d2e 93bb
00000300: 802f 57bb 362d 563b 590d dd39 9f27 68bb
00000310: 8964 48ba 4f43 a4ba b5d7 683a 4689 293b
00000320: df6d 0d3b c73b 63bb c4aa 993a 15e0 72ba
00000330: 480f 85ba 393c 85bb 6d84 293a 18c5 233b
00000340: 8586 58bb 0d82 a53b 8a1b 263b b672 e8ba
00000350: c622 f63a 4476 103b 3931 21bb 69eb 033b
00000360: 3326 883b f881 193b 38b0 ad3a e125 9bb9
00000370: 1522 5cbb 152d fa3a e4e6 98bb 5e12 c03b
00000380: b796 123a 6f80 5039 0ba2 b43a 980e 5ebb
00000390: 1963 babb b660 bbbb 081a 76bb 4a9c 92ba
000003a0: bbfa ff39 39fd d93a cf66 02bb 673a 123a
000003b0: 0437 f4ba 68d6 f13a 09e0 5d3b 3dff 043b
000003c0: eabd dd3a 0064 2c3b 9c68 763b 8f3b 733b
000003d0: 4dab b0bb 2baf 42ba 0480 dbba 40da 4cbb
000003e0: 9fc1 ef3a fdff 5d3b b865 4ebb a69c f03a
000003f0: 6473 a5bb 3b44 35bb f7ac 4d3b c9c8 fc3b

network_body._body_endoder.seq_layers.2.weight f4 [256, 256]
-0.09111969 0.12821478 4.4574987e-05 -0.004784786 0.08295885 0.029812027 -0.055944037 -0.048667092
-0.06848361 -0.018012289 -0.07604377 0.0382649 -0.014369897 -0.05310965 0.049802396 0.023261605
-0.027915733 0.032566205 0.0010368429 0.095255904 -0.052795038 -0.08407145 0.025467906 0.0013688081
-0.06449367 0.04371552 0.07487327 -0.13858789 -0.039513435 -0.031503934 -0.019067898 0.014956586
-0.012548486 0.12653646 0.030587658 0.031445175 -0.027244225 0.049558457 -0.045345232 -0.011545378
0.01572249 0.07096529 -0.08740373 -0.1015269 -0.114162005 0.16199742 0.016421296 -0.05393714
-0.099601075 -0.0004999585 -0.029419763 0.03208198 0.08505963 0.043181308 0.043760374 0.041765243
-0.14825481 0.0031808077 0.0017456588 -0.019057268 0.06451827 -0.09302914 -0.036735002 -0.004819438
0.08997449 0.02047397 -0.011811081 -0.0031212468 -0.013534681 0.0021211994 0.0150028635 -0.11842798
0.008028087 -0.029250396 0.036966078 0.05472655 0.01228189 0.103710756 -0.020940803 -0.0015590504
0.06372031 0.09710053 0.006317935 -0.06678531 -0.0043637995 0.0035910758 0.039091542 -0.09805254
0.13492098 -0.02343087 -0.030974178 0.017293794 -0.017142236 -0.040825587 -0.027676595 -0.011237787
-0.116260596 0.053760655 -0.07261682 -0.048831187 -0.07123095 -0.037953507 -0.024482904 0.17357083
0.0028563878 0.07384857 0.13898408 -0.0657843 -0.060820587 -0.024433985 0.04289831 0.058418192
0.021069609 -0.06243939 -0.0011759166 -0.09322635 -0.10825312 0.19309875 0.038854 0.051865667
-0.17113231 0.005461101 -0.002043905 0.042046852 0.06757672 -0.026085053 -0.004127288 0.013434336
0.074166074 0.008905567 0.059158444 -0.06103611 -0.061448492 0.06140519 -0.04293991 0.07072142
-0.08124476 -0.052783497 -0.007965149 0.03476456 0.0029339995 0.11017858 -0.066008516 -0.011039751
0.057159614 0.06314719 0.034565434 -0.0513802 -0.017474065 -0.0017814195 -0.022286497 -0.016640106
-0.05898807 0.03247623 0.028151039 0.08252734 0.083594576 0.030559486 -0.15006281 -0.010192576
0.02130473 0.005534335 0.08247542 -0.011085314 0.08078555 0.042453453 0.03198191 0.109548815
-0.12575367 -0.102311336 0.10213354 -0.10938585 -0.0035990945 -0.080045715 -0.08437156 -0.060915213
-0.0011980286 -0.026684048 -0.023355091 -0.051456936 -0.09139107 -0.03579666 0.02930189 0.08730546
0.061895758 -0.11082281 -0.09077981 -0.08208205 0.043916255 0.043345224 0.06933055 -0.048917588
-0.025280561 -0.13966423 0.011347187 -0.055763077 -0.0017138281 -0.03456128 -0.005780644 0.024253258
-0.016796231 -0.042471223 -0.039611306 -0.026967637 0.072319455 -0.03605474 0.03922151 0.06141786
0.01742557 -0.06634314 0.050976165 -0.0038119857 0.010633207 0.080262564 0.029419344 0.019737657
-0.09965234 -0.11120579 0.009977202 -0.01685262 -0.019518128 0.034602266 -0.1313983 -0.025969887
-0.06966788 0.02037033 -0.15014867 0.018841904 -0.0192718 0.006074283 0.038333453 -0.03324701
-0.0051089004 -0.053590234 0.07917193 0.07563561 -0.09429055 -0.10293346 -0.030050531 0.078039855
-0.10139352 0.0027420365 -0.08388375 0.08398883 0.07821318 -0.0136872 -0.015574551 -0.013726329
-0.015661893 0.03955643 -0.070586555 -0.0006012152 -0.014180864 -0.022353958 0.0077325967 0.051243555
00000000: f69c babd bc4a 033e 07f6 3a38 b2c9 9cbb
00000010: 54e6 a93d 5a38 f43c 9325 65bd 2557 47bd
00000020: 2341 8cbd 828e 93bc d6bc 9bbd a8bb 1c3d
00000030: b76f 6bbc 8189 59bd 99fd 4b3d 1f8f be3c
00000040: 89af e4bc 2464 053d ade6 873a 8715 c33d
00000050: 9c3f 58bd a72d acbd 12a2 d03c 9469 b33a
00000060: 4215 84bd 0c0f 333d 2857 993d fce9 0dbe
00000070: d7d8 21bd 450a 01bd 4834 9cbc 780c 753c
00000080: 2a98 4dbc c692 013e f892 fa3c a8cc 003d
00000090: 482f dfbc cffd 4a3d ecbb 39bd d328 3dbc
000000a0: 74cc 803c 4056 913d ba00 b3bd 56ed cfbd
000000b0: c5cd e9bd a7e2 253e f485 863c 31ed 5cbd
000000c0: a6fb cbbd a60f 03ba b701 f1bc 6568 033d
000000d0: be33 ae3d e2de 303d 143e 333d 0812 2b3d
000000e0: 1cd0 17be 1975 503b 97ce e43a fd1d 9cbc
000000f0: 2822 843d 1086 bebd 7177 16bd 60ec 9dbb
00000100: 8c44 b83d 07b9 a73c 4483 41bc d58d 4cbb
00000110: 91c0 5dbc d203 0b3b 92ce 753c 5e8a f2bd
00000120: 3d88 033c 879e efbc be69 173d f228 603d
00000130: fb39 493c 4e66 d43d 0c8c abbc 0d59 ccba
00000140: cb7f 823d a5dc c63d ae06 cf3b bdc6 88bd
00000150: 34fe 8ebb 4158 6b3b 741e 203d c5cf c8bd
00000160: ba28 0a3e 19f2 bfbc 8fbd fdbc b7ab 8d3c
00000170: e06d 8cbc bb38 27bd 07ba e2bc b21e 38bc
00000180: 091a eebd 2234 5c3d 21b8 94bd 3603 48bd
00000190: 88e1 91bd 2375 1bbd 5f90 c8bc 8dbc 313e
000001a0: 3c32 3b3b eb3d 973d d851 0e3e ebb9 86bd
000001b0: 021f 79bd c829 c8bc 23b6 2f3d ea47 6f3d
000001c0: 2c9a ac3c 72c0 7fbd 3721 9aba 75ed bebd
000001d0: d0b3 ddbd aebb 453e 5f25 1f3d 1871 543d
000001e0: 4f3d 2fbe 09f3 b23b 09f3 05bb 5239 2c3d
000001f0: aa65 8a3d 52b0 d5bc 333e 87bb b01b 5c3c
00000200: 62e4 973d a8e8 113c 2050 723d 0001 7abd
00000210: 6ab1 7bbd 0284 7b3d c2e1 2fbd 64d6 903d
00000220: a763 a6bd 8233 58bd 4280 02bc 4965 0e3d
00000230: 5848 403b 4fa5 e13d 792f 87bd 12e0 34bc
00000240: 3320 6a3d 5053 813d 7c94 0d3d 0b74 52bd
00000250: c525 8fbc 857e e9ba 2c92 b6bc d550 88bc
00000260: 799d 71bd cc05 053d 029d e63c 1804 a93d
00000270: a233 ab3d e357 fa3c 11aa 19be c3fe 26bc
00000280: 4287 ae3c 5e59 b53b dfe8 a83d 2d9f 35bc
00000290: e572 a53d ace3 2d3d 77ff 023d 215b e03d
000002a0: 92c5 00be 9b88 d1bd 642b d13d b005 e0bd
000002b0: c9de 6bbb 02ef a3bd ffca acbd 3b82 79bd
000002c0: 2b07 9dba 8198 dabc 2d53 bfbc 82c4 52bd
000002d0: 3e2b bbbd 859f 12bd 840a f03c 34cd b23d
000002e0: 6886 7d3d 12f7 e2bd c4ea b9bd a21a a8bd
000002f0: 88e1 333d c38a 313d 2dfd 8d3d cf5d 48bd
00000300: 2e19 cfbc 2404 0fbe 8de9 393c d367 64bd
00000310: 87a2 e0ba 2190 0dbd 8e6b bdbb c5ae c63c
00000320: 4098 89bc 4ef6 2dbd 773f 22bd 3ceb dcbc
00000330: 391c 943d 23ae 13bd bca6 203d 4b91 7b3d
00000340: 12c0 8e3c eade 87bd 62cc 503d 82d2 79bb
00000350: e736 2e3c b360 a43d d600 f13c deb0 a13c
00000360: 8716 ccbd dcbf e3bd 6b77 233c 810e 8abc
00000370: 7be4 9fbc 1bbb 0d3d 478d 06be cdbe d4bc
00000380: 09ae 8ebd aedf a63c 93c0 19be 565a 9a3c
00000390: e5df 9dbc c70a c73b 8a03 1d3d 042e 08bd
000003a0: 9068 a7bb 6f81 5bbd e524 a23d d8e6 9a3d
000003b0: 671b c1bd c7ce d2bd 882c f6bc 5cd3 9f3d
000003c0: 68a7 cfbd bdb3 333b 3ecb abbd 5602 ac3d
000003d0: 3b2e a03d 4740 60bc 672c 7fbc 66e4 60bc
000003e0: 5f4d 80bc ec05 223d af8f 90bd de9a 1dba
000003f0: db56 68bc a61f b7bc b961 fd3b c3e4 513d

network_body._body_endoder.seq_layers.2.bias f4 [256]
0.0038149308 -0.00020232511 0.0018745959 -0.0013493111 0.0011562218 0.003006378 0.0032273903 -0.004171893
0.003004916 0.002330629 0.003616577 0.001704613 0.0034644874 0.0049794023 0.0037704643 -0.003960026
-0.0018018438 -0.0018874299 -0.0030449629 0.0008678784 0.0023715384 0.0024730584 0.0008218901 0.004051522
-0.002749648 0.0002783737 -0.00011648126 -0.0032311743 0.0044769463 -0.0029314905 0.003374315 0.0051604244
0.0067056865 0.0026442627 0.0037246135 -0.0024972332 -0.0002690026 -0.002213209 -0.0016257353 0.0009727809
-0.00052413926 0.005062287 -0.0031964008 -0.0036829705 -0.00016751923 0.0033479498 0.002837154 0.0026649595
0.0030343276 0.0039220606 0.004015422 0.004857856 0.0048220484 0.0014962764 -0.0025477463 -0.0019566836
0.0044848337 -0.0048810956 -0.0014851848 0.0016417386 -0.0020522815 0.005818151 0.0022340366 -0.0006164196
0.003896612 0.0015226176 0.0036725008 -0.0038381978 -0.003014811 0.0033048925 -0.0018689435 -1.4090183e-06
-0.0034332317 -4.44129e-05 0.0016018397 0.006252941 0.0017061457 0.00063862687 0.0031942273 0.0030666995
-0.0028426806 -0.001716437 -0.0054985844 -0.004100056 0.002148258 0.00068744126 0.002130298 -0.0035940108
-0.0011817019 -0.0016425918 -0.0041023074 -0.0038587896 0.003929214 0.0043257824 0.0022313776 -0.004360661
0.0002848592 0.00413395 -0.005303152 0.001974107 -0.0052887644 0.0016291513 -0.0011452588 0.0014420097
0.0021874206 0.0005637822 -0.0022580498 -0.0071835164 0.004034053 -0.0028812767 0.0034021558 0.0008238655
-0.0033394282 -0.0025798243 -0.0056485254 -0.0029370834 -0.0014526681 -0.004985904 -0.00021130421 0.00032901412
-0.0022704445 0.0025523833 -0.0045395396 0.00038698126 -0.0016032085 0.0046007987 0.0033332321 0.000102572376
-0.0012423305 -0.0025821156 -0.0022225226 0.0039086286 -0.005809017 0.004824686 0.00094581605 0.005367623
-0.003763243 0.0019837215 0.001212436 -0.0038543127 0.0049634874 0.00028347663 0.004310741 -0.0028372244
-0.004345888 -0.0019896273 -0.002607201 0.0024637037 -0.0035256871 0.00069631136 0.0046068444 0.0018072323
-0.0040179486 0.001305375 -0.0039026467 -0.0017852412 0.003143956 -0.0015462604 -0.0040413253 0.0028093965
-0.0059203994 -0.005837191 0.0027315745 -7.453049e-05 0.00043316162 -0.0021628786 0.001993451 -0.004653153
0.00269967 -0.0037540356 -0.0006813114 -0.001045755 -0.0046726507 0.002696723 -0.0020574732 0.002952362
0.0026500598 -0.0045651733 0.00028620873 -0.0016912348 0.003894284 0.004788335 0.0031905726 -0.0015803481
0.0009501268 -0.0028056565 -0.003245857 -0.0015029891 0.0022051434 0.00066614995 0.0033773317 0.0031761823
-0.0011932558 -0.0024418833 -0.00044627857 0.0036235948 -0.003823827 0.001622607 -0.0006387382 -0.0017567036
0.0033820982 0.0038427007 0.0048551164 0.0064211814 -0.003028109 0.0029005134 0.0021429858 -0.0038279558
-0.003938269 -0.0014353539 0.0031780493 0.0006168386 -0.002670702 -0.0019256829 0.0016230966 -0.0014508278
0.001753869 -0.00037589652 -0.0017507706 0.001854447 0.0024686023 -0.0004331423 0.0018552731 0.0053891568
-0.0039583673 -0.003748959 -0.0012709345 -0.0039220634 -0.003997866 -0.0010990014 0.002935047 -0.0014974755
-0.0024639105 -0.0035533502 0.00097603677 -0.001401536 0.005994988 -0.0010356035 0.0022143158 -0.0016159273
0.0009536932 -0.00067992334 -0.00013009322 -0.0007973852 0.0002614169 0.00045021734 -0.005540256 -0.00023856341
0.004529685 0.0015216218 -0.0033222793 0.0043959613 -0.0036525158 0.0019157811 0.002970142 -0.0021465954
00000000: eb03 7a3b 3c27 54b9 00b5 f53a 5edb b0ba
00000010: 5e8c 973a a706 453b a082 533b 60b4 88bb
00000020: 20ee 443b 77bd 183b 1804 6d3b 526d df3a
00000030: 740c 633b 412a a33b e519 773b 1bc3 81bb
00000040: d82b ecba a363 f7ba 008e 47bb 5582 633a
00000050: d06b 1b3b 0913 223b 1c74 573a a1c2 843b
00000060: 7033 34bb b0f2 9139 6647 f4b8 1cc2 53bb
00000070: 59b3 923b 401e 40bb 9d23 5d3b c718 a93b
00000080: 60bb db3b 5e4b 2d3b a518 743b 9fa8 23bb
00000090: eb08 8db9 7c0b 11bb a016 d5ba 3902 7f3a
000000a0: 6466 09ba 8be1 a53b b57a 51bb fe5d 71bb
000000b0: 1aa8 2fb9 4769 5b3b 8cef 393b 9aa6 2e3b
000000c0: 92db 463b a184 803b cd93 833b a62e 9f3b
000000d0: 4602 9e3b b41e c43a 17f8 26bb b43b 00bb
000000e0: 83f5 923b 99f1 9fbb 88aa c2ba 9b2f d73a
000000f0: 927f 06bb 30a6 be3b ea68 123b 3897 21ba
00000100: 4d5e 7f3b 9292 c73a 57ae 703b 468a 7bbb
00000110: 2394 45bb e596 583b 56f7 f4ba 801d bdb5
00000120: 1200 61bb fd47 3ab8 d2f4 d13a 79e5 cc3b
00000130: c0a0 df3a 8669 273a 3e56 513b aefa 483b
00000140: 444c 3abb 12fa e0ba 782d b4bb c359 86bb
00000150: cac9 0c3b 6735 343a 789c 0b3b 7f89 6bbb
00000160: 56e3 9aba 3c4c d7ba a66c 86bb bfe3 7cbb
00000170: a3c0 803b 4bbf 8d3b 4e3c 123b e0e3 8ebb
00000180: 2859 9539 1676 873b 10c6 adbb 0560 013b
00000190: 5f4d adbb 3f89 d53a 821c 96ba d101 bd3a
000001a0: d45a 0f3b c8ca 133a cafb 13bb b463 ebbb
000001b0: 1730 843b cdd3 3cbb b4f6 5e3b aef8 573a
000001c0: 4fda 5abb 4512 29bb 4417 b9bb 157c 40bb
000001d0: 7467 beba cb60 a3bb 8b91 5db9 877f ac39
000001e0: bdcb 14bb e345 273b 6bc0 94bb bfe3 ca39
000001f0: c022 d2ba 4cc2 963b 5b72 5a3b 201c d738
00000200: b2d5 a2ba b638 29bb bea7 11bb f413 803b
00000210: 9159 bebb 6618 9e3b a4f0 773a e3e2 af3b
00000220: bea0 76bb 5301 023b 9aea 9e3a a398 7cbb
00000230: c0a4 a23b 979f 9439 1e41 8d3b baf0 39bb
00000240: f367 8ebb 6864 02bb 93dd 2abb 1776 213b
00000250: 370f 67bb aa88 363a 03f5 963b a7e0 ec3a
00000260: ffa8 83bb 1e19 ab3a 8cc3 7fbb c1fe e9ba
00000270: d40a 4e3b e4ab caba 186d 84bb da1d 383b
00000280: e9ff c1bb e845 bfbb 3704 333b 414d 9cb8
00000290: f819 e339 15bf 0dbb 8fa4 023b 7a79 98bb
000002a0: f2ec 303b 4406 76bb 099a 32ba b711 89ba
000002b0: 091d 99bb 81bb 303b acd6 06bb 6a7c 413b
000002c0: a0ac 2d3b 7397 95bb 490e 9639 6cac ddba
000002d0: 3e37 7f3b 77e7 9c3b ed18 513b af23 cfba
000002e0: ee11 793a 1bdf 37bb 72b8 54bb f2ff c4ba
000002f0: 2b84 103b 91a0 2e3a 3956 5d3b 7f27 503b
00000300: 0567 9cba 0108 20bb 7ffa e9b9 d579 6d3b
00000310: 2c99 7abb a8ad d43a ff70 27ba 3141 e6ba
00000320: 31a6 5d3b d2d5 7b3b ab17 9f3b c668 d23b
00000330: 3d73 46bb 8a16 3e3b 5671 0c3b 71de 7abb
00000340: 980c 81bb 7c22 bcba d246 503b 56b3 213a
00000350: f206 2fbb 3267 fcba 16be d43a b429 beba
00000360: 14e2 e53a fa13 c5b9 1d7a e5ba ea10 f33a
00000370: 46c8 213b 6017 e3b9 a32c f33a 8697 b03b
00000380: 31b5 81bb 18b1 75bb 7c95 a6ba a784 80bb
00000390: 8800 83bb 5e0c 90ba eb59 403b f146 c4ba
000003a0: 8f79 21bb 53df 68bb b8dc 7f3a bfb3 b7ba
000003b0: 9b71 c43b 16bd 87ba 0e1e 113b 86cd d3ba
000003c0: 4401 7a3a e23c 32ba a269 08b9 9d07 51ba
000003d0: c80e 8939 260b ec39 098b b5bb e126 7ab9
000003e0: c06d 943b 2871 c73a 99ba 59bb ff0b 903b
000003f0: 0c5f 6fbb f21a fb3a b7a6 423b e5ad 0cbb

action_model._continuous_distribution.log_sigma f4 [1, 5]
0.005510378 -0.0011536384 0.00032733378 -0.001443849 -0.0027718758
00000000: 6790 b43b ae35 97ba ff9d ab39 883f bdba
00000010: 5ca8 35bb

action_model._continuous_distribution.mu.weight f4 [5, 256]
0.0074400483 -0.017015789 -0.0012807418 0.0075443727 0.0010893445 0.007930653 -0.00057467155 -0.018136756
-0.01687428 -0.015566891 -0.014292303 0.013511202 0.00879597 0.0054827305 -0.014267758 -0.0055727665
-0.014376178 -0.011922094 -0.01853137 -0.010960829 0.026200853 -0.0041327635 -2.0264451e-05 -0.017439261
-0.014884701 -0.0073482078 -0.01115114 0.0025102994 0.0018600712 0.022872645 -0.0059737368 -0.005624857
0.0016380008 -0.008395235 0.027525043 -0.007849098 -0.018841086 -0.0066766497 -0.00900143 0.008143559
0.013573129 0.0036274616 0.004828326 -0.02536679 -0.012094638 -0.012657096 0.0032283568 0.026792506
-0.019165128 -0.003719226 0.0050123534 0.0035279565 -0.0030661093 -0.0070297844 -0.017221691 -0.01517893
0.008940376 0.019503128 -0.009956862 -0.009488895 -0.015444759 0.012223258 0.008780259 -0.0028711534
0.012455172 0.01688803 0.00070156326 -0.0110418815 0.0014563621 -0.007580952 0.0071718576 0.011623272
-0.0028966926 0.018103968 -0.008392213 0.0037403295 0.022277975 -9.286175e-05 0.013086398 0.009811764
-0.006524106 -0.015282077 0.013212965 0.0021556562 0.019733876 -0.013525112 0.013156687 0.0006759726
0.0020878906 0.011340183 -0.01284499 0.0045926417 -0.0039967024 0.0010215165 0.012985892 -0.016334854
-0.011768235 -0.011811288 0.002166719 -0.016660975 0.014086256 0.013926482 -0.004113405 -0.007907784
0.024765328 -0.004554997 -0.0053797923 -0.002850338 0.0067743505 -0.0054017254 -0.002852607 0.010256914
-0.008283156 -0.017828524 -0.0005022746 -0.003480314 0.009305676 -0.022742243 -0.007214522 -0.022104133
-0.00067667966 0.009700846 -0.0062602875 -0.0070410836 -0.014175046 0.0057764794 -0.004203631 -0.0044674934
-0.004210805 -0.0073373695 -0.013867201 0.0116689 -0.000586091 0.00948183 -0.007890394 -0.00057151
-0.005408836 0.0049034613 0.00016887243 0.017681489 0.0087760575 0.0030048143 -0.01616023 -0.012113243
0.0060996246 0.0009082019 -0.0066032563 -0.0012249108 -0.013010932 0.009652703 0.0031782046 0.025183972
-0.0069350763 0.0024664798 0.013969142 -0.00066406594 -0.0058720107 0.005158451 -0.0093006855 -0.000663094
-0.017759897 -0.0003156287 -0.0020530552 -0.017976243 0.015976088 -0.03021481 0.004346544 -0.014291887
-0.0014329558 -0.0067215166 -0.0145237595 0.02588555 0.0020280185 0.014923554 0.00356052 -0.010434053
-0.0016621295 -0.0021240239 -0.029459054 -0.032834955 -0.013582493 -0.019308716 -0.00790476 0.014508222
-0.005342712 -0.015377403 0.0029937236 -0.0093395375 -0.0034222503 0.013384 -0.00096036185 -0.0074508195
0.0046797874 -0.014044224 0.0048091975 -0.009549911 0.014251016 -0.020508392 0.013304917 0.0033505808
0.016940167 0.00051637564 0.010883933 -0.0050406237 -0.012000604 0.007217927 0.008051648 0.002484701
0.009824089 -0.026101327 -0.0036202793 -0.015800359 0.006048972 0.0018049444 0.0052538197 -0.0036542928
-0.015127628 -0.0017986945 -0.007858797 0.0014568499 0.026337074 -0.0044164183 -0.0122354925 0.004037736
-0.0006162155 0.0009691568 -0.012364911 -0.009239587 0.008904958 -0.009856806 -0.012394589 -0.019706147
-0.0068059275 -0.004457106 0.0010247431 -0.011524299 -0.002604015 -0.013747611 -0.0016015051 -0.011440292
0.0012520156 0.006213262 -0.0072346274 -0.0031930085 0.005541213 0.0007960759 -0.00042010588 0.004614206
0.0007980851 -0.001362746 -0.0011860804 0.01859747 0.0031826678 -0.0001886518 0.0011742228 -0.012868871
00000000: a6cb f33b b264 8bbc 90de a7ba c936 f73b
00000010: 56c8 8e3a 92ef 013c 8ea5 16ba 8993 94bc
00000020: ee3b 8abc 460c 7fbc 432a 6abc 175e 5d3c
00000030: f91c 103c 7aa8 b33b 50c3 69bc c19b b6bb
00000040: 108a 6bbc e354 43bc 1acf 97bc 0d95 33bc
00000050: 2ca3 d63c 226c 87bb 94fd a9b7 c8dc 8ebc
00000060: f6de 73bc 3cc9 f0bb 45b3 36bc d683 243b
00000070: a2cd f33a 6a5f bb3c 56bf c3bb b850 b8bb
00000080: 30b2 d63a 2b8c 09bc 337c e13c 8199 00bc
00000090: 9f58 9abc ccc7 dabb bc7a 13bc 906c 053c
000000a0: d461 5e3c b5ba 6d3b ef36 9e3b 04ce cfbc
000000b0: 9728 46bc b55f 4fbc d792 533b f57b db3c
000000c0: 3000 9dbc 42be 73bb ab3e a43b 4a35 673b
000000d0: c7f0 48bb 1b5a e6bb 8114 8dbc 0cb1 78bc
000000e0: a87a 123c 06c5 9f3c 1b22 23bc 4f77 1bbc
000000f0: 040c 7dbc 0f44 483c 13db 0f3c f629 3cbb
00000100: c710 4c3c c458 8a3c 1de9 373a 02e9 34bc
00000110: 67e3 be3a a269 f8bb e701 eb3b 896f 3e3c
00000120: 70d6 3dbb c64e 943c 7e7f 09bc 5120 753b
00000130: 4d80 b63c c6be c2b8 5568 563c 85c1 203c
00000140: 2bc8 d5bb ad61 7abc 317b 583c e945 0d3b
00000150: f0a8 a13c 6e98 5dbc 258f 573c c133 313a
00000160: fed4 083b 2dcc 393c cb73 52bc df7d 963b
00000170: c5f6 82bb 68e4 853a c7c2 543c acd0 85bc
00000180: 8ecf 40bc 2284 41bc 83ff 0d3b 997c 88bc
00000190: 0aca 663c e62b 643c bec9 86bb a68f 01bc
000001a0: a8e0 ca3c 1642 95bb f848 b0bb bccc 3abb
000001b0: 5ffb dd3b f500 b1bb cef2 3abb 9e0c 283c
000001c0: 13b6 07bc 200d 92bc 14ab 03ba fb15 64bb
000001d0: d676 183c f14d babc cc67 ecbb ba13 b5bc
000001e0: 3463 31ba 4cf0 1e3c 1923 cdbb e4b8 e6bb
000001f0: 743e 68bc 9f48 bd3b 9dbe 89bb 0d64 92bb
00000200: cbfa 89bb 516e f0bb 4233 63bc ea2e 3f3c
00000210: e7a3 19ba ad59 1b3c b646 01bc 63d1 15ba
00000220: 9b3c b1bb 37ad a03b 5913 3139 c5d8 903c
00000230: 74c9 0f3c 6bec 443b 7562 84bc a076 46bc
00000240: 5cdf c73b 6614 6e3a 2160 d8bb 308d a0ba
00000250: ce2b 55bc 5f26 1e3c 6d49 503b 9e4e ce3c
00000260: a33f e3bb aaa4 213b d4de 643c b614 2eba
00000270: ff69 c0bb 3908 a93b e761 18bc 7cd3 2dba
00000280: 347d 91bc f87a a5b9 8d8c 06bb ea42 93bc
00000290: 49e0 823c 0d85 f7bc 746d 8e3b 8528 6abc
000002a0: 05d2 bbba 2b40 dcbb 10f5 6dbc ef0d d43c
000002b0: 81e8 043b ec81 743c 9d57 693b 97f3 2abc
000002c0: d0db d9ba 3533 0bbb 1d54 f1bc f27d 06bd
000002d0: 1b89 5ebc 502d 9ebc f782 01bc e5b3 6d3c
000002e0: eb11 afbb 81f1 7bbc 5932 443b dc04 19bc
000002f0: d547 60bb 9148 5b3c cbc0 7bba 0126 f4bb
00000300: e758 993b bf19 66bc 7996 9d3b 3b77 1cbc
00000310: 187d 693c 3701 a8bc defc 593c 6b95 5b3b
00000320: 1bc6 8a3c 625d 073a 8652 323c d12b a5bb
00000330: 2e9e 44bc 5c84 ec3b 0feb 033c 5ed6 223b
00000340: 37f5 203c 73d2 d5bc 3542 6dbb c16f 81bc
00000350: 7436 c63b e293 ec3a 3c28 ac3b dc7c 6fbb
00000360: dfd9 77bc 2cc2 ebba 2fc2 00bc c5f3 be3a
00000370: d9c0 d73c 9ab7 90bb 6077 48bc fc4e 843b
00000380: 8689 21ba 030f 7e3a 3296 4abc a361 17bc
00000390: 1ae6 113c 717e 21bc ad12 4bbc c96e a1bc
000003a0: 4204 dfbb ea0c 92bb ac50 863a 6ad0 3cbc
000003b0: 1fa8 2abb a93d 61bc 98e9 d1ba 1070 3bbc
000003c0: ac1a a43a 9f98 cb3b 7410 edbb cb41 51bb
000003d0: 1093 b53b c0af 503a a841 dcb9 c432 973b
000003e0: 9636 513a 2b9e b2ba 4176 9bba b959 983c
000003f0: 4e94 503b d5d0 45b9 61e8 993a f5d7 52bc

action_model._continuous_distribution.mu.bias f4 [5]
0.002319203 0.003265129 5.580696e-07 0.0049356534 -0.0021072077
00000000: c5fd 173b c6fb 553b 40ce 1535 43bb a13b
00000010: 1419 0abb
