ML and AI/Hummingbirds/ml-agents/results/hb_02/Hummingbird/Hummingbird-221120.onnx (onnx, 94614 bytes, 7 tensors)

network_body._body_endoder.seq_layers.0.weight f4 [128, 46]
00000000: e030 23be 559b 3abe ec20 143e ef80 d23e
00000010: 78b0 813c da7d a83e e1fe b1be dfae 5cbe
00000020: 2626 963c 0059 fb3d 76d7 94bd 26ff 1ebe
00000030: 5d2e a7be 2fc5 97bd 8428 8d3e 71b9 68bd
00000040: 3b78 f1bd 84d9 c93b da31 cbbd 0522 dcbd
00000050: 776c 98be 6c87 e43d 7a1a dd3d 42f1 0abe
00000060: b71b 75be 88ed 9c3d 20dd 113e 05c4 2e3e
00000070: f387 963b 9ea4 0c3d 46ba 7a3d dcb7 603d
00000080: 802b acbd 0ab5 443d ad3a e9be bd48 98bc
00000090: 77e7 0fbe 0479 cebd b009 1bbe 7e01 933d
000000a0: 1486 d03c a9aa ad3d e911 13be 7f6c ce3c
000000b0: 5f01 f73d db5d 333e 4274 99be 554d 723d
000000c0: ac89 8c3c 184b 4cbd 5565 38be c47a c0bd
000000d0: 0f68 543e b5d1 8a3d 34da 673d 10bb 8b3d
000000e0: cbec f0bd 9de7 ad3e ff56 15bd b906 103e
000000f0: ddc4 4e3e 941f febd 7a46 44be a465 85be
00000100: c287 e53c 80f0 713e a483 38bd 933f 813d
00000110: 9e0f 03bd 6f10 ccbd de1e 10bd ca4e dcbd
00000120: afd9 1c3b 6411 893e 53cc 3e3e 9df6 ccbe
00000130: eeaf f0bd f779 ae3c 8edf 00be be86 5abe
00000140: cdfc d7be 9ee4 8c3d 12a5 e43d 188c 463e
00000150: f295 a53e 1e61 42bc 990a 8dbe 8e59 1dbe
00000160: b873 963e d4d4 aabd 0d4b 893d caad c5be
00000170: c1e8 aebd 89cd 00bc 0050 843d 4853 7e3c
00000180: 893e 8d3b b378 9a3d de51 9f3d 552b 593c
00000190: bd57 ec3d f6e0 b93d 8a4a 5e3e a653 883a
000001a0: 84d3 b73e c5ba abbd 7e86 103e 6535 7e3d
000001b0: e371 a53b 9fad 633d 3554 d2bd 5543 91bd
000001c0: b5d0 9e3d 789a 64be 9969 3cbe 776c 8a3c
000001d0: f5b1 3f3e 0538 04be a163 723d 640b 86bd
000001e0: 1978 aa3e fae8 813d 925d 4cbe 222c 1f3e
000001f0: 720f 13be 22fd 953e 0268 e93d 107e 5f3e
00000200: 9962 913d 788b 96be 8938 213e 0f71 78be
00000210: 10e8 88bd 6cc1 1e3d 44d3 bf3d 0697 993c
00000220: c603 ad3e 9e47 26bc 2ded bcbd a3eb 423e
00000230: 3d52 a03e 4f9d 123e f3de 5dbe bcc2 6dbe
00000240: 87e9 543b 341b f13d a27a 25be 6d2b 833d
00000250: 1be7 bfbb 9b1e 01be 5941 e9bd b0a7 acbb
00000260: ed5e 7bbe fb11 673d bfe5 5ebc 430f 493e
00000270: 9d93 383d 831d c73c 25cb dc3d cdc9 533c
00000280: 3743 c8bd a51b cdbd 71b1 c73d b736 46bd
00000290: 7d49 473e 2959 8cbc 8a6f 7e3e abcd 773d
000002a0: 985a d53d 1c96 61bc 4215 3a3d 7fdd 94be
000002b0: 4972 bdbd 1df7 17be 3fb9 c8bd 6630 9fba
000002c0: 16e9 38be 7847 eebc 8406 1bbe e257 c33e
000002d0: 6e96 1d3e 243a 463e bdc0 c4bd 2818 28be
000002e0: 6c8b e73d bac7 96bb 230b 633e 2a4d 033e
000002f0: 7fcc ae3e 1ead 7e3e 4120 10bd e6c8 28be
00000300: b8f3 0fbe 7831 cebd 0a89 33be cc27 52be
00000310: 8cf8 7abe 761a ad3d 6734 8dbc 6562 14be
00000320: fe52 fbbd 8734 6bbd e1fd 6a3e d6f3 42bd
00000330: cf30 9abd 5927 d6bd b43c d7bd f021 33be
00000340: 9846 6b3e efcc b83d 4fc1 d93d c0fa 753c
00000350: 64a8 83bc b3cb 423e a12b c53d 8597 4bbe
00000360: ce70 233a 1eb7 0e3c 0845 d3bd d63c 26bd
00000370: a6bf 073e 987f 893d 0e8c 643d 8ad6 3b3c
00000380: 7adf 45be 6376 093e 2fa0 f5be 7612 4e3c
00000390: 2ab1 563e 458e f0bb 039a bd3d 0f92 793e
000003a0: f512 b43d 398a b3be 84fa 5c3c b3c9 103e
000003b0: 2654 343d 4424 833e 9671 783e 7b71 8e3d
000003c0: 866a 22be 01e6 a5be c3f2 cebd 6aab 24bc
000003d0: 176d a5bd 4c8c 41be d3fe c13d f4e9 69bc
000003e0: cc64 4bbe 71de aa3d a18b d33e 570c 393d
000003f0: c4be b13d 5db1 98bc 7a85 c93c 1308 323d
-0.15936613 -0.18223317 0.14465684 0.41113994 0.015831217 0.32908517 -0.3476477 -0.21551083
0.018328737 0.12272835 -0.072676584 -0.15527019 -0.3265256 -0.07410657 0.27569973 -0.056817476
-0.1179051 0.006159963 -0.09921618 -0.10748676 -0.29770252 0.11158642 0.10796066 -0.13568595
-0.23936354 0.07662493 0.14244509 0.17066963 0.004593843 0.03433668 0.0612128 0.054862842
-0.084067345 0.048024215 -0.4555258 -0.018589372 -0.1405314 -0.10081676 -0.15140414 0.07178019
0.025454558 0.084798165 -0.14362301 0.02519822 0.120608084 0.17516272 -0.2997151 0.05915578
0.01715549 -0.049876302 -0.18007405 -0.09398416 0.2074282 0.0677828 0.05660458 0.06822789
-0.11763915 0.3396577 -0.03645992 0.14065064 0.20192285 -0.12408367 -0.1916751 -0.26054108
0.028018836 0.236269 -0.045047417 0.06310954 -0.031997316 -0.09964072 -0.035185687 -0.10757215
0.002393346 0.2677108 0.18632631 -0.400319 -0.11752306 0.021298392 -0.1258528 -0.21340463
-0.4218506 0.06879543 0.11164297 0.19389379 0.32340962 -0.011863975 -0.27547148 -0.15366194
0.2938516 -0.08341375 0.06703768 -0.38609153 -0.08540488 -0.007861503 0.06460571 0.0155227855
0.0043104333 0.07542553 0.07779287 0.01325496 0.11540172 0.09076111 0.21708122 0.0010400906
0.3590356 -0.08385233 0.14113805 0.06206264 0.0050489767 0.0555855 -0.102699675 -0.07092921
0.077546515 -0.2232455 -0.18399657 0.016897423 0.18720229 -0.12911995 0.059177045 -0.06545141
0.33294752 0.06343265 -0.19957569 0.15544179 -0.1436136 0.29294688 0.11396791 0.21825433
0.07098884 -0.2940328 0.15744223 -0.24261878 -0.066848874 0.03875868 0.093664676 0.018748771
0.3379194 -0.010148911 -0.09224925 0.19035201 0.31312743 0.14317821 -0.2166708 -0.23218817
0.0032487826 0.11772767 -0.16160062 0.06404767 -0.0058564073 -0.12609331 -0.11389417 -0.0052690133
-0.2454793 0.056413632 -0.01360458 0.19634728 0.04506265 0.024306064 0.10780934 0.012926531
-0.09778445 -0.100150384 0.09750641 -0.048392024 0.19461627 -0.017132359 0.24847236 0.060498875
0.1041767 -0.013768699 0.04543043 -0.29075238 -0.09250314 -0.1484036 -0.09800958 -0.0012145161
-0.18057665 -0.029086813 -0.15139204 0.38152987 0.15389416 0.19358116 -0.096070744 -0.16415465
0.113058895 -0.004601446 0.22172217 0.12822405 0.34140393 0.24870726 -0.03518701 -0.16482887
-0.14057815 -0.10068029 -0.17532745 -0.20522994 -0.24508876 0.08452313 -0.017236901 -0.1449066
-0.12271689 -0.05742314 0.2294841 -0.04759582 -0.07528841 -0.10456724 -0.10509625 -0.17493415
0.22976148 0.09023463 0.10632574 0.015013397 -0.016071506 0.19023018 0.09627462 -0.19882019
0.0006234766 0.008710651 -0.10315901 -0.04058536 0.13256702 0.0671379 0.05579763 0.011464724
-0.19323531 0.13424067 -0.47973773 0.012577644 0.2096602 -0.0073411786 0.09257891 0.24372123
0.08792678 -0.35066393 0.013487462 0.14139442 0.044025563 0.25613606 0.2426208 0.069552384
-0.15860948 -0.32402042 -0.10104897 -0.010050634 -0.08077448 -0.18901175 0.09472432 -0.01427697
-0.1986267 0.083432086 0.41317466 0.045177784 0.08678964 -0.01863926 0.02459978 0.04346473

network_body._body_endoder.seq_layers.0.bias f4 [128]
00000000: 5f83 ae3c 09b4 293c 1f84 ed3b 5d88 b8bb
00000010: 292c 103c e0fc 823a 75b4 03bc c25a dd3b
00000020: e1da 42bb b4fc 32bb 3efd 103c c51d 883b
00000030: a5b3 b63b 8614 92bc 1be7 b03c 4515 5ebb
00000040: cfb7 f5ba f77a a6ba ce2d 81bb 7747 863b
00000050: 8075 03bb 514b 583b 493e 2abc 8cc6 56bc
00000060: 2c0c 44bc b4d0 80ba 4be6 ffbb 4eb2 073b
00000070: 01b4 2f3a baf3 0fbc 6d09 193b c0a2 c93a
00000080: 5904 b1bb ee78 3dbb 260f 243c ce7c 0cbc
00000090: bdec fcba 7133 5f3b 47ca 6c3c 1435 f5bb
000000a0: 2cf8 68bc 10ba 823c edf4 7f3c 5ea2 6e3b
000000b0: a89e f4ba 11af a73b c1ec 00bc 96ff 2c3c
000000c0: 33d1 923a 262e 01bc 696c 343c b4e7 143c
000000d0: 8afb f63b 243f 6dba bd04 913c 0a08 533b
000000e0: 9167 99bb d549 903c 64e8 693c 6e51 cb3b
000000f0: 7bb1 ed3b 1a1c aeba 4263 bf3a 502b c93b
00000100: f944 243b 22ed f33b c063 f5bb 31d0 303c
00000110: 0efe 7c3b 9bfa 1e3c 1aa7 263c b6c5 863b
00000120: 31d2 38bc d449 ae3b 7ded 783b 2430 693b
00000130: fb2d a93a 1261 12ba 32a2 053c e1bb 993c
00000140: b329 fe39 9e32 b5bb 714f b83b 8910 4a3c
00000150: 23ea c5bb 677c 743a 3855 1a3c a24e 85ba
00000160: c7f2 00ba c72e 6d3b 24c5 a33b c5bb 573c
00000170: 8838 7d3b 718f 3e3c 5594 083b 7c4a 8c3c
00000180: c899 9f3b b854 cdbb f446 66bb aab7 cabb
00000190: 0b43 873c 98c0 873b edab b73b 8254 a13b
000001a0: 6274 babb 7018 cc3b be94 333b b41f 923c
000001b0: e3cc cdbb a660 aa3b fc36 2cbc bbef 92ba
000001c0: a794 6b3c abaa 993a 7dfc 353c 6911 603c
000001d0: aced 833c 05d2 97ba a4ba 973a 8cf6 9ebb
000001e0: aa36 fc38 457c b03b d930 89bb caef 67bc
000001f0: 0c01 3fbb 117a c53b cecd 133b fca5 593c
0.021302877 0.010357865 0.007248416 -0.00563149 0.008799591 0.0009993576 -0.00803863 0.006755204
-0.0029732513 -0.0027311267 0.00884944 0.0041539394 0.0055756145 -0.017832052 0.021594575 -0.003388719
-0.0018746796 -0.0012701441 -0.003942228 0.0040978747 -0.002005905 0.0033003876 -0.0103908265 -0.013108861
-0.011965793 -0.0009827823 -0.0078094355 0.0020705643 0.0006702543 -0.008786136 0.0023351565 0.0015383586
-0.0054021296 -0.002891119 0.010013377 -0.008574678 -0.0019296628 0.003405776 0.014452524 -0.007483134
-0.014219325 0.015957862 0.01562236 0.0036412696 -0.0018663006 0.005117305 -0.0078689465 0.010558983
0.0011201262 -0.007884538 0.011012175 0.009088445 0.00753731 -0.0009050241 0.017702455 0.0032200837
-0.0046815355 0.01761333 0.014276598 0.0062047755 0.0072538233 -0.0013283521 0.0014601725 0.0061391965
0.0025065525 0.00744404 -0.007488698 0.010791824 0.0038603577 0.009703304 0.010171676 0.0041129244
-0.011280582 0.0053188596 0.003798335 0.0035581673 0.001290738 -0.00055839226 0.008156346 0.018766345
0.00048477724 -0.0055297157 0.0056247045 0.012333044 -0.006039874 0.0009326399 0.009419732 -0.0010170529
-0.0004918989 0.0036191212 0.004997866 0.013167326 0.0038638432 0.011630879 0.0020840366 0.01712536
0.004870627 -0.006266203 -0.0035137506 -0.0061864452 0.01651146 0.004142832 0.005605212 0.004923404
-0.0056901434 0.006228499 0.002740189 0.017837383 -0.006280528 0.0051995097 -0.010511156 -0.0011210361
0.014378703 0.0011723837 0.011107561 0.013676026 0.016104542 -0.0011582976 0.0011576009 -0.004851168
0.00012026478 0.005385908 -0.0041867313 -0.014156291 -0.002914491 0.0060265143 0.002255309 0.013284203

network_body._body_endoder.seq_layers.2.weight f4 [128, 128]
00000000: e7b2 2fbd d3b1 d23d b9a4 923d 62e0 8e3c
00000010: 6787 afbd 1155 34be 3ec0 183d 04ba 8ebd
00000020: e18e bf3d 7143 963d 2cb4 403c 739a fa3c
00000030: b6d2 373d f4bf d83d e6d2 53bc b7e4 a5bd
00000040: d706 8f3d 817f ab3d 0a12 133e d364 5ebd
00000050: 3ab1 cebd 1467 14be 34bb 5fbd c53f 19bc
00000060: 20a6 21bd 7884 2dbe dbcb 61bb 9368 22be
00000070: 32b7 bcbd 3107 563e 8277 11bd 3825 a63d
00000080: 7d49 723d 98e8 9bbd 6522 cdbd 67d2 b7bd
00000090: dfc9 b3bd 0ffe a83b 1444 b8bd 5325 9cbd
000000a0: 9220 183d 09f2 123e 7efa 35bd 4e61 913d
000000b0: 6de3 4f3c 7e14 ec3b 558f a13d 6e97 ff3b
000000c0: d98b 5c3c 078a cbbd 525c 63bd 2db1 a3bd
000000d0: 6cf5 153d 7c20 023d 2cb7 33bc 8df0 653c
000000e0: 440f 9f3d 26a7 49bd 117e dd3d 9312 80bd
000000f0: 7de3 d4ba 3ac4 eb3d a677 d63d 7145 803b
00000100: b323 103e 4981 eb3c fcac 173c 0112 0b3e
00000110: d8ac e53d e61c c0bd b5d6 b33d 42ea cd3c
00000120: 8985 d13d d715 563d c707 1dbc 6cbd 223d
00000130: 4270 7fbd 0441 c0bd 639a 4d3e 6965 b9bd
00000140: 7d6a 91bd 077b 323d d75a a33d f513 fb3d
00000150: 06a5 c23b 3e3e f23d 7eb2 9fbd e57a 42bd
00000160: 5b5a 973c 9a07 0ebe 0a85 91bd a1f2 bd3c
00000170: 3297 34be b291 86bd 11d3 b13d 70eb b63d
00000180: 11b5 323d 5b97 fdbc c14a a0bc b99f 0d3e
00000190: 19cc 45bb 4f65 16be 99a5 f33d 30fd 80bd
000001a0: 0878 263c 4a11 2a3e f06a 90bd 4cda b73c
000001b0: 8ab6 40ba 4993 683d 3968 54be 5064 7b3c
000001c0: 435a 35bb f2ab 9b3d c363 c1bd 4915 e63d
000001d0: 79fc a03b 3626 c2bd d562 5abe 9468 50bd
000001e0: 5e22 80bc 7fe2 a6bc 82a5 293d 5c84 05be
000001f0: 6020 9bbd 3ea7 63bd 06c9 b23d 9c2e 97bc
00000200: 9fa2 0fbd 3864 5ebd f4d1 01bc dc23 07be
00000210: 9c9b 1fbc 5671 f5bc 89eb 133c 632c 943d
00000220: 6996 9c3d 909f 7f3d b1d8 1abe d7ee dabc
00000230: a384 ee3d a689 8dbc f941 abbd 609c 2e3e
00000240: f034 f7bc e974 bcbd cfd4 833d 50c5 713d
00000250: 4a19 2cbd 843d d33c 9579 383b 5c85 09be
00000260: 4d31 1f3e 6334 803d f9c0 2b3e 672f c5bd
00000270: 39d3 03bd 927f 51bd 631b 96bd 064d 80bb
00000280: 7b5d 44bd 4d56 5fbc eeb4 3c3d 6515 813d
00000290: 4bdc a63d a5e3 05be 99e8 8cbd d827 4d3d
000002a0: e39e dbbd 45ad 80bb 2056 04be 5c1d 3ebc
000002b0: db8d fb3b 35a0 e9bd 466e c33d aabb 35bd
000002c0: cb28 40bd d5bd c5bd 099c b0bb 682c 85be
000002d0: 949a 6a3d 3486 933d 8f97 8fbd 65a8 303d
000002e0: ba51 1dbd 0b1a 2a3d 4dbc 003e f2e3 f9bb
000002f0: a33c 20be 4cd3 bd3d 468d ebbc fccb dabb
00000300: ca54 22be c37a 92bd 6750 91bc ae4e be3d
00000310: e51b 0d3c 5297 e23d dfb3 9b3d 9c90 54bd
00000320: c794 06bc 13c4 ffbc 3b1e a73d d42e 413d
00000330: 9fad 4d3d 5999 303d b3ee 8c3c c49c a1bd
00000340: 1c72 b13d 2e79 9c3d 07c4 fa3c 76d8 c43d
00000350: 35e7 843c eb91 bfbd 5434 a13d 1acf 293d
00000360: 7b68 f53d 4a76 b63c 36a8 0ebd d2f3 b93d
00000370: 1942 4cbd ca09 243e 5a65 093e 3788 bebd
00000380: 6aad 083d 798f a43b 512c f0bd defc 4ebd
00000390: bfaa edbc 3c16 25bd 2ef2 8abb 54f9 c2bc
000003a0: 661f c1bd 951c 8abc c711 0dbe 0e5e 953d
000003b0: 1785 343d a489 c4bc f9bd 69be b605 8c3d
000003c0: 1307 edbd b487 2d3c f717 fdbd f4d9 78bd
000003d0: 5113 6abc 0859 85bd d021 f4bd 648c ac3c
000003e0: 9517 7e3c 18f4 29bd 969b 493d d9b6 1a3e
000003f0: 95c8 5d3d 9d81 dcbc 4811 003d 44f8 86bd
-0.042895224 0.102878235 0.071603246 0.017440978 -0.08570748 -0.17610575 0.03729271 -0.069690734
0.09353424 0.07337082 0.011761706 0.030591225 0.044878684 0.10583487 -0.0129287 -0.081002645
0.069837265 0.08373929 0.1436235 -0.054295372 -0.10092397 -0.14492446 -0.05462189 -0.009353583
-0.03946507 -0.16945064 -0.0034453783 -0.15860204 -0.09214629 0.20901181 -0.035514362 0.08112568
0.059152115 -0.07612723 -0.10016326 -0.08975678 -0.08778738 0.0051572393 -0.0899736 -0.076243065
0.037140436 0.14350142 -0.04442834 0.070986375 0.0126885 0.0072045913 0.078886665 0.0078000342
0.013461077 -0.09938436 -0.055507965 -0.07992778 0.036611006 0.03176926 -0.010968965 0.014034403
0.077665836 -0.04923167 0.10815061 -0.06253543 -0.0016242113 0.115120366 0.1047204 0.003914528
0.14076118 0.028748171 0.009257551 0.13581087 0.11214608 -0.09380512 0.087811865 0.025136117
0.10230548 0.05226692 -0.009584374 0.039731428 -0.062362917 -0.09387401 0.20078425 -0.090525456
-0.07100389 0.04357436 0.07976311 0.12259666 0.0059400825 0.11828278 -0.077977166 -0.047480483
0.018475702 -0.13870087 -0.07105453 0.023186984 -0.17635801 -0.06570758 0.08682836 0.08931625
0.04362971 -0.030955961 -0.019566895 0.1383046 -0.0030181466 -0.14687084 0.118968196 -0.06298292
0.010160454 0.16608158 -0.07051647 0.02244296 -0.0007351419 0.056781087 -0.20742883 0.015343741
-0.0027672208 0.07601155 -0.09442856 0.112345286 0.0049129096 -0.094799444 -0.21326764 -0.050880983
-0.015641388 -0.020371674 0.041417606 -0.13038772 -0.075745344 -0.055579416 0.087297484 -0.018454842
-0.035067197 -0.054294795 -0.007923592 -0.13197273 -0.00974169 -0.02996127 0.009028324 0.072350286
0.07645876 0.06240803 -0.15121724 -0.026725216 0.11646392 -0.01727755 -0.08362193 0.1705184
-0.03017661 -0.09201986 0.064370744 0.059026062 -0.042016305 0.025786169 0.002814864 -0.13429779
0.1554615 0.06259992 0.16772832 -0.09628182 -0.03218386 -0.05114705 -0.07329442 -0.003915432
-0.047940712 -0.013631416 0.046070985 0.06302909 0.08147486 -0.13075121 -0.06880302 0.050086826
-0.107236646 -0.0039269053 -0.12923479 -0.0116036795 0.0076768226 -0.1140751 0.09542517 -0.044368424
-0.046913903 -0.09655348 -0.0053896946 -0.26010442 0.057276323 0.072033316 -0.070113294 0.043129344
-0.03840802 0.041528743 0.12571831 -0.00762605 -0.15648131 0.09268817 -0.028753888 -0.006677149
-0.15852657 -0.07152321 -0.017738534 0.09292351 0.008612608 0.11064018 0.07602667 -0.051895723
-0.008214182 -0.031221425 0.08160063 0.0471638 0.050214406 0.043114994 0.017203664 -0.07891229
0.08664343 0.07640301 0.030611051 0.09611599 0.01622353 -0.093540035 0.07871309 0.041457273
0.11982819 0.022273201 -0.034828387 0.09079708 -0.049867723 0.16019359 0.13417569 -0.09303325
0.033368506 0.005021986 -0.11727203 -0.05053412 -0.029012082 -0.040304407 -0.004240296 -0.02380053
-0.09429817 -0.016859332 -0.13776313 0.0729333 0.044072237 -0.023991413 -0.22826375 0.06837027
-0.11573615 0.010591436 -0.123580866 -0.06075473 -0.014286832 -0.06511122 -0.11920512 0.021063037
0.015508552 -0.04149255 0.049220644 0.15108813 0.054146368 -0.026917273 0.03126648 -0.06590322

network_body._body_endoder.seq_layers.2.bias f4 [128]
00000000: 036f 88ba 7da2 003c 29e0 7bbb 3ef9 99bb
00000010: 8f51 d638 ca65 87ba 3403 463c 0914 f33b
00000020: 4146 bfbb 40b0 0dbb 76a3 63bb 8e77 37bc
00000030: 3229 43bc 293b 7ebb e009 463b 17ff 34bc
00000040: 90a6 0fbc 5a21 ceba 72b7 8a3c da3c 073c
00000050: 3950 723c 87ad d33b 3f40 14bc 3f1e 5d3c
00000060: 9fae c439 40b4 e83b c07d b0bb 46f5 1e39
00000070: 7a5c 01bc b5fb 053c d5bd ac3b 1cd6 e0bb
00000080: 41c5 193a cb80 78ba 3bcf 693c 89f8 943c
00000090: cae0 2ebc ad2c 453a 6cf5 a6bb 0c88 94b9
000000a0: 46b4 1dbc 7fa8 4e3b 6460 0cbc 67e2 caba
000000b0: 34f8 9dbb c668 9e3a 1235 bf3b fd5c ea3b
000000c0: b0d9 2f3a accc 1cbb d707 033c 73d1 ce3b
000000d0: baf2 713b a4d3 3a3c 1683 07bc a625 413b
000000e0: 97e9 223c e5f3 803b 2856 933b 89e6 753b
000000f0: a0b3 79bc b097 e03a 6a25 cb3a 0a06 ec3b
00000100: 2bc2 2abc f361 823c babb b73b df5a 05bc
00000110: 4bca d23b 6e35 d137 c813 8f3c 994c 803c
00000120: 7fde 003c ca44 bd3b 56e3 deba 5033 5538
00000130: b3e6 ffbb 410f 7f3c c1da 823c 34d6 743b
00000140: 4fa6 b53a a683 c0ba 7895 123c 34e1 b33b
00000150: b281 4aba 1f31 593a 1207 373a d2f8 03bc
00000160: 8b2c 10bc 66b0 d73b ec43 03ba 14cc 8bbc
00000170: a541 2d3c 8bea 123c ad8f 663c 0313 073a
00000180: ff6e 74bc 39a8 e53a 21b6 baba 044b 7fbb
00000190: a755 84bb 2e6b 35bb 9473 9d3b 5378 273c
000001a0: 8656 be3b 61a5 663b 7d56 3abc f9f6 97b9
000001b0: a1c9 223c c3c0 35bc 3ed7 d23b e443 8d3b
000001c0: caa1 5f3a 4d4c 24bc bc79 babb 645e 833b
000001d0: 6d6b 353c ecb7 bdbb d0a3 473c baa3 29bb
000001e0: 3ec6 533c 2faf 10bc 7ef1 5e3c 6519 483c
000001f0: 799d 083b d02a 89bc cc85 16bc 8178 0cbc
-0.0010409061 0.00785124 -0.003843317 -0.0046989014 0.00010219507 -0.0010330018 0.012085725 0.00741816
-0.0058372323 -0.0021619946 -0.0034734881 -0.011197938 -0.011911677 -0.0038792586 0.0030218288 -0.011047146
-0.008767739 -0.0015726492 0.016933177 0.008254254 0.014789634 0.006459895 -0.009048521 0.013495981
0.00037514136 0.0071015656 -0.0053860843 0.00015159426 -0.007895583 0.008177687 0.005271653 -0.0068614613
0.000586588 -0.0009479641 0.014270599 0.018184917 -0.010673711 0.0007521611 -0.0050951745 -0.00028330123
-0.0096255 0.0031533537 -0.008567903 -0.001547885 -0.004820848 0.0012085668 0.005835184 0.0071521983
0.0006708158 -0.0023925705 0.007997475 0.0063115894 0.0036918358 0.011402998 -0.008270999 0.0029471903
0.0099433875 0.0039353245 0.0044963546 0.0037521443 -0.01524058 0.001713505 0.0015498821 0.0072028683
-0.01042227 0.015915846 0.0056070955 -0.008139341 0.0064328066 2.4939622e-05 0.017465487 0.015661525
0.007865547 0.0057760226 -0.0017005007 5.0830946e-05 -0.007809484 0.015567602 0.01597345 0.003735912
0.0013858768 -0.0014687672 0.008946769 0.005489493 -0.00077250146 0.00082852127 0.00069819496 -0.008054929
-0.008799682 0.0065823076 -0.00050073746 -0.017065085 0.010574733 0.008967052 0.014072341 0.0005152674
-0.014919042 0.0017521448 -0.0014244952 -0.0038954625 -0.004038531 -0.0027682292 0.0048050378 0.010221559
0.0058086542 0.0035193788 -0.0113731595 -0.00028984973 0.009935767 -0.011093321 0.0064343503 0.0043110717
0.00085308834 -0.010027957 -0.0056907814 0.004009055 0.011072976 -0.0057897475 0.012185052 -0.0025884942
0.012925683 -0.0088308295 0.013607381 0.012213086 0.0020845814 -0.016744047 -0.009187173 -0.008573652

action_model._continuous_distribution.log_sigma f4 [1, 5]
00000000: 8470 8c3c 9888 9a3c 6e84 c53b d71c 1a3c
00000010: ea35 633c
0.017143495 0.018863961 0.0060277497 0.00940629 0.013867835

action_model._continuous_distribution.mu.weight f4 [5, 128]
00000000: 7e23 e13b 9e85 df3c 28d6 9e3c 3d78 933b
00000010: acd5 4e3d e1b8 0a3c d810 583b 3e46 e03c
00000020: 8934 d73c 3f53 d7bc f684 9fbc d217 b7ba
00000030: cad0 c5bb 2b81 76bc d6a2 03ba 3bc6 babc
00000040: 2e25 a8bc 32eb 8abc 6fc1 99bb bb06 393c
00000050: b5c3 d63c 3f94 ad39 f386 9aba 2e2b 2c3c
00000060: 91f8 f83c 1e44 0abc 5f9f aeba bc75 913b
00000070: fe82 813b db37 ce3c 0def 84bc cddd b23c
00000080: 869d a3b9 a38a ebbc 6c8d c13c 512f 7f3b
00000090: 6988 37bc f607 cfbc fc3e 86bc 4aab ad3c
000000a0: ad6f 0ebd e294 03bd ade6 13bc 940b 463d
000000b0: 54a2 c63b e24d 99bc 3a0e 8c3c 4bb8 71b9
000000c0: c07a 02bc d5b7 bf3c 0905 283c 2e2a ba3b
000000d0: 55b9 a0ba bc15 01ba b6e3 0bbd 1e12 c9bc
000000e0: d6b2 5fbc 576f bdbc d07f 05bd 50eb 573d
000000f0: 32d8 9fbc 568a 2cbd 4e1e cabc ce44 debb
00000100: ef96 bdbc 031e 3c3c c7ac bdbc 00ac 61bc
00000110: a3cd fabc c763 4dbc 1e18 793c 1fb4 d63c
00000120: 7e71 053d 2622 3dbc 2732 48bc 56db d5ba
00000130: c105 ddbc a0ef b23c 2d39 273b 1aca 14bc
00000140: 911d 79bc f075 9339 b7f7 423b e781 c03b
00000150: 385e 1abc fc94 843c 7742 093c d9cc 84bb
00000160: 9f96 44bc b1ce 3b3d e0b2 f4bc 23f0 9dbc
00000170: 3527 8e3d 2531 0b3b 1ed2 9c3b c69a 8d3a
00000180: 3407 3fbc c83d 2a3c 643e 093c 41bc 9cba
00000190: ea0a 023c 1162 9aba 9d32 383c 8cfb 243d
000001a0: dcf2 85b8 5baf 10bd 7000 eabc 85bd b9bc
000001b0: a694 87bc 849c 8dbc 5030 143c e9a4 e03b
000001c0: 9fef 7e3b dcfd d0bc e739 b03c 63ef c03a
000001d0: 3b73 d13a 47e5 bfbc 07d8 ee3c 846f d7bc
000001e0: 9b7d 24bb 179f 653c 9327 8c3a c497 d23b
000001f0: 2327 fabb 5e42 f6bc a181 cf3c 5be7 8ebc
00000200: 405e 91bc fa15 44bb 4858 3dbc ef83 d93b
00000210: 879f ddbc d338 71bc 17fb 23bb 5747 78bc
00000220: 2a51 5538 f4ff 07bc 0a77 88bc b7b1 08bd
00000230: 8c10 c63b 41a3 7d3d b78e 97bb 81d5 cebc
00000240: 07a6 993c 99f9 423d fc37 9d3c 6755 1e3c
00000250: 7a68 823c ce02 d439 9125 aebc 8e6a 013c
00000260: c584 b33c 31dc a83b 009a 873b bbf5 33bc
00000270: c0b8 3a3c a4c4 0fbd 638b 473c 9725 4abd
00000280: 8b36 e23c 808c 973c 18af 17bc e211 1c3d
00000290: fba6 12bd d5ac 90bc 7174 c43c 283e 3cbc
000002a0: da34 edbc 6464 88bc a2c3 863c ceb7 10bd
000002b0: 2715 e53b 955d 0c3c fe8e 7fbc d4a8 9bbc
000002c0: 1cb7 81bc f7ef ce3c 7cb1 f63c 6e18 923c
000002d0: f0a7 b4bc 9927 a93c 2932 1ebb 2baa 073b
000002e0: 633d 793c 5759 ba3c 7e3b a03c 8dc9 773c
000002f0: 0cad 0abd bd53 86bc ffc0 f53b 2d82 e6bb
00000300: d5d1 a7bc 523d b73c ed3f ddbb 649a 02bd
00000310: 8683 7cbc e240 d93b 577c 9e3c a73e 3c3c
00000320: c1a8 a1bb 53ba fd3c 1242 c93c 9af1 843c
00000330: be45 4cbb 6e2f 513c 294c ce3c dfe3 77bc
00000340: d34c 123c 82a6 3ebc ebce 4c3c 967f 9cbc
00000350: 9f17 e4bc 1031 d83c e56d d639 02d2 963b
00000360: 4e08 c0bb b74d 353d 7704 ed3c 3f18 12bd
00000370: f1c6 703c 840c 053d 5fbe 1c3c 7d92 56bc
00000380: 2362 87bb c6df 893c f376 b9bc 86df 0bbb
00000390: ede8 4ebc 5666 473b a3b8 9d3c 91b5 193c
000003a0: b8c9 723c a3b3 203d 1d9c 9c3c 493b 7a3c
000003b0: 23aa 353c a04e d3bb 64e9 d0bc 46b7 393d
000003c0: 3f07 063d 2e87 543b 5e9f 9f3b cd74 a73b
000003d0: bfcd d33b 2a6b 28bc 9e67 c63c aa97 88bc
000003e0: 479e 1e3b 4669 123a efbf f53c 1b22 6c3b
000003f0: 6ce5 aabc dffd cdbb ae8a d13b f432 32bc
0.006870686 0.027285393 0.019389227 0.0045004175 0.050496742 0.00846693 0.0032969024 0.027377244
0.026270168 -0.026284812 -0.01947258 -0.0013968891 -0.0060368525 -0.0150454445 -0.0005021518 -0.022799602
-0.020525541 -0.016957853 -0.0046922485 0.011293109 0.026216367 0.00033107583 -0.0011789486 0.010508342
0.030391963 -0.008439092 -0.0013322643 0.004439084 0.003952383 0.025173118 -0.01622727 0.021834278
-0.00031207147 -0.02875263 0.023627006 0.0038938115 -0.011201956 -0.02527235 -0.016387455 0.021199841
-0.03477447 -0.032124408 -0.009027165 0.048350886 0.0060618315 -0.018713895 0.017096628 -0.00023052206
-0.007963836 0.023403088 0.010255107 0.0056812977 -0.0012262264 -0.0004924198 -0.03415271 -0.024544772
-0.013653478 -0.02312438 -0.032592595 0.052714646 -0.01951227 -0.042124115 -0.024672654 -0.0067831045
-0.02314326 0.011481765 -0.023153676 -0.013773918 -0.030615633 -0.012535996 0.015203504 0.026208935
0.032578938 -0.011543786 -0.0122189885 -0.0016315978 -0.026980283 0.021842778 0.0025516257 -0.009081388
-0.015204803 0.00028125895 0.00297497 0.0058748606 -0.009421878 0.016184323 0.008377663 -0.00405274
-0.0119988015 0.045851413 -0.02987045 -0.019279545 0.06941072 0.002123901 0.00478579 0.0010803572
-0.011659432 0.010390706 0.0083766915 -0.001195796 0.007937172 -0.0011778494 0.011242536 0.040278956
-6.38717e-05 -0.035323482 -0.028564662 -0.022673378 -0.016550373 -0.017286547 0.009044722 0.0068555963
0.003890015 -0.025511675 0.021511985 0.001471978 0.0015979776 -0.023424758 0.029155744 -0.026298292
-0.002509928 0.014014981 0.0010692946 0.0064267833 -0.00763406 -0.030060943 0.025330367 -0.017444303
-0.017745137 -0.0029920326 -0.011556692 0.006638042 -0.027053608 -0.014723021 -0.0025021487 -0.0151537275
5.0858747e-05 -0.00830077 -0.016658325 -0.033372607 0.006044453 0.06192327 -0.004625167 -0.025248291
0.018755926 0.047601316 0.019191734 0.009663916 0.015918959 0.0004043788 -0.021258147 0.00789894
0.021913895 0.005153202 0.0041382313 -0.01098388 0.011396587 -0.03509964 0.0121792285 -0.049352255
0.027613899 0.018499613 -0.009258054 0.038102992 -0.035803776 -0.017660538 0.023981305 -0.011489429
-0.028955866 -0.016649432 0.016450707 -0.03533154 0.006991047 0.008567234 -0.015598057 -0.019001402
-0.015834384 0.025260909 0.030113928 0.017833915 -0.022052735 0.020648764 -0.0024138785 0.0020700793
0.01521239 0.022747679 0.019559618 0.015123737 -0.033856437 -0.016397351 0.0074998136 -0.007034561
-0.020485798 0.022368107 -0.0067520053 -0.03188552 -0.015412217 0.006630049 0.0193464 0.011489547
-0.004933447 0.030972635 0.024567638 0.016228486 -0.00311695 0.012767656 0.0251828 -0.015130012
0.008929449 -0.011636378 0.012500505 -0.019103806 -0.027843295 0.026390582 0.0004089914 0.0046026716
-0.005860365 0.044263568 0.028932793 -0.035667654 0.014695869 0.03248264 0.009566872 -0.013096449
-0.004131572 0.016830336 -0.022639727 -0.0021342947 -0.012628776 0.0030425987 0.01925308 0.009381668
0.014818601 0.039233815 0.01911741 0.015272924 0.011087927 -0.006448582 -0.025501914 0.0453408
0.032721754 0.0032429206 0.004871293 0.0051103593 0.006463736 -0.010279456 0.02421933 -0.016673882
0.0024203227 0.0005585145 0.029998748 0.003603107 -0.02086135 -0.0062863673 0.0063947057 -0.010876406

action_model._continuous_distribution.mu.bias f4 [5]
00000000: 896b 6d3b 1f50 313b cb53 abba 0cd1 623c
00000010: 94c5 6c3b
0.0036227426 0.0027055813 -0.0013071237 0.013843786 0.0036128508
